Transformer-Time-Series-Forecasting-main/save_model/best_train_2.pth (torch, 477647 bytes, 50 tensors)

encoder_layer.self_attn.in_proj_weight f8 [9, 3]
0	0xbfd9833500000000	-0.3986332416534424
1	0x3f765e2000000000	0.005460858345031738
2	0xbfe13bc7e0000000	-0.5385474562644958
3	0xbfb721b700000000	-0.0903581976890564
4	0xbfdda3eb20000000	-0.46312978863716125
5	0xbfcebf7680000000	-0.24021798372268677
6	0x3fe321f260000000	0.5978938937187195
7	0xbfd71de920000000	-0.36120060086250305
8	0xbfde8e55e0000000	-0.47743746638298035
9	0xbfe071bb40000000	-0.5138832330703735
10	0xbfda877ba0000000	-0.41451922059059143
11	0x3fb6dac400000000	0.08927559852600098
12	0xbfe0f12100000000	-0.5294346809387207
13	0x3fd33d2ac0000000	0.3006083369255066
14	0x3fb7870c00000000	0.0919044017791748
15	0xbfddca9480000000	-0.4654895067214966
16	0xbfb195fa00000000	-0.06869471073150635
17	0x3fdf4a5fc0000000	0.488914430141449
18	0xbfd56e39e0000000	-0.3348526656627655
19	0xbfe4c5ed20000000	-0.6491609215736389
20	0x3fb56de500000000	0.08370810747146606
21	0x3fdcc0be40000000	0.4492641091346741
22	0x3fe34b37e0000000	0.6029319167137146
23	0xbfe33d9380000000	-0.601266622543335
24	0x3fe3cd48e0000000	0.618809163570404
25	0xbfe0403b80000000	-0.5078408718109131
26	0xbfb0b31000000000	-0.0652322769165039

encoder_layer.self_attn.in_proj_bias f8 [9]
0	0x0000000000000000	0.0
1	0x0000000000000000	0.0
2	0x0000000000000000	0.0
3	0x0000000000000000	0.0
4	0x0000000000000000	0.0
5	0x0000000000000000	0.0
6	0x0000000000000000	0.0
7	0x0000000000000000	0.0
8	0x0000000000000000	0.0

encoder_layer.self_attn.out_proj.weight f8 [3, 3]
0	0x3f8d285800000000	0.01423710584640503
1	0x3fdedb8e00000000	0.4821505546569824
2	0xbfd52c8100000000	-0.3308413028717041
3	0xbfbbe73d00000000	-0.1089971661567688
4	0xbfc65b9dc0000000	-0.17467090487480164
5	0x3fd8ade980000000	0.3856147527694702
6	0xbfd26e3380000000	-0.28797614574432373
7	0xbf96f2f000000000	-0.022411108016967773
8	0xbfdced75c0000000	-0.4519934058189392

encoder_layer.self_attn.out_proj.bias f8 [3]
0	0x0000000000000000	0.0
1	0x0000000000000000	0.0
2	0x0000000000000000	0.0

encoder_layer.linear1.weight f8 [2048, 3]
0	0x3fe2743240000000	0.5766841173171997
1	0x3fdb7db200000000	0.4295468330383301
2	0xbfbf72ff00000000	-0.12284845113754272
3	0xbfbab3e080000000	-0.10430720448493958
4	0x3fc4957c80000000	0.16081196069717407
5	0x3fd1ce9d00000000	0.27823567390441895
6	0x3fc58da100000000	0.16838467121124268
7	0xbfd0b872a0000000	-0.2612577974796295
8	0x3fd9171800000000	0.39203453063964844
9	0xbfdb52b8a0000000	-0.4269239008426666
10	0xbfcbbaee80000000	-0.21664220094680786
11	0x3fd80bc5c0000000	0.37571853399276733
12	0x3fd6924f80000000	0.3526800870895386
13	0xbfdaef22e0000000	-0.42084571719169617
14	0x3fd5cf94c0000000	0.34079474210739136
15	0x3fe17a8e40000000	0.5462104082107544
16	0xbfd6621460000000	-0.3497363030910492
17	0x3fd1be79c0000000	0.2772507071495056
18	0x3fe06a2a80000000	0.5129597187042236
19	0xbfd58c8d20000000	-0.3367035686969757
20	0xbfb8ac7b80000000	-0.09638187289237976
21	0xbfdb70f380000000	-0.42876899242401123
22	0x3fd7c43e00000000	0.3713526725769043
23	0x3fd696f400000000	0.3529634475708008
24	0xbfb7015580000000	-0.0898641049861908
25	0x3fd7722440000000	0.36634165048599243
26	0x3fe22731c0000000	0.5672844648361206
27	0xbfc9fcb240000000	-0.20302417874336243
28	0xbfe165f180000000	-0.543694257736206
29	0x3f91b3a400000000	0.017286837100982666
30	0xbfc9ba2280000000	-0.2009928822517395
31	0x3fcadb8e80000000	0.209825336933136
32	0x3f7fdf4000000000	0.007781267166137695
33	0xbfdbe63b20000000	-0.4359271824359894
34	0xbfd3553440000000	-0.30207544565200806
35	0x3fe2770340000000	0.5770279169082642
36	0xbfcb956a40000000	-0.21549728512763977
37	0x3fda518600000000	0.4112257957458496
38	0x3fe15c8180000000	0.5425422191619873
39	0xbfe04ffd80000000	-0.5097644329071045
40	0x3fd84ed540000000	0.3798115849494934
41	0xbf9dd43c00000000	-0.02912992238998413
42	0xbfda908f20000000	-0.4150731861591339
43	0xbfcc5e7a40000000	-0.22163322567939758
44	0xbfd2fa07c0000000	-0.29651063680648804
45	0x3fd5bafc40000000	0.33953768014907837
46	0x3fd6695f00000000	0.35018134117126465
47	0x3fcb288200000000	0.2121737003326416
48	0x3fbfacd700000000	0.12373107671737671
49	0xbfdeba77a0000000	-0.480131059885025
50	0xbfb4c7ee80000000	-0.08117571473121643
51	0x3fd2b50a00000000	0.292299747467041
52	0x3fd5315dc0000000	0.33113807439804077
53	0xbf77039000000000	-0.005618631839752197
54	0x3fb3e9cc00000000	0.07778620719909668
55	0xbfa3355400000000	-0.037516236305236816
56	0x3fd1b56e00000000	0.27669858932495117
57	0x3fd7a85080000000	0.3696480989456177
58	0xbfbf1e3700000000	-0.12155479192733765
59	0xbfd0130200000000	-0.2511601448059082
60	0x3fd59ea580000000	0.3378080129623413
61	0x3faa4ee800000000	0.051383256912231445
62	0x3fcb3c4380000000	0.21277660131454468
63	0x3fc6e36780000000	0.1788148283958435
64	0x3fbcfd6a00000000	0.11324179172515869
65	0xbfb163f600000000	-0.06793153285980225
66	0x3fcd8b7b80000000	0.23081916570663452
67	0x3fdff67380000000	0.49941718578338623
68	0x3fe2198fc0000000	0.5656203031539917
69	0x3f975cc000000000	0.02281475067138672
70	0xbfb7c92c80000000	-0.092913419008255
71	0x3fb236a300000000	0.07114619016647339
72	0xbfa71f5000000000	-0.045160770416259766
73	0xbfdc615f40000000	-0.4434431195259094
74	0xbfb0f85e00000000	-0.06628978252410889
75	0x3fb40a5b00000000	0.07828301191329956
76	0xbfc6c6eac0000000	-0.17794546484947205
77	0xbfd2a35da0000000	-0.2912210524082184
78	0x3fe0717400000000	0.5138492584228516
79	0xbfe19f9dc0000000	-0.5507344007492065
80	0xbfc559e900000000	-0.16680634021759033
81	0x3fa6b43000000000	0.04434347152709961
82	0x3fd76b2040000000	0.365913450717926
83	0xbfb1fa7f00000000	-0.07022851705551147
84	0xbfd7f8cce0000000	-0.37456056475639343
85	0x3fb77b5000000000	0.09172534942626953
86	0x3fd085f5c0000000	0.2581762671470642
87	0x3fbb56d900000000	0.10679394006729126
88	0x3fd5c4ff00000000	0.3401486873626709
89	0x3facce2400000000	0.05626022815704346
90	0x3fd7150f40000000	0.3606603741645813
91	0x3fb3613a00000000	0.07570230960845947
92	0xbfe017f7e0000000	-0.5029258131980896
93	0xbfe21cde40000000	-0.5660239458084106
94	0x3fd1fb9a00000000	0.28098154067993164
95	0xbfd0c71920000000	-0.2621519863605499
96	0x3fd23d5880000000	0.2849942445755005
97	0xbfc94682c0000000	-0.19746431708335876
98	0x3fc749b400000000	0.18193674087524414
99	0xbfb25ee800000000	-0.07176065444946289
100	0x3fdfa05600000000	0.49416112899780273
101	0xbfa3824000000000	-0.03810310363769531
102	0x3fd462bf00000000	0.3185269832611084
103	0xbfd8579320000000	-0.3803451359272003
104	0xbfd5122440000000	-0.32923227548599243
105	0xbfd31ed700000000	-0.29875731468200684
106	0x3fde524d00000000	0.4737732410430908
107	0x3fe08bd840000000	0.5170708894729614
108	0xbfc3289d00000000	-0.14967691898345947
109	0xbfd6b28b60000000	-0.3546474874019623
110	0x3fdec22e00000000	0.48060178756713867
111	0xbfc6e34f00000000	-0.1788119077682495
112	0x3fd4c624c0000000	0.324593722820282
113	0xbfd7843700000000	-0.3674447536468506
114	0x3f9c083800000000	0.027375102043151855
115	0xbfe2325a60000000	-0.5686466097831726
116	0x3fd288bdc0000000	0.2895960211753845
117	0x3fe1b0aa00000000	0.5528154373168945
118	0xbfd87af180000000	-0.382503867149353
119	0x3fc938f300000000	0.19705045223236084
120	0x3fd55cd180000000	0.3337901830673218
121	0xbfd997dd40000000	-0.3998940587043762
122	0x3fd2c04780000000	0.29298579692840576
123	0xbfe116bac0000000	-0.5340245962142944
124	0xbfb4cab800000000	-0.08121824264526367
125	0x3fd19b0a40000000	0.2750878930091858
126	0x3fcb45a680000000	0.2130630612373352
127	0x3fd8a18700000000	0.3848588466644287
128	0xbfc224e700000000	-0.14175117015838623
129	0xbfc821c980000000	-0.18853110074996948
130	0x3fe0b4d700000000	0.5220751762390137
131	0xbfd269d6e0000000	-0.28770992159843445
132	0x3fe07481c0000000	0.5142220258712769
133	0xbfa9060000000000	-0.0488739013671875
134	0xbfcf6d5380000000	-0.2455238699913025
135	0xbfc6545740000000	-0.1744488775730133
136	0xbfe169b120000000	-0.5441518425941467
137	0xbfb9e49f00000000	-0.10114473104476929
138	0xbfddfbf360000000	-0.46850284934043884
139	0x3fdaa7a400000000	0.41648197174072266
140	0x3fcaebba00000000	0.21031880378723145
141	0x3fb5b6cc00000000	0.08482050895690918
142	0x3fc9217480000000	0.19633346796035767
143	0x3fc4346c00000000	0.15784978866577148
144	0x3fb4d8b300000000	0.0814315676689148
145	0xbf91997800000000	-0.017186999320983887
146	0xbfd5ac8a80000000	-0.33865606784820557
147	0xbfc7902440000000	-0.18408635258674622
148	0xbfc79e9f80000000	-0.18452829122543335
149	0x3fdbc0f800000000	0.4336528778076172
150	0xbfc01211c0000000	-0.12555143237113953
151	0x3fcc8a1600000000	0.22296404838562012
152	0x3fe185dcc0000000	0.5475906133651733
153	0x3fd577a880000000	0.3354283571243286
154	0xbf9beb1400000000	-0.027263939380645752
155	0x3fc2371e80000000	0.1423071026802063
156	0xbfc6d92ec0000000	-0.1785028874874115
157	0xbfcecce100000000	-0.24062740802764893
158	0x3fd21a6f80000000	0.2828634977340698
159	0xbfd4e0b560000000	-0.32621511816978455
160	0xbfb4f15a00000000	-0.08180773258209229
161	0xbfdcb34b40000000	-0.4484432339668274
162	0xbfe268c5c0000000	-0.5752896070480347
163	0xbfc10547c0000000	-0.13297364115715027
164	0x3fe23cf780000000	0.5699422359466553
165	0x3fcc058400000000	0.2189183235168457
166	0x3fc7ac0980000000	0.18493765592575073
167	0xbfcf942e00000000	-0.24670958518981934
168	0xbfccd4b700000000	-0.2252415418624878
169	0xbfd0696140000000	-0.2564318776130676
170	0xbfd5b8d560000000	-0.3394063413143158
171	0x3fb9f5d300000000	0.10140722990036011
172	0x3fd3c9bd80000000	0.30918824672698975
173	0xbfd9312e00000000	-0.39362668991088867
174	0xbf7d126000000000	-0.007097601890563965
175	0xbfd9167f00000000	-0.3919980525970459
176	0x3fcf218b80000000	0.24321120977401733
177	0x3fde44fb80000000	0.47296035289764404
178	0xbfb5269700000000	-0.08262008428573608
179	0xbfd0d63800000000	-0.2630748748779297
180	0x3fb56e8c00000000	0.08371806144714355
181	0xbfb3a24700000000	-0.07669490575790405
182	0x3fdd15f380000000	0.45446479320526123
183	0x3f93c0b000000000	0.019289731979370117
184	0xbfe183e4e0000000	-0.5473503470420837
185	0xbfb3384b00000000	-0.07507771253585815
186	0xbfe0a067e0000000	-0.5195807814598083
187	0x3fcc90bd00000000	0.2231670618057251
188	0xbf991bec00000000	-0.024520576000213623
189	0xbfde1a5980000000	-0.4703582525253296
190	0xbfdd3ab8e0000000	-0.4567091166973114
191	0xbfdeb13220000000	-0.47956517338752747
192	0x3fe2641040000000	0.5747147798538208
193	0xbfd06e33a0000000	-0.2567261755466461
194	0x3fd781d880000000	0.3673001527786255
195	0xbfc514d4c0000000	-0.16469821333885193
196	0xbfe0df8ae0000000	-0.5272879004478455
197	0xbfd421f440000000	-0.31457239389419556
198	0x3fc8449c80000000	0.1895938515663147
199	0x3fb8460100000000	0.09481817483901978
200	0x3f80ed9000000000	0.00826561450958252
201	0xbfca9b3980000000	-0.20786207914352417
202	0x3fd04b36c0000000	0.2545906901359558
203	0x3facdf2600000000	0.05638998746871948
204	0x3fced6de80000000	0.24093228578567505
205	0x3fcab01400000000	0.20849847793579102
206	0x3fdbdc4a80000000	0.43532049655914307
207	0x3fd09f1c80000000	0.2597113847732544
208	0x3fe0042d80000000	0.5005099773406982
209	0x3fce2ca580000000	0.23573750257492065
210	0xbfd134d260000000	-0.2688489854335785
211	0xbfcaaa92c0000000	-0.20833048224449158
212	0x3fdcf47600000000	0.452420711517334
213	0xbfe0088760000000	-0.5010411143302917
214	0x3f92171800000000	0.017666220664978027
215	0xbfdf5cd360000000	-0.4900406301021576
216	0x3fdde3a880000000	0.4670201539993286
217	0x3fd98f1500000000	0.39935803413391113
218	0xbfe1520720000000	-0.5412631630897522
219	0xbfdaa3cc40000000	-0.4162474274635315
220	0x3fde9ea480000000	0.4784327745437622
221	0x3fe173cbc0000000	0.5453852415084839
222	0x3fd3a7f340000000	0.30712586641311646
223	0xbfc2315300000000	-0.14213025569915771
224	0xbfc1709500000000	-0.13624823093414307
225	0x3faf485600000000	0.06109875440597534
226	0xbfca4aa700000000	-0.20540320873260498
227	0xbfd7f962c0000000	-0.3745962977409363
228	0x3fcadde380000000	0.2098965048789978
229	0x3fd19d21c0000000	0.2752155661582947
230	0x3fe09352c0000000	0.5179837942123413
231	0x3fc4a85400000000	0.16138696670532227
232	0x3fe1da3d40000000	0.5578905344009399
233	0x3fcaffbd00000000	0.2109295129776001
234	0x3fd3625500000000	0.30287671089172363
235	0xbfe187c5c0000000	-0.5478237867355347
236	0x3fd6be4340000000	0.3553627133369446
237	0xbfdfe239e0000000	-0.4981827437877655
238	0x3fdfd7dd80000000	0.497550368309021
239	0xbfc2fa6540000000	-0.14826646447181702
240	0xbfe1885100000000	-0.5478901863098145
241	0x3fafbbd200000000	0.061979830265045166
242	0x3fdd7c0300000000	0.4606940746307373
243	0xbfddc86080000000	-0.4653550386428833
244	0x3fdfb91800000000	0.49567222595214844
245	0xbfe002d2c0000000	-0.5003446340560913
246	0x3fe11da980000000	0.5348708629608154
247	0xbfa56d6600000000	-0.041850268840789795
248	0xbfd4f21580000000	-0.3272756338119507
249	0xbfdad71120000000	-0.4193766415119171
250	0xbfdbb95900000000	-0.43318772315979004
251	0xbfdeddb2c0000000	-0.4822813868522644
252	0xbfcf43f9c0000000	-0.2442619502544403
253	0xbfcb395b00000000	-0.21268784999847412
254	0x3fa4d1da00000000	0.04066354036331177
255	0x3fd2677bc0000000	0.2875661253929138

encoder_layer.linear1.bias f8 [2048]
0	0x3fdb6cf800000000	0.4285259246826172
1	0xbfdfad8740000000	-0.4949663281440735
2	0x3fd0c20f00000000	0.2618443965911865
3	0x3fcb087880000000	0.21119600534439087
4	0x3fdd216b00000000	0.45516467094421387
5	0x3fd0ff3740000000	0.26557713747024536
6	0xbfba7dec00000000	-0.10348391532897949
7	0x3fe15534c0000000	0.5416511297225952
8	0xbfd84af400000000	-0.3795747756958008
9	0xbfd0bb5440000000	-0.2614336609840393
10	0x3fcdf97e80000000	0.23417645692825317
11	0xbfcf048180000000	-0.24232500791549683
12	0x3fce68a180000000	0.23756808042526245
13	0xbfc66ac680000000	-0.17513352632522583
14	0x3fdc2dd100000000	0.4402964115142822
15	0xbfd1ba3980000000	-0.27699124813079834
16	0xbfcfe44f40000000	-0.2491549551486969
17	0xbfe1fbc940000000	-0.5619856119155884
18	0x3fbb7e7400000000	0.10739827156066895
19	0xbfb99ef280000000	-0.10008159279823303
20	0x3fa09d8e00000000	0.0324520468711853
21	0x3fe0822e00000000	0.5158910751342773
22	0x3fd3ad7140000000	0.30746108293533325
23	0x3fe1816480000000	0.5470449924468994
24	0x3f9f06c000000000	0.03029918670654297
25	0x3fb7661f00000000	0.09140199422836304
26	0x3fd0b19a00000000	0.26083993911743164
27	0xbfd48088e0000000	-0.3203451335430145
28	0x3fc5a03e80000000	0.16895276308059692
29	0xbfe0f0d040000000	-0.5293961763381958
30	0xbfb21b7900000000	-0.07073169946670532
31	0xbf7986f000000000	-0.006232202053070068
32	0xbfc935d940000000	-0.1969558298587799
33	0xbfe19816e0000000	-0.5498155951499939
34	0x3fb79f1c00000000	0.09227156639099121
35	0xbfdf40fc80000000	-0.48834145069122314
36	0xbfc20894c0000000	-0.14088687300682068
37	0xbfa24e5800000000	-0.03575396537780762
38	0xbfbca90580000000	-0.11195406317710876
39	0x3faca03000000000	0.05590963363647461
40	0x3fd9c58800000000	0.4026813507080078
41	0x3fb983cd00000000	0.09966737031936646
42	0x3fdbecb980000000	0.43632352352142334
43	0xbfc48064c0000000	-0.16016826033592224
44	0xbfcdc1c600000000	-0.23247599601745605
45	0x3fce0db780000000	0.23479360342025757
46	0x3fba7b1900000000	0.10344082117080688
47	0x3fc2b96c80000000	0.14628368616104126
48	0x3fd3504d40000000	0.3017762303352356
49	0xbfd2e63320000000	-0.29530027508735657
50	0x3fde200100000000	0.4707033634185791
51	0xbfbd7db780000000	-0.11519953608512878
52	0xbfc6e5a240000000	-0.17888286709785461
53	0xbfcabf5d00000000	-0.20896494388580322
54	0x3fe1991540000000	0.5499368906021118
55	0x3fd5122800000000	0.32923316955566406
56	0xbfb55f8800000000	-0.08348894119262695
57	0xbfda021e00000000	-0.40637922286987305
58	0x3fe20dcd40000000	0.5641847848892212
59	0x3fdfe05d00000000	0.49806904792785645
60	0x3fe0213ac0000000	0.5040563344955444
61	0xbfce7d8e80000000	-0.238206684589386
62	0x3fc2af1a00000000	0.14596867561340332
63	0xbfd2a6ecc0000000	-0.2914382815361023
64	0x3fb476cc00000000	0.07993769645690918
65	0x3fd96e0d40000000	0.3973420262336731
66	0xbfc86f1f80000000	-0.19089120626449585
67	0x3fcd11ea80000000	0.22710925340652466
68	0x3fe2186c00000000	0.5654811859130859
69	0xbf91c5a000000000	-0.01735544204711914
70	0xbfde5e8340000000	-0.4745185971260071
71	0x3fd38ca6c0000000	0.3054596781730652
72	0xbfe1b495a0000000	-0.5532940030097961
73	0xbfc7db8100000000	-0.18638622760772705
74	0x3f96062c00000000	0.02150791883468628
75	0x3fbe839500000000	0.11919528245925903
76	0x3fdc50df80000000	0.4424360990524292
77	0xbfbbbd5500000000	-0.10835772752761841
78	0xbfd08e3720000000	-0.258680135011673
79	0x3fbdd5d400000000	0.11654400825500488
80	0xbfbc75a680000000	-0.1111702024936676
81	0xbf941c7400000000	-0.019639790058135986
82	0x3fe189c600000000	0.5480680465698242
83	0xbf8463f000000000	-0.0099562406539917
84	0x3fc218f600000000	0.1413867473602295
85	0xbf82ccd000000000	-0.00917971134185791
86	0xbfdb6f5d00000000	-0.42867207527160645
87	0xbf8fe32800000000	-0.015569984912872314
88	0xbfb7ad9e80000000	-0.0924929678440094
89	0xbfda381a80000000	-0.4096742868423462
90	0xbfe1adfae0000000	-0.5524877905845642
91	0xbfc9cc7e80000000	-0.20155316591262817
92	0x3fc6ce5c00000000	0.17817258834838867
93	0xbfd4c73700000000	-0.3246591091156006
94	0xbfdc473e80000000	-0.44184839725494385
95	0xbfc60da340000000	-0.17229118943214417
96	0x3fd355e240000000	0.30211693048477173
97	0xbfd9094120000000	-0.391189843416214
98	0xbfd83d8140000000	-0.3787539601325989
99	0x3fdfa59080000000	0.4944802522659302
100	0xbfb94ca280000000	-0.098825603723526
101	0x3f8cafa800000000	0.01400691270828247
102	0x3fda824240000000	0.4142003655433655
103	0x3fda1a7f40000000	0.4078672528266907
104	0xbfdc26eb00000000	-0.43987536430358887
105	0xbfd727dee0000000	-0.36180850863456726
106	0x3fd7645580000000	0.3654989004135132
107	0xbface2bc00000000	-0.05641734600067139
108	0x3fdd08a780000000	0.4536532163619995
109	0x3fd1955900000000	0.27474045753479004
110	0xbfb8b63b00000000	-0.09653061628341675
111	0xbfd28f9640000000	-0.29001384973526
112	0x3fa037a400000000	0.03167450428009033
113	0xbfd17286a0000000	-0.27261510491371155
114	0x3fd0bb7a40000000	0.26144272089004517
115	0xbfb9902f00000000	-0.09985631704330444
116	0xbfa6955000000000	-0.044107913970947266
117	0x3fd17b2c00000000	0.27314281463623047
118	0x3fd00e1480000000	0.2508593797683716
119	0xbfd50ee540000000	-0.32903414964675903
120	0xbfbb053280000000	-0.10554805397987366
121	0x3fe02a4e00000000	0.5051641464233398
122	0x3fe20ba540000000	0.5639215707778931
123	0x3fd41724c0000000	0.313912570476532
124	0x3fbc3c7300000000	0.11029738187789917
125	0xbfd72d7cc0000000	-0.3621513247489929
126	0xbfcd9edf00000000	-0.23141086101531982
127	0xbfd6bc8100000000	-0.3552553653717041
128	0xbfd41c9180000000	-0.3142436742782593
129	0xbfc7cb5600000000	-0.18589282035827637
130	0x3fb3fbbd00000000	0.07805997133255005
131	0x3fd0204d80000000	0.25197160243988037
132	0x3fb5320700000000	0.08279460668563843
133	0xbfe1da3980000000	-0.5578887462615967
134	0x3fb99bb100000000	0.10003191232681274
135	0x3fb32ef700000000	0.07493537664413452
136	0x3fcee7b300000000	0.2414458990097046
137	0xbfd4daf920000000	-0.3258650600910187
138	0x3fd180c240000000	0.2734838128089905
139	0xbfd13db920000000	-0.2693922817707062
140	0xbfdc717260000000	-0.44442424178123474
141	0x3fda7266c0000000	0.4132325053215027
142	0x3fc7545880000000	0.18226152658462524
143	0xbfe1d963c0000000	-0.5577868223190308
144	0xbfd8b0a640000000	-0.38578182458877563
145	0x3fd11f0940000000	0.2675192952156067
146	0x3fd8f69c80000000	0.3900519609451294
147	0x3fe1289c80000000	0.5362074375152588
148	0xbfa39c6c00000000	-0.03830277919769287
149	0xbfdaa9a300000000	-0.41660380363464355
150	0x3fceba5a00000000	0.24006199836730957
151	0xbfbb120680000000	-0.10574379563331604
152	0x3f9d584400000000	0.02865701913833618
153	0xbf9d1d9c00000000	-0.028433263301849365
154	0xbfb134df00000000	-0.06721299886703491
155	0xbfd4f15fa0000000	-0.3272322714328766
156	0x3fd97f2740000000	0.39838582277297974
157	0x3fda984940000000	0.4155448079109192
158	0x3fd8d74080000000	0.38813793659210205
159	0xbfdae0e500000000	-0.41997647285461426
160	0x3fd331c5c0000000	0.29991286993026733
161	0x3fdd617a00000000	0.4590744972229004
162	0x3fdc1ab700000000	0.4391305446624756
163	0xbfc3772ec0000000	-0.1520746648311615
164	0xbfcfedaf80000000	-0.24944108724594116
165	0x3fbadd2c00000000	0.10493731498718262
166	0xbfd7238bc0000000	-0.36154454946517944
167	0x3fe1eaf6c0000000	0.5599321126937866
168	0x3fdce03300000000	0.4511840343475342
169	0xbfd3286660000000	-0.2993408143520355
170	0xbfb8a21600000000	-0.09622323513031006
171	0xbfdcad0680000000	-0.44806063175201416
172	0x3fc78d6880000000	0.18400293588638306
173	0x3fc1f3b400000000	0.14024972915649414
174	0x3fe17ec100000000	0.5467228889465332
175	0x3fce577e80000000	0.23704510927200317
176	0x3fe1cbce00000000	0.5561285018920898
177	0x3fdc875e00000000	0.44576215744018555
178	0x3fdf62f380000000	0.49041450023651123
179	0x3fc6ca5000000000	0.17804908752441406
180	0x3fd9c5fe80000000	0.40270960330963135
181	0xbfddf97e60000000	-0.46835288405418396
182	0xbfcf8cca40000000	-0.24648407101631165
183	0xbfd1d767c0000000	-0.2787722945213318
184	0xbfc0992ec0000000	-0.1296747624874115
185	0xbfd9ecf3c0000000	-0.405087411403656
186	0x3fdca69a00000000	0.44766855239868164
187	0xbfd4a86260000000	-0.3227773606777191
188	0xbfe0824160000000	-0.5159003138542175
189	0x3fd4abf240000000	0.32299476861953735
190	0x3fdf099a00000000	0.48496103286743164
191	0xbfce9022c0000000	-0.2387736737728119
192	0x3f8de27800000000	0.014592111110687256
193	0x3fdadb3a80000000	0.41963064670562744
194	0x3fc3527000000000	0.1509532928466797
195	0xbfdd5bd140000000	-0.458729088306427
196	0xbfe19bdc00000000	-0.5502758026123047
197	0x3fda2aaac0000000	0.4088541865348816
198	0xbfb66f8200000000	-0.0876389741897583
199	0x3fdb0cf800000000	0.4226665496826172
200	0xbfc46e28c0000000	-0.1596117913722992
201	0x3fd0e2b240000000	0.26383644342422485
202	0x3fe1b79000000000	0.5536575317382812
203	0x3fdb614d00000000	0.4278137683868408
204	0xbfdf9b91c0000000	-0.49387019872665405
205	0xbfd6561ec0000000	-0.3490063548088074
206	0x3fddd2a680000000	0.4659820795059204
207	0xbfcec16c40000000	-0.24027779698371887
208	0x3fa2f81c00000000	0.037049174308776855
209	0x3fd88afc80000000	0.38348305225372314
210	0x3fe1b18e80000000	0.552924394607544
211	0x3fcf6fdb80000000	0.2456011176109314
212	0x3fc910d700000000	0.19582641124725342
213	0xbfdfa45520000000	-0.494405061006546
214	0x3fd3296700000000	0.29940199851989746
215	0x3fe0069ec0000000	0.5008081197738647
216	0x3fbe856400000000	0.11922287940979004
217	0xbfd820e700000000	-0.37700819969177246
218	0xbfc666f480000000	-0.17501693964004517
219	0x3fb5ab7400000000	0.08464741706848145
220	0xbfd3da96e0000000	-0.31021663546562195
221	0x3fad920400000000	0.05775463581085205
222	0xbfc13fee40000000	-0.13476350903511047
223	0x3fb1f0a100000000	0.07007795572280884
224	0x3fb950a500000000	0.09888678789138794
225	0xbfd2c611a0000000	-0.29333916306495667
226	0xbfd6f8ad00000000	-0.35892796516418457
227	0x3fdb30f880000000	0.42486393451690674
228	0x3fd75fb2c0000000	0.3652159571647644
229	0x3f9359f400000000	0.018897831439971924
230	0x3fdbbe6b80000000	0.4334973096847534
231	0x3f8ccd7000000000	0.014063715934753418
232	0x3f863d9000000000	0.01085960865020752
233	0xbfd2f57e60000000	-0.29623374342918396
234	0xbfc914c280000000	-0.19594603776931763
235	0xbfd3265ec0000000	-0.2992169260978699
236	0xbfc4391980000000	-0.15799254179000854
237	0x3fad63e400000000	0.057402729988098145
238	0xbfd36b0ac0000000	-0.30340832471847534
239	0x3fe21fe6c0000000	0.5663942098617554
240	0x3fd320d040000000	0.2988777756690979
241	0xbfcb12f3c0000000	-0.211515873670578
242	0xbfa6b8c000000000	-0.04437828063964844
243	0xbfc32d32c0000000	-0.1498168408870697
244	0xbfcd0ebe40000000	-0.22701242566108704
245	0xbfd5dc78c0000000	-0.3415815234184265
246	0xbfda849980000000	-0.4143432378768921
247	0xbfe04e0f40000000	-0.5095287561416626
248	0x3fd2020100000000	0.2813723087310791
249	0xbfdd27ea00000000	-0.45556116104125977
250	0xbfd61c0c80000000	-0.34546196460723877
251	0xbfd53a14e0000000	-0.33167001605033875
252	0xbfd118d920000000	-0.2671416103839874
253	0x3fcdfc5300000000	0.23426282405853271
254	0x3fd97e0a00000000	0.398317813873291
255	0xbfc9110e80000000	-0.1958330273628235

encoder_layer.linear2.weight f8 [3, 2048]
0	0xbf87cc4160000000	-0.011620054952800274
1	0xbf964d1b60000000	-0.021778514608740807
2	0xbf8d81e2e0000000	-0.01440789457410574
3	0xbf9084ff40000000	-0.01613234356045723
4	0xbf96527700000000	-0.021798953413963318
5	0x3f951a9ee0000000	0.020609362050890923
6	0x3f9465f560000000	0.019920190796256065
7	0xbf8421dde0000000	-0.009830220602452755
8	0xbf4f769c00000000	-0.0009601842612028122
9	0x3f76c79a00000000	0.005561448633670807
10	0x3f8f0e5940000000	0.01516408659517765
11	0x3f5ba75800000000	0.001687847077846527
12	0xbf65b8c400000000	-0.0026515796780586243
13	0x3f72fbab00000000	0.004634540528059006
14	0xbf65ba9500000000	-0.0026524458080530167
15	0xbf7f23b140000000	-0.007602398283779621
16	0x3f83fe2cc0000000	0.009762143716216087
17	0x3f95c19620000000	0.02124628610908985
18	0x3f65367c00000000	0.0025894567370414734
19	0x3f967bf760000000	0.021957268938422203
20	0x3f94189d60000000	0.019625147804617882
21	0xbf4ea76000000000	-0.000935479998588562
22	0xbf7f194b00000000	-0.007592480629682541
23	0x3f68c18800000000	0.0030219703912734985
24	0x3f82d6cac0000000	0.009198745712637901
25	0xbf665ab700000000	-0.0027288030833005905
26	0x3f8a04c5c0000000	0.012704415246844292
27	0x3f92c10460000000	0.018314426764845848
28	0xbf7a3c8a00000000	-0.006405390799045563
29	0x3f807eb900000000	0.008054204285144806
30	0x3f919da420000000	0.017202915623784065
31	0xbf94e0b8a0000000	-0.020388493314385414
32	0xbf74bd2d80000000	-0.005063226446509361
33	0xbf93ade100000000	-0.01921798288822174
34	0x3f8d4c03c0000000	0.014305142685770988
35	0x3f9156eba0000000	0.01693313755095005
36	0x3f8f025140000000	0.015141138806939125
37	0x3f81c1d4c0000000	0.008670484647154808
38	0xbf52027a00000000	-0.0010992232710123062
39	0xbf8ed5e480000000	-0.01505640521645546
40	0x3f75937380000000	0.005267573520541191
41	0xbf865ca0a0000000	-0.010918860323727131
42	0x3f87ad8d40000000	0.011561492457985878
43	0x3f90f97de0000000	0.0165767353028059
44	0x3f94131820000000	0.019604088738560677
45	0x3f8425f1c0000000	0.009837998077273369
46	0x3f885808c0000000	0.011886661872267723
47	0x3f816d1a40000000	0.008508877828717232
48	0xbf67068c00000000	-0.002810738980770111
49	0x3f93e7b220000000	0.01943853683769703
50	0xbf76693380000000	-0.005471421405673027
51	0xbf84bf19e0000000	-0.010130121372640133
52	0xbf71547380000000	-0.004230929538607597
53	0xbf877ab460000000	-0.011464509181678295
54	0x3f78fe0400000000	0.006101623177528381
55	0x3f65b45300000000	0.0026494618505239487
56	0x3f5ef1ba00000000	0.001888686791062355
57	0x3f574cc400000000	0.0014221109449863434
58	0xbf6fb61c00000000	-0.003871016204357147
59	0x3f858c8540000000	0.01052192784845829
60	0x3f773d3080000000	0.005673589184880257
61	0x3f958aaa20000000	0.021036775782704353
62	0x3f965b50e0000000	0.021832717582583427
63	0x3f903869e0000000	0.0158402007073164
64	0x3f84720040000000	0.009983064606785774
65	0x3f5116ae00000000	0.0010430049151182175
66	0x3f885e1840000000	0.01189822144806385
67	0xbf65824200000000	-0.0026255883276462555
68	0xbf8f095e40000000	-0.015154587104916573
69	0x3f8a5b6540000000	0.012869635596871376
70	0x3f7d272c00000000	0.007117435336112976
71	0x3f4290a800000000	0.0005665607750415802
72	0xbf8864b020000000	-0.011910797096788883
73	0x3f8680f9c0000000	0.010988188907504082
74	0x3f918b4ea0000000	0.01713297702372074
75	0xbf7c9dd600000000	-0.006986461579799652
76	0xbf930a6a00000000	-0.018594413995742798
77	0xbf3f7a4800000000	-0.00048031099140644073
78	0xbf907a6b80000000	-0.01609199494123459
79	0x3f5d1c4c00000000	0.0017767660319805145
80	0xbf94c89fa0000000	-0.020296568050980568
81	0xbf71511d80000000	-0.004227748140692711
82	0xbf77e77000000000	-0.0058359503746032715
83	0x3f4c16dc00000000	0.0008572172373533249
84	0x3f93939620000000	0.0191176850348711
85	0x3f871aab40000000	0.011281335726380348
86	0xbf71e77f00000000	-0.004371162503957748
87	0x3f7d12c580000000	0.007097980007529259
88	0xbf969e30e0000000	-0.0220878254622221
89	0xbf893a1940000000	-0.012317845597863197
90	0xbf607e4a00000000	-0.002013344317674637
91	0x3f7fbba100000000	0.007747296243906021
92	0x3f7059d500000000	0.003991920500993729
93	0xbf8d3e4440000000	-0.014278920367360115
94	0x3f7173f780000000	0.004260985180735588
95	0x3f5ab61600000000	0.001630326732993126
96	0x3f86e220c0000000	0.011173492297530174
97	0xbf9255ed00000000	-0.017905905842781067
98	0x3f8e01b4c0000000	0.014651691541075706
99	0xbf89de79e0000000	-0.012631370685994625
100	0xbf86ad2a00000000	-0.011072471737861633
101	0xbf45235c00000000	-0.0006450843065977097
102	0xbf24535000000000	-0.00015507079660892487
103	0xbf960a54e0000000	-0.021523786708712578
104	0x3f2e826000000000	0.00023276731371879578
105	0xbf920649e0000000	-0.017602114006876945
106	0x3f7d7df700000000	0.007200207561254501
107	0xbf8f8b4080000000	-0.015402320772409439
108	0xbf77b94200000000	-0.005791909992694855
109	0xbf5dda3c00000000	-0.0018220506608486176
110	0x3f82c96a40000000	0.009173231199383736
111	0xbf7e756e80000000	-0.007436210289597511
112	0xbf80a59b60000000	-0.00812837015837431
113	0xbf813b7000000000	-0.008414149284362793
114	0xbf96462100000000	-0.021751895546913147
115	0xbf80ad4320000000	-0.008142971433699131
116	0xbf72055b00000000	-0.004399638622999191
117	0x3f8b53b5c0000000	0.013343257829546928
118	0xbf57b51800000000	-0.0014469847083091736
119	0xbf90a95ca0000000	-0.016271064057946205
120	0x3f84de34c0000000	0.010189449414610863
121	0x3f773a9100000000	0.0056710876524448395
122	0x3f53ac1a00000000	0.0012007001787424088
123	0x3f64317300000000	0.0024649854749441147
124	0x3f86352f40000000	0.010843629017472267
125	0xbf8c67ef40000000	-0.013870114460587502
126	0x3f94e53ca0000000	0.020405719056725502
127	0x3f92ddcb60000000	0.018424203619360924
128	0x3f8cf8ebc0000000	0.014146653935313225
129	0x3f8d83f940000000	0.01441187597811222
130	0xbf76989980000000	-0.005516624078154564
131	0xbf895aefc0000000	-0.012380478903651237
132	0x3f8f1674c0000000	0.015179550275206566
133	0xbf91be35c0000000	-0.01732715591788292
134	0x3f6dc3a500000000	0.0036333296447992325
135	0xbf8bdab480000000	-0.01360074058175087
136	0xbf8ff22d60000000	-0.01559863518923521
137	0xbf920957a0000000	-0.017613762989640236
138	0x3f72458000000000	0.004460811614990234
139	0x3f74448800000000	0.004948168992996216
140	0xbf8d46b2a0000000	-0.014295001514256
141	0xbf95238020000000	-0.020643236115574837
142	0x3f585e1600000000	0.0014872755855321884
143	0x3f1b6e4000000000	0.0001046396791934967
144	0x3f8385ef40000000	0.009532803669571877
145	0xbf74cdb000000000	-0.0050789713859558105
146	0x3f6064e800000000	0.002001240849494934
147	0x3f9567e920000000	0.02090420015156269
148	0x3f44eb0800000000	0.0006383694708347321
149	0x3f7833df80000000	0.005908844992518425
150	0x3f90d6fe20000000	0.016445131972432137
151	0x3f65ebbb00000000	0.0026758816093206406
152	0x3f967b19a0000000	0.021953964605927467
153	0x3f78492780000000	0.0059291403740644455
154	0xbf87eabf60000000	-0.011678214184939861
155	0x3f9458ede0000000	0.019870487973093987
156	0xbf81f29940000000	-0.008763501420617104
157	0xbf92866a40000000	-0.018090877681970596
158	0x3f861b3540000000	0.010794082656502724
159	0x3f76585480000000	0.00545533187687397
160	0xbf63bde400000000	-0.0024098828434944153
161	0xbf8bb6c0c0000000	-0.013532167300581932
162	0x3f95155c20000000	0.020589293912053108
163	0x3f877a7b40000000	0.011464083567261696
164	0xbf7b781280000000	-0.0067063067108392715
165	0xbf91b85180000000	-0.0173046812415123
166	0xbf745ea480000000	-0.0049730706959962845
167	0x3f8ecc95c0000000	0.01503865234553814
168	0xbf7c652400000000	-0.006932392716407776
169	0x3f9686e1a0000000	0.021998906508088112
170	0xbf8d0ce120000000	-0.014184721745550632
171	0x3f91ec45e0000000	0.01750287227332592
172	0x3f81d2dcc0000000	0.008702969178557396
173	0x3f8d735940000000	0.014380166307091713
174	0xbf916885c0000000	-0.017000284045934677
175	0xbf8c2dc4a0000000	-0.013759170658886433
176	0xbf8ba37ee0000000	-0.013495436869561672
177	0xbf70c00480000000	-0.004089372232556343
178	0x3f9005a220000000	0.015646489337086678
179	0xbf94cf5ae0000000	-0.020322246477007866
180	0xbf908a34a0000000	-0.016152212396264076
181	0xbf90e82040000000	-0.0165104903280735
182	0xbf955312a0000000	-0.02082470990717411
183	0x3f806c3c80000000	0.008018944412469864
184	0xbf8ca41900000000	-0.013984866440296173
185	0xbf932cc560000000	-0.018725475296378136
186	0xbf89ab00a0000000	-0.01253319252282381
187	0x3f7c72f200000000	0.00694555789232254
188	0xbf96672480000000	-0.02187783271074295
189	0x3f85c5e0c0000000	0.010631328448653221
190	0x3f93c02ca0000000	0.019287774339318275
191	0x3f929ff8a0000000	0.018188366666436195
192	0xbf8c021440000000	-0.013675840571522713
193	0xbf705fff00000000	-0.0039977990090847015
194	0x3f7fa33a00000000	0.0077240243554115295
195	0x3f9086dd20000000	0.01613946445286274
196	0x3f83e1dc40000000	0.009708138182759285
197	0x3f83bd8d40000000	0.009638885036110878
198	0xbf85c90260000000	-0.01063730102032423
199	0xbf8d2fab20000000	-0.014251076616346836
200	0xbf934093e0000000	-0.01880103163421154
201	0xbf7c503900000000	-0.006912443786859512
202	0x3f8d68a7c0000000	0.014359770342707634
203	0xbf5b41d200000000	-0.0016636420041322708
204	0x3f87051840000000	0.011240186169743538
205	0x3f77799780000000	0.005731193348765373
206	0x3f83229dc0000000	0.00934336893260479
207	0xbf86c54c60000000	-0.011118504218757153
208	0x3f956eec20000000	0.020930947735905647
209	0x3f73e16100000000	0.004853609949350357
210	0xbf7f97cf40000000	-0.0077131362631917
211	0xbf841e31c0000000	-0.009823216125369072
212	0xbf825077a0000000	-0.008942541666328907
213	0xbf69953600000000	-0.003122907131910324
214	0xbeffa58000000000	-3.0180439352989197e-05
215	0x3f8e03dcc0000000	0.014655804261565208
216	0xbf94bf4c60000000	-0.020260995253920555
217	0xbf92ca79a0000000	-0.01835050620138645
218	0xbf91237d00000000	-0.016736939549446106
219	0x3f807c0dc0000000	0.008049113675951958
220	0xbf8fba7880000000	-0.015492383390665054
221	0x3f7594ef00000000	0.005268987268209457
222	0xbf92e57820000000	-0.018453480675816536
223	0x3f71bc3d00000000	0.004329908639192581
224	0xbf7003e480000000	-0.003909962251782417
225	0xbf887963e0000000	-0.01195028331130743
226	0x3f8ba8c1c0000000	0.013505471870303154
227	0xbf7c7fd200000000	-0.006957836449146271
228	0x3f77706d80000000	0.005722453817725182
229	0xbf84025ce0000000	-0.009770131669938564
230	0xbf89b24e80000000	-0.012547124177217484
231	0x3f830c74c0000000	0.00930110178887844
232	0xbf966722a0000000	-0.021877804771065712
233	0xbf826902a0000000	-0.00898935366421938
234	0xbf95332500000000	-0.020702913403511047
235	0x3f8e581540000000	0.014816442504525185
236	0xbf91611300000000	-0.016971871256828308
237	0xbf71678a80000000	-0.004249135032296181
238	0x3f8d155e40000000	0.014200912788510323
239	0xbf69c52000000000	-0.003145754337310791
240	0xbf8371d8c0000000	-0.009494489058852196
241	0x3f8adad140000000	0.013112673535943031
242	0xbf960369c0000000	-0.021497394889593124
243	0xbf65a2a800000000	-0.002641037106513977
244	0xbf929502a0000000	-0.01814655400812626
245	0xbf7e53f3c0000000	-0.007404281757771969
246	0x3f95242460000000	0.020645683631300926
247	0xbf7aee7380000000	-0.00657506100833416
248	0x3f747b3480000000	0.005000310018658638
249	0x3f7c129180000000	0.006853645667433739
250	0xbf83a0fb20000000	-0.009584390558302402
251	0xbf667aa200000000	-0.0027440227568149567
252	0xbf91a7bf40000000	-0.0172414667904377
253	0xbf8dd1da40000000	-0.014560418203473091
254	0x3f95f82de0000000	0.021454541012644768
255	0xbf81ba4e80000000	-0.008656132966279984

encoder_layer.linear2.bias f8 [3]
0	0x3f94bde2a0000000	0.02025560475885868
1	0xbf8c694740000000	-0.013872677460312843
2	0x3f95e1f3e0000000	0.021369753405451775

encoder_layer.norm1.weight f8 [3]
0	0x3ff0000000000000	1.0
1	0x3ff0000000000000	1.0
2	0x3ff0000000000000	1.0

encoder_layer.norm1.bias f8 [3]
0	0x0000000000000000	0.0
1	0x0000000000000000	0.0
2	0x0000000000000000	0.0

encoder_layer.norm2.weight f8 [3]
0	0x3ff0000000000000	1.0
1	0x3ff0000000000000	1.0
2	0x3ff0000000000000	1.0

encoder_layer.norm2.bias f8 [3]
0	0x0000000000000000	0.0
1	0x0000000000000000	0.0
2	0x0000000000000000	0.0

transformer_encoder.layers.0.self_attn.in_proj_weight f8 [9, 3]
0	0xbfd92ebe55d3f5bb	-0.3934779966510537
1	0x3f81895081ca4a2a	0.008562687836534872
2	0xbfe125e4c8a68328	-0.5358756941751368
3	0xbfb61373553f402d	-0.08623429137446754
4	0xbfdda3ef86542394	-0.4631308376124761
5	0xbfcebf76816172fa	-0.24021798436560698
6	0x3fe342f19ebb2ef6	0.6019218540399993
7	0xbfd71bd46bfcefa9	-0.36107359452921145
8	0xbfde8e5566a087a2	-0.4774373533456303
9	0xbfe09fa2d937a475	-0.5194868319059781
10	0xbfdb050f4e9e9ea2	-0.4221838252801523
11	0x3fb5734db7442281	0.08379064296981122
12	0xbfe0c2eca8570ce8	-0.5237944877520961
13	0x3fd3b795eb5e9a6e	0.30808017716700575
14	0x3fb8bdc6b0f1d0d4	0.09664575405060144
15	0xbfde29739d554cf9	-0.47128000607081294
16	0xbfb407ea0de8db32	-0.07824576224889482
17	0x3fdf00d9460a1f5b	0.48442680206107064
18	0xbfd50af0dac51dea	-0.32879277576691257
19	0xbfe49514279ae8c8	-0.6431980870759384
20	0x3fb6ff49b81f96e3	0.08983288521957493
21	0x3fdd24c4babb1f9b	0.45536916957325396
22	0x3fe37c4b1316e59b	0.6089225170937199
23	0xbfe30b14b056c447	-0.5951026386375212
24	0x3fe40cc5a173adcc	0.6265590813977098
25	0xbfe0030f8c15005a	-0.500373624417999
26	0xbfad303877c4ae08	-0.05700851881041663

transformer_encoder.layers.0.self_attn.in_proj_bias f8 [9]
0	0x3f7725187581b21e	0.005650611441620627
1	0x3f770094e4d75d1b	0.005615789048042853
2	0x3f773f1a77a6bf36	0.005675414455637731
3	0xbd11f03f0277b3d4	-1.5932554343214834e-14
4	0xbd61adae624ff6a8	-5.024515456617e-13
5	0x3d766df2a7f6667b	1.2749685474942877e-12
6	0xbf687a1c800ba05f	-0.002987914719017978
7	0xbf7bef9965b4d147	-0.006820296486058481
8	0x3f77a19418b9511a	0.005769327642685585

transformer_encoder.layers.0.self_attn.out_proj.weight f8 [3, 3]
0	0x3f80f6367bc7e9aa	0.008282113697522703
1	0x3fdf3e1e58cb417c	0.4881664149406999
2	0xbfd5a639e5e652dc	-0.338270639907291
3	0xbfbd86f53cf93044	-0.11534054506881924
4	0xbfc5868b9637ed01	-0.16816849551091909
5	0x3fd83283d754138d	0.3780831911865839
6	0xbfd20c146b61f8be	-0.2819872902545163
7	0xbf9d26c6c91eaf0d	-0.028468233132726662
8	0xbfdc738bca0f4920	-0.44455237133401404

transformer_encoder.layers.0.self_attn.out_proj.bias f8 [3]
0	0xbf7d443a667cc9aa	-0.0071451455367416514
1	0x3f783c95c1e9de2a	0.005917153349052332
2	0xbf6ae484bb772f25	-0.0032827942302215024

transformer_encoder.layers.0.linear1.weight f8 [2048, 3]
0	0x3fe2559a3023c81a	0.5729494991521762
1	0x3fdbb77c82192011	0.43307411866089845
2	0xbfc022f8ee47d6c1	-0.12606727251811914
3	0xbfbab3e080000000	-0.10430720448493958
4	0x3fc4957c80000000	0.16081196069717407
5	0x3fd1ce9d00000000	0.27823567390441895
6	0x3fc627afb9ef6533	0.17308613375534207
7	0xbfd1019f774532c0	-0.26572405478945527
8	0x3fd95a903f49eca7	0.3961525552801483
9	0xbfdb831646e023b0	-0.42987591668548486
10	0xbfcb5c68ceec3b97	-0.21375761130954338
11	0x3fd7de3247254862	0.3729367918759917
12	0x3fd63139528b081e	0.3467543893895043
13	0xbfda8e6b2e11cd00	-0.41494254588106116
14	0x3fd56f52fda820b4	0.3349196889034929
15	0x3fe1ac52d0112b62	0.552285581952088
16	0xbfd6c5101b2e2128	-0.35577776579204334
17	0x3fd220c3f1a4a003	0.2832498416705677
18	0x3fe098da084efd42	0.5186586534763722
19	0xbfd5e9db556c6641	-0.3423984846318469
20	0xbfb737abccf3b3d8	-0.09069322351179154
21	0xbfdaf3c9352e0440	-0.4211295146306533
22	0x3fd74748ecf3b2c8	0.3637258829101424
23	0x3fd7138c16cef8c7	0.36056806781187983
24	0xbfb7035edea55e43	-0.08989518104260079
25	0x3fd772c718b13668	0.3663804761061784
26	0x3fe22721aeba59cc	0.567276803269857
27	0xbfc936c6a796e6b6	-0.19698413069800375
28	0xbfe1972b8b9a405e	-0.5497033812153054
29	0x3f97d0ab76b92a8b	0.02325694954042005
30	0xbfc9e8927226a4ce	-0.20241003583695377
31	0x3fcb122c8cdbbf62	0.211492127207289
32	0x3f77b4caabe31225	0.005787650761878403
33	0xbfdb856c2381d3b2	-0.4300184580563907
34	0xbfd3b5be6bb09e00	-0.30796776310532437
35	0x3fe2a7168f5216e1	0.5828964995605156
36	0xbfcc55215e08ec37	-0.2213479718355715
37	0x3fdab333ca53117c	0.41718764074564496
38	0x3fe129308b3f2c18	0.536278030363408
39	0xbfe09726bc93f82e	-0.5184510882534192
40	0x3fd8de58c52f020e	0.38857096916402234
41	0xbfa3728c6fd7cc47	-0.03798331132193105
42	0xbfda8beb2b2f178c	-0.4147899553030292
43	0xbfcc6603f96ec9cb	-0.22186326674780185
44	0xbfd2f799800b5cf7	-0.29636228088698097
45	0x3fd5bafc40000000	0.33953768014907837
46	0x3fd6695f00000000	0.35018134117126465
47	0x3fcb288200000000	0.2121737003326416
48	0x3fc09cfb76da9a03	0.12979071906484316
49	0xbfdf1d38586f29c8	-0.48615845333247565
50	0xbfb33f9cb54d286b	-0.07518939424804365
51	0x3fd2b50a00000000	0.292299747467041
52	0x3fd5315dc0000000	0.33113807439804077
53	0xbf77039000000000	-0.005618631839752197
54	0x3fb59142b111b977	0.08424774954776192
55	0xbfa67c17e5891f63	-0.043915507096754756
56	0x3fd21cf9202c36c0	0.2830183805643678
57	0x3fd80c268eef4c28	0.37574161489937064
58	0xbfc0559ffef7e916	-0.1276130671465771
59	0xbfcf60f0bb9a757b	-0.24514588508911203
60	0x3fd60257470a52af	0.3438928788903394
61	0x3fa735d7dd1b23ad	0.04533266614959728
62	0x3fcc011b49650096	0.21878377040593894
63	0x3fc5e2ecd334ed36	0.17098770439938854
64	0x3fbef648bd58c4fb	0.12094549772952583
65	0xbfb34abb55f02eb8	-0.07535906646824742
66	0x3fcc952627e71847	0.2233016676747772
67	0x3fe036eb02cee2cb	0.5067038588377611
68	0x3fe1e17c20621540	0.5587750084384098
69	0x3f991e05586419e1	0.024528583068809232
70	0xbfb82620e1e36e4a	-0.09433179392674976
71	0x3fb279876f45bcb9	0.07216688601123424
72	0xbfa3f0572e65ca39	-0.038943027890941236
73	0xbfdcc685cff760f6	-0.4496168642922521
74	0xbfaeceef027ee2c5	-0.06017252831901979
75	0x3fb59c24845a6057	0.08441379767680367
76	0xbfc78e6eefd17ff1	-0.18403422078972612
77	0xbfd2407b442457fa	-0.285185638947382
78	0x3fe0a5ec407d09b9	0.5202542552508965
79	0xbfe1d39b6feed9b8	-0.5570809541884989
80	0xbfc48c5e02636384	-0.1605336677228274
81	0x3fa2434e7a7ad3a2	0.035669758273264365
82	0x3fd7fa64f89fd3c6	0.3746578624698568
83	0xbfb43dacc66022c3	-0.0790660843196163
84	0xbfd77b09008dbc1c	-0.3668844705015901
85	0x3fb584e8831bf7ff	0.08405926896008963
86	0x3fd1033eefb57bab	0.2658231106669812
87	0x3fbb56d900000000	0.10679394006729126
88	0x3fd5c4ff00000000	0.3401486873626709
89	0x3facce2400000000	0.05626022815704346
90	0x3fd68892b63b6728	0.3520857600793641
91	0x3fb597552406469b	0.08434040193085439
92	0xbfe05f6a423174ed	-0.5116473477206945
93	0xbfe1d6f78b9caa7b	-0.5574910857006466
94	0x3fd16d30e34fd9f4	0.27228948782376894
95	0xbfd035529988833d	-0.25325455659372037
96	0x3fd2a9e865fb6019	0.2916203494946799
97	0xbfca1d42977b96ab	-0.204017948118396
98	0x3fc81d4b63e1ec49	0.18839399697376027
99	0xbfb17e42da443755	-0.06833284214755271
100	0x3fdf6403959871aa	0.49047937020238896
101	0xbfa174ef5f87ebf2	-0.03409526864194125
102	0x3fd4cace89b46d47	0.32487834403737675
103	0xbfd8bebebaf14611	-0.38664215332127677
104	0xbfd4ac19c917772e	-0.3230041946206822
105	0xbfd3a70e73d05b28	-0.3070713168139485
106	0x3fdedaad37744b42	0.4820969621225012
107	0x3fe047956fe2c79d	0.5087382493277236
108	0xbfc25597f0c5bd0b	-0.14323710686174027
109	0xbfd71b4f2539c117	-0.36104181895554305
110	0x3fdf2975fe445347	0.48690557318450484
111	0xbfc7cf5af2448ecb	-0.18601548032267198
112	0x3fd53b916e58f3c6	0.3317607476818093
113	0xbfd7f8b7431befb5	-0.37455541185021995
114	0x3f958164f1162bfe	0.021001412596472584
115	0xbfe1fe9aa8a46f5f	-0.5623296064181708
116	0x3fd2226d6a1bfd0d	0.2833512817596365
117	0x3fe17ec959c67872	0.54672687086328
118	0xbfd817c34250b4b5	-0.37645036197757104
119	0x3fc8740c8ec3afe0	0.19104153605383
120	0x3fd5d11e3c3362b5	0.34088855627991715
121	0xbfda0a6fc8fbb85d	-0.40688700320504784
122	0x3fd3309730c1162f	0.2998407341113731
123	0xbfe0d20932b59bcb	-0.5256391516130575
124	0xbfb6f2ea374c575a	-0.08964408731511977
125	0x3fd225e42932fce1	0.2835626985870033
126	0x3fca338c83c0f683	0.20469814713753828
127	0x3fd92b6934b33f7a	0.3932745947504298
128	0xbfc33acd24db65f6	-0.1502319745984974
129	0xbfc93de1571d66c0	-0.1972009349217867
130	0x3fe0fc6fe2ff04f2	0.530815070487874
131	0xbfd2fa8a56358bb7	-0.2965417711149558
132	0x3fe0a3ce29a7b510	0.519995766980772
133	0xbfabf9713f42edec	-0.054637469265312294
134	0xbfceb0e7dbea98da	-0.23977373350243775
135	0xbfc59d290ae30b13	-0.16885865241609874
136	0xbfe19786e26e492f	-0.5497469351269383
137	0xbfb875ac8367a2a6	-0.09554556091428398
138	0xbfde32cbd8c05b6f	-0.471850358649525
139	0x3fdae27ca3831621	0.42007366149877795
140	0x3fca6bb6a2c1120c	0.20641215273839497
141	0x3fb60a12fd99dfa3	0.08609121982033101
142	0x3fc8fdf4679f8e47	0.19525008258561824
143	0x3fc44f72a95b1fc0	0.15867455739339498
144	0x3fb45a8de0a317a3	0.07950674757293412
145	0xbf8f4983bb89281c	-0.015276936684262714
146	0xbfd5cb38faaf28a5	-0.3405287216270472
147	0xbfc6e999769ba518	-0.1790038899555746
148	0xbfc845ea8afbca3e	-0.1896336725836409
149	0x3fdc1505656e22c7	0.43878302483839743
150	0xbfc0ff7a8d609502	-0.13279659178912345
151	0x3fcd2facd18d5130	0.22801742774994116
152	0x3fe15f5195db3685	0.5428855826264259
153	0x3fd50bc0146d57fc	0.328842182110179
154	0xbf953f3dadb1c3c5	-0.020749057508911557
155	0x3fc164d6a1d3bb42	0.13588984395706843
156	0xbfc60576c77d4323	-0.17204174748123888
157	0xbfcf9e8f0bf51209	-0.24702632984021047
158	0x3fd281f9c2396441	0.28918308226781525
159	0xbfd500cc27ea2f0d	-0.3281736745636728
160	0xbfb47e8df431b4a3	-0.08005606853267237
161	0xbfdccb6141a23a42	-0.44991332444707066
162	0xbfe28641918e3a20	-0.5788886874086678
163	0xbfc090cb4dfefd21	-0.12941876705551983
164	0x3fe2208aad855e9e	0.5664723767358344
165	0x3fcc31b9ff1c5c26	0.22026753384190662
166	0x3fc78f07289e1214	0.18405236705088213
167	0xbfcf8e036f9fa40c	-0.24652140570040648
168	0xbfccd4b700000000	-0.2252415418624878
169	0xbfd0696140000000	-0.2564318776130676
170	0xbfd5b8d560000000	-0.3394063413143158
171	0x3fbb35350fc52d0b	0.10628062853827573
172	0x3fd37c406aee9346	0.30445871775218725
173	0xbfd8e7126cf5dfa2	-0.3891035141054947
174	0xbf8abe949477fe24	-0.013058815747171222
175	0xbfd8b52fe3ed68fb	-0.38605878122838505
176	0x3fce5fe61bfb7f50	0.2373016010887974
177	0x3fddd39c5e4202f5	0.4660406990515605
178	0xbfb3f89d1008ac4f	-0.07801229134990816
179	0xbfd1194c9ebdf33d	-0.2671691465582631
180	0x3fb5e4910baf2df0	0.08551889930020429
181	0xbfb40d7bc1461031	-0.07833074062915625
182	0x3fdd2c8d8d30c4e8	0.45584429538855753
183	0x3f99c891b4e7dd40	0.0251791731515969
184	0xbfe1b3fb56084ca2	-0.5532204323120775
185	0xbfb1b930a045181b	-0.06923202431525548
186	0xbfe0e50b7806f31c	-0.5279595703392235
187	0x3fcda8b86a8c4d10	0.23171143724957988
188	0xbfa109a418dfd7eb	-0.03327668002741276
189	0xbfde1a5980000000	-0.4703582525253296
190	0xbfdd3ab8e0000000	-0.4567091166973114
191	0xbfdeb13220000000	-0.47956517338752747
192	0x3fe230e7094bea75	0.5684695416997118
193	0xbfd008a4c25b1e59	-0.25052756290503947
194	0x3fd71d4e5491e432	0.36116369494226597
195	0xbfc450379c0097bf	-0.15869803540516433
196	0xbfe1104e46701089	-0.5332404494988775
197	0xbfd3c169061b55f5	-0.30867982479443806
198	0x3fc8449c80000000	0.1895938515663147
199	0x3fb8460100000000	0.09481817483901978
200	0x3f80ed9000000000	0.00826561450958252
201	0xbfcae1dcb42385ed	-0.21001776500547412
202	0x3fd06b3127a8449d	0.2565424811628619
203	0x3fac03d059cb0252	0.05471659751993187
204	0x3fcf5c5f4c6ddca3	0.24500647766010272
205	0x3fca3bf0ef735eec	0.2049542588417731
206	0x3fdc09b043f6f6aa	0.43809134137323247
207	0x3fd018af0c1cacab	0.25150657828153083
208	0x3fe047964dc47d32	0.5087386626145529
209	0x3fcd1e103c148389	0.22747996266937445
210	0xbfd134d260000000	-0.2688489854335785
211	0xbfcaaa92c0000000	-0.20833048224449158
212	0x3fdcf47600000000	0.452420711517334
213	0xbfe01890708523a0	-0.5029985616357528
214	0x3f93e1e8c1db342c	0.019416462738082327
215	0xbfdf74e05219dcca	-0.49150856034925694
216	0x3fddfb407db66fee	0.4684602000868371
217	0x3fd976abb562af65	0.3978680869429268
218	0xbfe145adf897bd63	-0.5397558074309184
219	0xbfdb29ef54c820d3	-0.42443450240581376
220	0x3fdf2525dbdb3098	0.4866423270257285
221	0x3fe1305373d7df9e	0.5371491682590095
222	0x3fd4084be7826059	0.3130063782532538
223	0xbfc2f1689915a56d	-0.14799220537978944
224	0xbfc0b145a4dcae13	-0.13040991353896966
225	0x3faf8203749bf567	0.061538799271128757
226	0xbfca5ea75608629c	-0.20601360035722827
227	0xbfd7eba7655843a6	-0.3737581720061435
228	0x3fcb1e1b444548ce	0.21185627778556299
229	0x3fd1818c1c68cb92	0.273531940215599
230	0x3fe09e090762e2b4	0.519291414667427
231	0x3fc3882f45f2583a	0.15259352603306003
232	0x3fe2232d4050e5c5	0.5667940384075157
233	0x3fc9d757cd31fa87	0.2018842460565404
234	0x3fd308c2415b86e2	0.2974095953232859
235	0xbfe15aded090ef4a	-0.542342574458851
236	0x3fd6643d739f888e	0.34986816684080047
237	0xbfdf8ec05cff2626	-0.4930878551645911
238	0x3fdf80b7659bb92c	0.4922312252300738
239	0xbfc242c59a17f72e	-0.14266271614172282
240	0xbfe145e448850279	-0.5397817055127937
241	0x3fab968cc36593e3	0.053882979252001716
242	0x3fde0036c30ad66c	0.46876305625060044
243	0xbfde4a58aa489007	-0.47328774098627985
244	0x3fe01f1711ff5949	0.503795180465013
245	0xbfe04748c8c2f6e5	-0.5087016984104734
246	0x3fe0f4f7cc7c5568	0.5299033159123328
247	0xbfa2f15808a157e6	-0.036997557691094404
248	0xbfd53e8278eb55bb	-0.3319402867176355
249	0xbfdb641b0fb8bfa3	-0.4279849675685858
250	0xbfdb2b467cb6e01d	-0.42451631716858335
251	0xbfdf6d1bb142ce99	-0.491034434420024
252	0xbfcfa7e242bec003	-0.24731090792693075
253	0xbfcae01ffe376431	-0.20996475136669937
254	0x3fa3a6bd71d227bd	0.038381500381617674
255	0x3fd1e6fb8ec34a87	0.27972306195912505
