Transformer-Time-Series-Forecasting-main/save_model/best_train_18.pth (torch, 259059 bytes, 38 tensors)

encoder_layer.self_attn.in_proj_weight f8 [6, 2]
0.395119845867157 0.011963486671447754 0.05207854509353638 0.06298565864562988 0.7566353678703308 0.29078513383865356 0.09231823682785034 -0.6097489595413208
-0.43772026896476746 0.6771675944328308 -0.7602730393409729 0.40957289934158325
00000000: 0000 00c0 a449 d93f 0000 0000 5080 883f
00000010: 0000 0000 0aaa aa3f 0000 0000 d41f b03f
00000020: 0000 0060 5b36 e83f 0000 0040 399c d23f
00000030: 0000 0000 2ba2 b73f 0000 0040 1083 e3bf
00000040: 0000 00e0 9b03 dcbf 0000 0060 5bab e53f
00000050: 0000 0020 2854 e8bf 0000 0040 7136 da3f

encoder_layer.self_attn.in_proj_bias f8 [6]
0.0 0.0 0.0 0.0 0.0 0.0
00000000: 0000 0000 0000 0000 0000 0000 0000 0000
00000010: 0000 0000 0000 0000 0000 0000 0000 0000
00000020: 0000 0000 0000 0000 0000 0000 0000 0000

encoder_layer.self_attn.out_proj.weight f8 [2, 2]
0.00232541561126709 -0.2709469199180603 -0.7020613551139832 -0.20562058687210083
00000000: 0000 0000 c00c 633f 0000 00c0 3157 d1bf
00000010: 0000 0060 4977 e6bf 0000 0080 c651 cabf

encoder_layer.self_attn.out_proj.bias f8 [2]
0.0 0.0
00000000: 0000 0000 0000 0000 0000 0000 0000 0000

encoder_layer.linear1.weight f8 [2048, 2]
-0.25360187888145447 -0.5628327131271362 -0.5078145265579224 -0.24621480703353882 0.32870930433273315 -0.6723287105560303 -0.4220576882362366 0.1262844204902649
0.38887888193130493 0.5443519949913025 -0.3350542187690735 -0.043323814868927 -0.20627957582473755 0.491527259349823 -0.6554975509643555 0.27001893520355225
-0.41397494077682495 -0.6272104978561401 0.048277974128723145 0.6254574656486511 -0.23872792720794678 0.2835295796394348 0.5496684908866882 0.47597211599349976
-0.0550304651260376 0.4242783188819885 0.6278658509254456 0.3131621479988098 -0.48683691024780273 -0.17352157831192017 0.22668850421905518 -0.49818140268325806
0.6974510550498962 0.24343329668045044 0.6640581488609314 -0.6266547441482544 0.5716610550880432 -0.0682496428489685 0.43454962968826294 0.15005552768707275
-0.5708684325218201 -0.6544907093048096 -0.07026058435440063 0.4630778431892395 -0.49140799045562744 -0.6241166591644287 0.10040730237960815 -0.36023813486099243
-0.3830326497554779 0.6083062291145325 -0.4682634472846985 -0.13868582248687744 0.3271726965904236 0.028782010078430176 -0.5386722683906555 -0.22647643089294434
0.05287247896194458 0.5889591574668884 -0.4655084013938904 0.3774821162223816 0.1257433295249939 0.3633221983909607 -0.13130444288253784 0.676153838634491
-0.1468597650527954 0.6364614367485046 0.5387704968452454 0.4829086661338806 0.20738720893859863 -0.37110307812690735 -0.5861051678657532 -0.05711066722869873
0.5406591296195984 -0.7062471508979797 -0.08759599924087524 0.0974988341331482 -0.16326844692230225 -0.3745443820953369 -0.5807313919067383 -0.39325150847435
-0.099609375 0.6305178999900818 0.6894161105155945 -0.3458133637905121 -0.3521013557910919 0.4094013571739197 0.0008091330528259277 0.3668254017829895
0.19405215978622437 -0.19902551174163818 0.05402559041976929 -0.4247013032436371 0.13423442840576172 -0.32308390736579895 -0.20609283447265625 0.6712546944618225
0.24135273694992065 -0.1454561948776245 -0.22737592458724976 -0.6931184530258179 0.6312316060066223 -0.2592256963253021 -0.531313955783844 0.13325411081314087
0.161882221698761 -0.421211302280426 0.3614855408668518 0.538752019405365 0.2193009853363037 0.3729669451713562 0.6794726252555847 -0.024401485919952393
-0.6727465391159058 -0.22162827849388123 -0.24420541524887085 -0.3147321045398712 -0.08195942640304565 -0.5002869367599487 0.39126771688461304 -0.04340684413909912
-0.6515390276908875 0.17770659923553467 0.5803042054176331 0.3023180365562439 0.5342968106269836 0.4360805153846741 -0.23427703976631165 0.5609769225120544
-0.5132992267608643 0.13641023635864258 -0.09928703308105469 -0.5163460969924927 0.0964512825012207 -0.6082114577293396 0.30046147108078003 -0.4117802679538727
-0.0603184700012207 0.3157755732536316 0.256854772567749 -0.20899921655654907 -0.2804853320121765 0.3677673935890198 0.5594905018806458 0.11540025472640991
-0.4990214705467224 0.2645164132118225 -0.28671547770500183 0.479511559009552 0.21051597595214844 0.249087393283844 -0.02327018976211548 0.6759694218635559
-0.346790075302124 0.29884713888168335 0.03535491228103638 0.6614547371864319 0.41076189279556274 -0.6603362560272217 -0.37110888957977295 0.23105889558792114
-0.5253701210021973 0.44390302896499634 0.024786651134490967 0.5124842524528503 -0.40772026777267456 -0.022584497928619385 -0.5110092759132385 -0.5157322883605957
0.36878544092178345 0.6169050335884094 -0.18833810091018677 -0.16156286001205444 -0.1633894443511963 -0.11535906791687012 -0.401343435049057 -0.3303453028202057
0.03881478309631348 -0.010838985443115234 0.5177538990974426 0.6754918694496155 -0.21134334802627563 0.04660916328430176 0.4873839020729065 -0.6226508617401123
-0.43355998396873474 0.12255603075027466 -0.4398382604122162 0.013900816440582275 0.4800238013267517 0.36003440618515015 -0.23431336879730225 0.6608231663703918
-0.0657309889793396 0.003020048141479492 0.05853986740112305 0.3323962092399597 0.09022486209869385 0.4322742819786072 -0.13474321365356445 -0.5944440364837646
0.0335155725479126 0.17992228269577026 0.3763125538825989 0.30743473768234253 0.27141231298446655 -0.06394696235656738 -0.29717767238616943 0.18345922231674194
0.569308340549469 0.26922059059143066 0.5540621876716614 -0.5103154182434082 0.030627846717834473 -0.45838505029678345 0.12243825197219849 0.625189483165741
0.2852253317832947 0.3954194188117981 0.17224615812301636 0.020928025245666504 -0.22814401984214783 0.06335777044296265 -0.10250937938690186 -0.19886624813079834
-0.49482759833335876 0.24596267938613892 -0.048109471797943115 -0.36659303307533264 -0.11113810539245605 0.3314351439476013 0.4617993235588074 0.4009326100349426
0.580043613910675 0.6197523474693298 0.5750040411949158 0.42436546087265015 -0.6117894053459167 -0.05674844980239868 0.2849922776222229 0.17758315801620483
0.480346143245697 -0.5021301507949829 0.4598471522331238 0.19766730070114136 0.4056716561317444 0.5688431859016418 0.40246134996414185 -0.3044057786464691
-0.26659321784973145 -0.11609739065170288 -0.5560963153839111 0.24963891506195068 0.13292229175567627 -0.6099572777748108 -0.1548314094543457 -0.5182877779006958
00000000: 0000 0060 033b d0bf 0000 00c0 b902 e2bf
00000010: 0000 0040 0440 e0bf 0000 0080 f783 cfbf
00000020: 0000 00c0 9209 d53f 0000 0080 b783 e5bf
00000030: 0000 0040 fe02 dbbf 0000 0080 162a c03f
00000040: 0000 0040 64e3 d83f 0000 00e0 546b e13f
00000050: 0000 0040 8771 d5bf 0000 0000 8a2e a6bf
00000060: 0000 0080 5e67 cabf 0000 00c0 2e75 df3f
00000070: 0000 0000 d6f9 e4bf 0000 0080 fd47 d13f
00000080: 0000 00c0 907e dabf 0000 00c0 1b12 e4bf
00000090: 0000 0000 e4b7 a83f 0000 0060 bf03 e43f
000000a0: 0000 0000 a38e cebf 0000 0040 5925 d23f
000000b0: 0000 0060 e296 e13f 0000 00c0 5376 de3f
000000c0: 0000 0000 f42c acbf 0000 0040 6027 db3f
000000d0: 0000 0020 7a17 e43f 0000 0040 d90a d43f
000000e0: 0000 0000 5628 dfbf 0000 0080 f435 c6bf
000000f0: 0000 0000 2104 cd3f 0000 0040 34e2 dfbf
00000100: 0000 00e0 8451 e63f 0000 0080 d228 cf3f
00000110: 0000 00e0 f63f e53f 0000 0040 8e0d e4bf
00000120: 0000 0020 0c4b e23f 0000 0000 cf78 b1bf
00000130: 0000 0040 a9cf db3f 0000 0000 0535 c33f
00000140: 0000 00e0 8d44 e2bf 0000 0080 96f1 e4bf
00000150: 0000 0000 99fc b1bf 0000 0040 11a3 dd3f
00000160: 0000 0080 3a73 dfbf 0000 0080 c3f8 e3bf
00000170: 0000 0000 4bb4 b93f 0000 0040 240e d7bf
00000180: 0000 0060 9b83 d8bf 0000 00a0 3e77 e33f
00000190: 0000 0040 07f8 ddbf 0000 0000 75c0 c1bf
000001a0: 0000 00c0 65f0 d43f 0000 0000 0879 9d3f
000001b0: 0000 00a0 cd3c e1bf 0000 0000 2efd ccbf
000001c0: 0000 0000 1a12 ab3f 0000 00e0 c0d8 e23f
000001d0: 0000 00c0 e3ca ddbf 0000 00c0 aa28 d83f
000001e0: 0000 0080 5b18 c03f 0000 00c0 ab40 d73f
000001f0: 0000 0080 95ce c0bf 0000 0060 0da3 e53f
00000200: 0000 0000 4dcc c2bf 0000 0060 e45d e43f
00000210: 0000 00a0 9b3d e13f 0000 00c0 f9e7 de3f
00000220: 0000 0000 aa8b ca3f 0000 0020 27c0 d7bf
00000230: 0000 00a0 5fc1 e2bf 0000 0000 9c3d adbf
00000240: 0000 0060 144d e13f 0000 00a0 9399 e6bf
00000250: 0000 0000 b16c b6bf 0000 0000 aff5 b83f
00000260: 0000 0000 fbe5 c4bf 0000 0000 89f8 d7bf
00000270: 0000 0000 5a95 e2bf 0000 0060 082b d9bf
00000280: 0000 0000 0080 b9bf 0000 00e0 332d e43f
00000290: 0000 0060 b20f e63f 0000 0060 ce21 d6bf
000002a0: 0000 0020 d488 d6bf 0000 00c0 a133 da3f
000002b0: 0000 0000 8083 4a3f 0000 0040 117a d73f
000002c0: 0000 0080 b3d6 c83f 0000 0000 ab79 c9bf
000002d0: 0000 0000 3ea9 ab3f 0000 0060 4e2e dbbf
000002e0: 0000 0000 982e c13f 0000 0020 68ad d4bf
000002f0: 0000 0000 4061 cabf 0000 0020 eb7a e53f
00000300: 0000 0080 a5e4 ce3f 0000 0000 4f9e c2bf
00000310: 0000 0080 a71a cdbf 0000 00c0 062e e6bf
00000320: 0000 00a0 0c33 e43f 0000 0060 2797 d0bf
00000330: 0000 0020 8600 e1bf 0000 0080 780e c13f
00000340: 0000 0080 8eb8 c43f 0000 0040 20f5 dabf
00000350: 0000 0040 9422 d73f 0000 00e0 743d e13f
00000360: 0000 0000 0e12 cc3f 0000 00c0 b0de d73f
00000370: 0000 0060 3dbe e53f 0000 0000 b4fc 98bf
00000380: 0000 00c0 2387 e5bf 0000 00c0 505e ccbf
00000390: 0000 0080 1f42 cfbf 0000 0020 9224 d4bf
000003a0: 0000 0000 4bfb b4bf 0000 00c0 5902 e0bf
000003b0: 0000 00c0 870a d93f 0000 0000 6c39 a6bf
000003c0: 0000 0060 68d9 e4bf 0000 0000 17bf c63f
000003d0: 0000 0020 da91 e23f 0000 00c0 2d59 d33f
000003e0: 0000 00a0 f518 e13f 0000 0040 bee8 db3f
000003f0: 0000 0040 cafc cdbf 0000 00e0 85f3 e13f
00000400: 0000 0080 f26c e0bf 0000 0000 e475 c13f
00000410: 0000 0000 e06a b9bf 0000 0040 e885 e0bf
00000420: 0000 0000 08b1 b83f 0000 00e0 7776 e3bf
00000430: 0000 00c0 c23a d33f 0000 00a0 9b5a dabf
00000440: 0000 0000 10e2 aebf 0000 00c0 aa35 d43f
00000450: 0000 0000 4f70 d03f 0000 0080 7cc0 cabf
00000460: 0000 00c0 78f3 d1bf 0000 0040 8089 d73f
00000470: 0000 00a0 58e7 e13f 0000 0000 df8a bd3f
00000480: 0000 00c0 f7ef dfbf 0000 0040 d6ed d03f
00000490: 0000 00e0 8b59 d2bf 0000 0040 51b0 de3f
000004a0: 0000 0000 30f2 ca3f 0000 0080 18e2 cf3f
000004b0: 0000 0000 24d4 97bf 0000 00a0 8aa1 e53f
000004c0: 0000 0000 cf31 d6bf 0000 00c0 4f20 d33f
000004d0: 0000 0000 0a1a a23f 0000 0020 a32a e53f
000004e0: 0000 0040 ec49 da3f 0000 0080 7921 e5bf
000004f0: 0000 0080 3fc0 d7bf 0000 0080 5693 cd3f
00000500: 0000 0000 d5cf e0bf 0000 0040 e868 dc3f
00000510: 0000 0000 ac61 993f 0000 0060 4566 e03f
00000520: 0000 00c0 1618 dabf 0000 0000 6420 97bf
00000530: 0000 0020 305a e0bf 0000 0000 e180 e0bf
00000540: 0000 0040 2e9a d73f 0000 00a0 afbd e33f
00000550: 0000 0080 761b c8bf 0000 0080 17ae c4bf
00000560: 0000 0000 f2e9 c4bf 0000 0000 2c88 bdbf
00000570: 0000 0060 9caf d9bf 0000 00a0 6024 d5bf
00000580: 0000 0000 88df a33f 0000 0000 c032 86bf
00000590: 0000 00a0 7091 e03f 0000 0020 a19d e53f
000005a0: 0000 0080 4c0d cbbf 0000 0000 28dd a73f
000005b0: 0000 0040 4c31 df3f 0000 0080 c1ec e3bf
000005c0: 0000 0060 72bf dbbf 0000 0000 d55f bf3f
000005d0: 0000 0060 4f26 dcbf 0000 0000 0878 8c3f
000005e0: 0000 00c0 b5b8 de3f 0000 00c0 cd0a d73f
000005f0: 0000 0000 fbfd cdbf 0000 00a0 7625 e53f
00000600: 0000 0000 bfd3 b0bf 0000 0000 80bd 683f
00000610: 0000 0000 f0f8 ad3f 0000 00c0 fa45 d53f
00000620: 0000 0000 fa18 b73f 0000 00c0 61aa db3f
00000630: 0000 0000 443f c1bf 0000 0080 af05 e3bf
00000640: 0000 0000 f428 a13f 0000 0080 b107 c73f
00000650: 0000 0040 8115 d83f 0000 00c0 02ad d33f
00000660: 0000 00c0 d15e d13f 0000 0000 d45e b0bf
00000670: 0000 0080 f504 d3bf 0000 0080 977b c73f
00000680: 0000 0020 c637 e23f 0000 0000 e93a d13f
00000690: 0000 00a0 e0ba e13f 0000 0000 8154 e0bf
000006a0: 0000 0000 e85c 9f3f 0000 0040 2e56 ddbf
000006b0: 0000 0000 1d58 bf3f 0000 0060 8d01 e43f
000006c0: 0000 00c0 2141 d23f 0000 0040 8d4e d93f
000006d0: 0000 0080 290c c63f 0000 0000 286e 953f
000006e0: 0000 00c0 d233 cdbf 0000 0000 3738 b03f
000006f0: 0000 0000 0e3e babf 0000 0000 7374 c9bf
00000700: 0000 0060 41ab dfbf 0000 0080 b47b cf3f
00000710: 0000 0000 cea1 a8bf 0000 00a0 4276 d7bf
00000720: 0000 0000 8c73 bcbf 0000 00c0 3b36 d53f
00000730: 0000 00c0 1e8e dd3f 0000 0040 e1a8 d93f
00000740: 0000 00a0 b78f e23f 0000 00e0 02d5 e33f
00000750: 0000 00e0 6e66 e23f 0000 00c0 cd28 db3f
00000760: 0000 0060 c793 e3bf 0000 0000 220e adbf
00000770: 0000 0040 503d d23f 0000 0080 0bbb c63f
00000780: 0000 00c0 fdbd de3f 0000 0040 7311 e0bf
00000790: 0000 00c0 226e dd3f 0000 0080 294d c93f
000007a0: 0000 0040 86f6 d93f 0000 00a0 f633 e23f
000007b0: 0000 0040 edc1 d93f 0000 0060 627b d3bf
000007c0: 0000 0000 dd0f d1bf 0000 0000 8fb8 bdbf
000007d0: 0000 0080 8acb e1bf 0000 0000 2bf4 cf3f
000007e0: 0000 0000 9903 c13f 0000 0020 c584 e3bf
000007f0: 0000 0000 84d1 c3bf 0000 0040 d095 e0bf

encoder_layer.linear1.bias f8 [2048]
0.14808565378189087 0.24886035919189453 0.08031898736953735 0.30402475595474243 -0.23325389623641968 0.5716630816459656 0.034461140632629395 0.5498539805412292
0.6943541169166565 0.6830812096595764 -0.5108256936073303 -0.6595678329467773 -0.3396162688732147 -0.36053526401519775 0.6279276013374329 0.4340267777442932
-0.6170411705970764 0.24315416812896729 0.04740035533905029 -0.23460116982460022 -0.4022568464279175 0.3796231150627136 -0.6165339350700378 -0.5444080829620361
-0.4372395873069763 -0.0766526460647583 0.6771973967552185 -0.21594569087028503 0.6522684693336487 -0.5050757527351379 -0.3439474403858185 -0.5110137462615967
-0.32319197058677673 0.05234307050704956 0.6480991244316101 -0.6186118721961975 0.5687348246574402 0.1570272445678711 -0.20111727714538574 -0.27682799100875854
0.6718733906745911 -0.6397371292114258 -0.02009260654449463 -0.6776115894317627 0.2507450580596924 -0.3010178506374359 0.7009887099266052 0.5714769959449768
-0.23707231879234314 -0.3322155177593231 -0.26943865418434143 -0.510431706905365 0.1872715950012207 0.4517630934715271 0.12357866764068604 0.6698136925697327
0.10788917541503906 -0.5354381799697876 -0.2561427354812622 0.23253285884857178 -0.3203529715538025 0.11411023139953613 -0.4841920733451843 0.42493921518325806
-0.5793490409851074 0.5543237328529358 -0.31813594698905945 -0.23271939158439636 -0.6168009042739868 -0.44207751750946045 0.25566625595092773 0.7057884335517883
0.5428468585014343 0.20704174041748047 0.04255819320678711 -0.6168555021286011 -0.3958035707473755 0.560095489025116 0.31164103746414185 -0.5312317609786987
0.6225864291191101 0.03430485725402832 -0.48597270250320435 0.4640604853630066 -0.1384119987487793 -0.007983803749084473 0.5135683417320251 -0.5623291730880737
-0.6184076070785522 0.4716084599494934 -0.33747926354408264 0.5043159127235413 -0.19066983461380005 0.11897420883178711 0.313556969165802 -0.5534536838531494
0.5781175494194031 -0.03717082738876343 -0.5396301746368408 0.3718041777610779 0.6340342164039612 -0.325125515460968 0.14446616172790527 0.47812241315841675
-0.2775919437408447 -0.41345924139022827 0.5197179913520813 0.16172629594802856 -0.2029125690460205 0.13266032934188843 -0.6803619861602783 -0.45329466462135315
-0.3141602575778961 0.21585536003112793 0.14989113807678223 0.5000082850456238 -0.31357818841934204 -0.05405765771865845 0.08300697803497314 0.564030110836029
-0.6452070474624634 0.5779604315757751 0.4769638180732727 0.6043006777763367 -0.36660298705101013 0.44848042726516724 0.13079875707626343 0.29109781980514526
-0.39042598009109497 -0.6744382381439209 0.3406880497932434 0.17953944206237793 -0.30578845739364624 -0.6430759429931641 0.3078600764274597 -0.5309323072433472
-0.22139662504196167 -0.37967371940612793 -0.14903217554092407 0.659505307674408 0.23180127143859863 0.5125003457069397 0.06599342823028564 0.30437248945236206
0.6592034697532654 0.5251322388648987 0.25038278102874756 0.5731795430183411 0.08054137229919434 -0.022918879985809326 -0.21761006116867065 -0.5977927446365356
-0.35436034202575684 0.18480616807937622 -0.3501093089580536 -0.2937047779560089 -0.03041738271713257 -0.18574512004852295 0.4841696619987488 0.23746782541275024
0.695444643497467 0.21183383464813232 0.15935927629470825 -0.417389839887619 -0.3787648677825928 0.4689931273460388 0.36990970373153687 0.5425389409065247
-0.5615845918655396 0.6789215207099915 0.25678396224975586 0.41798752546310425 -0.5273772478103638 0.09579092264175415 -0.67679363489151 0.5100546479225159
-0.5508366823196411 -0.24545541405677795 -0.5066760778427124 -0.44332143664360046 -0.05923682451248169 -0.6184787154197693 0.4006207585334778 0.21802520751953125
-0.4418580234050751 0.24642783403396606 0.07731091976165771 0.03924304246902466 0.3337535262107849 0.38575905561447144 -0.45920541882514954 0.32606083154678345
-0.196039080619812 -0.1767844557762146 0.6555953621864319 0.1151018738746643 -0.09971928596496582 0.12331044673919678 0.23186230659484863 0.5546221137046814
0.5224443078041077 0.517002284526825 -0.30599531531333923 -0.08077889680862427 0.16248756647109985 0.6370694041252136 -0.2863074243068695 -0.3733764886856079
0.13769608736038208 0.44136708974838257 0.4716418385505676 0.6733971238136292 0.00596165657043457 -0.09662377834320068 0.08518457412719727 0.6335964798927307
0.375358521938324 -0.16146475076675415 0.4099263548851013 0.2643652558326721 0.10686272382736206 -0.48465096950531006 -0.3221931755542755 -0.3581086993217468
-0.6788995862007141 0.23179596662521362 0.5013393759727478 -0.6346680521965027 -0.07694828510284424 -0.14323991537094116 0.5022587180137634 -0.38033831119537354
-0.41205960512161255 0.09080380201339722 -0.3733781576156616 -0.49047356843948364 -0.07816493511199951 0.3309857249259949 0.2960236668586731 -0.1926283836364746
0.6944298148155212 -0.6974063515663147 0.6154206395149231 -0.5351588726043701 -0.5117613077163696 -0.24875801801681519 0.6891009211540222 0.6732373833656311
0.2461758852005005 -0.2488090991973877 0.5501006245613098 0.4367613196372986 0.025015950202941895 0.6422058939933777 -0.24915149807929993 -0.2070719599723816
00000000: 0000 0080 78f4 c23f 0000 0000 a8da cf3f
00000010: 0000 0000 c98f b43f 0000 0040 2475 d33f
00000020: 0000 0080 43db cdbf 0000 0060 104b e23f
00000030: 0000 0000 e4a4 a13f 0000 0060 6798 e13f
00000040: 0000 0020 2638 e63f 0000 0020 cddb e53f
00000050: 0000 0020 af58 e0bf 0000 0000 2e1b e5bf
00000060: 0000 00e0 45bc d5bf 0000 0080 0213 d7bf
00000070: 0000 00a0 fb17 e43f 0000 0040 18c7 db3f
00000080: 0000 0020 cdbe e3bf 0000 0000 ad1f cf3f
00000090: 0000 0000 dc44 a83f 0000 0040 6907 cebf
000000a0: 0000 0080 93be d9bf 0000 00c0 be4b d83f
000000b0: 0000 0060 a5ba e3bf 0000 0080 ca6b e1bf
000000c0: 0000 00c0 bbfb dbbf 0000 0000 829f b3bf
000000d0: 0000 00e0 99ab e53f 0000 00c0 1ba4 cbbf
000000e0: 0000 0020 62df e43f 0000 00a0 9429 e0bf
000000f0: 0000 0020 3c03 d6bf 0000 0080 395a e0bf
00000100: 0000 0060 2daf d4bf 0000 0000 b6cc aa3f
00000110: 0000 0060 3abd e43f 0000 0020 abcb e3bf
00000120: 0000 0060 1333 e23f 0000 0000 7819 c43f
00000130: 0000 0000 36be c9bf 0000 00c0 8cb7 d1bf
00000140: 0000 00a0 fc7f e53f 0000 0000 ba78 e4bf
00000150: 0000 0000 2893 94bf 0000 0080 feae e5bf
00000160: 0000 0000 350c d03f 0000 0060 e043 d3bf
00000170: 0000 00e0 7f6e e63f 0000 0020 8a49 e23f
00000180: 0000 00c0 6258 cebf 0000 00e0 0443 d5bf
00000190: 0000 00a0 7b3e d1bf 0000 00e0 7455 e0bf
000001a0: 0000 0000 84f8 c73f 0000 00c0 afe9 dc3f
000001b0: 0000 0000 daa2 bf3f 0000 0020 1d6f e53f
000001c0: 0000 0000 a09e bb3f 0000 0040 4f22 e1bf
000001d0: 0000 0080 a464 d0bf 0000 0000 a3c3 cd3f
000001e0: 0000 00c0 a980 d4bf 0000 0000 5436 bd3f
000001f0: 0000 00c0 00fd debf 0000 0040 3432 db3f
00000200: 0000 0000 078a e2bf 0000 0020 05bd e13f
00000210: 0000 00e0 565c d4bf 0000 00c0 bfc9 cdbf
00000220: 0000 0040 d5bc e3bf 0000 0080 ff4a dcbf
00000230: 0000 0000 d65c d03f 0000 00a0 d195 e63f
00000240: 0000 0060 005f e13f 0000 0000 5880 ca3f
00000250: 0000 0000 30ca a53f 0000 00c0 47bd e3bf
00000260: 0000 0080 d854 d9bf 0000 0060 4dec e13f
00000270: 0000 0040 edf1 d33f 0000 00c0 d9ff e0bf
00000280: 0000 0060 3aec e33f 0000 0000 6890 a13f
00000290: 0000 0040 2d1a dfbf 0000 00c0 2ab3 dd3f
000002a0: 0000 0000 7cb7 c1bf 0000 0000 d059 80bf
000002b0: 0000 00e0 266f e03f 0000 00c0 99fe e1bf
000002c0: 0000 00c0 fec9 e3bf 0000 0040 d52e de3f
000002d0: 0000 00a0 4299 d5bf 0000 0020 5b23 e03f
000002e0: 0000 0080 de67 c8bf 0000 0000 1875 be3f
000002f0: 0000 0040 5111 d43f 0000 0080 e4b5 e1bf
00000300: 0000 0060 f07f e23f 0000 0000 0e08 a3bf
00000310: 0000 0080 a644 e1bf 0000 00c0 a3cb d73f
00000320: 0000 0020 024a e43f 0000 0040 dbce d4bf
00000330: 0000 0000 de7d c23f 0000 00c0 8e99 de3f
00000340: 0000 0000 11c4 d1bf 0000 00c0 1d76 dabf
00000350: 0000 00a0 87a1 e03f 0000 0080 72b3 c43f
00000360: 0000 0000 0af9 c9bf 0000 0080 03fb c03f
00000370: 0000 0080 86c5 e5bf 0000 00a0 c702 ddbf
00000380: 0000 00a0 331b d4bf 0000 0000 26a1 cb3f
00000390: 0000 0000 a22f c33f 0000 0060 1100 e03f
000003a0: 0000 0040 aa11 d4bf 0000 0000 72ad abbf
000003b0: 0000 0000 f23f b53f 0000 00e0 880c e23f
000003c0: 0000 0040 89a5 e4bf 0000 00e0 a67e e23f
000003d0: 0000 0040 9386 de3f 0000 0060 6e56 e33f
000003e0: 0000 0060 6c76 d7bf 0000 0040 e7b3 dc3f
000003f0: 0000 0080 03be c03f 0000 00c0 58a1 d23f
00000400: 0000 0040 bdfc d8bf 0000 0080 ff94 e5bf
00000410: 0000 0040 d5cd d53f 0000 0000 26fb c63f
00000420: 0000 00c0 0992 d3bf 0000 0000 1494 e4bf
00000430: 0000 00c0 fab3 d33f 0000 00c0 65fd e0bf
00000440: 0000 0080 b956 ccbf 0000 0000 934c d8bf
00000450: 0000 0080 7c13 c3bf 0000 00e0 aa1a e53f
00000460: 0000 0000 aaab cd3f 0000 0020 6766 e03f
00000470: 0000 0000 f2e4 b03f 0000 00c0 d67a d33f
00000480: 0000 00e0 3118 e53f 0000 0020 e2cd e03f
00000490: 0000 0080 4506 d03f 0000 00a0 7c57 e23f
000004a0: 0000 0000 5c9e b43f 0000 0000 0c78 97bf
000004b0: 0000 0080 a5da cbbf 0000 0040 1e21 e3bf
000004c0: 0000 0000 d7ad d6bf 0000 0080 baa7 c73f
000004d0: 0000 00e0 3068 d6bf 0000 0020 0fcc d2bf
000004e0: 0000 0000 bc25 9fbf 0000 0000 7fc6 c7bf
000004f0: 0000 00c0 a2fc de3f 0000 0080 5865 ce3f
00000500: 0000 0020 1541 e63f 0000 0000 5f1d cb3f
00000510: 0000 0080 e265 c43f 0000 00e0 83b6 dabf
00000520: 0000 0000 af3d d8bf 0000 00c0 fb03 de3f
00000530: 0000 00c0 99ac d73f 0000 00a0 7a5c e13f
00000540: 0000 0040 80f8 e1bf 0000 00a0 b9b9 e53f
00000550: 0000 0000 266f d03f 0000 00c0 4ec0 da3f
00000560: 0000 0040 46e0 e0bf 0000 0000 c185 b83f
00000570: 0000 0020 4ba8 e5bf 0000 0020 5e52 e03f
00000580: 0000 0040 74a0 e1bf 0000 0040 156b cfbf
00000590: 0000 00c0 b036 e0bf 0000 00e0 605f dcbf
000005a0: 0000 0000 4a54 aebf 0000 00e0 93ca e3bf
000005b0: 0000 0040 c5a3 d93f 0000 0000 40e8 cb3f
000005c0: 0000 00e0 6647 dcbf 0000 0080 f28a cf3f
000005d0: 0000 0000 a6ca b33f 0000 0000 aa17 a43f
000005e0: 0000 00c0 375c d53f 0000 00c0 46b0 d83f
000005f0: 0000 0020 9f63 ddbf 0000 0040 2ede d43f
00000600: 0000 0000 cf17 c9bf 0000 0080 dfa0 c6bf
00000610: 0000 0020 a3fa e43f 0000 0000 5177 bd3f
00000620: 0000 0000 3487 b9bf 0000 0000 4691 bf3f
00000630: 0000 0000 aaad cd3f 0000 00e0 76bf e13f
00000640: 0000 0020 ddb7 e03f 0000 0060 488b e03f
00000650: 0000 0060 6d95 d3bf 0000 0000 edad b4bf
00000660: 0000 0080 64cc c43f 0000 0060 df62 e43f
00000670: 0000 0060 dc52 d2bf 0000 0080 66e5 d7bf
00000680: 0000 0080 06a0 c13f 0000 00c0 5b3f dc3f
00000690: 0000 0040 612f de3f 0000 0020 788c e53f
000006a0: 0000 0000 406b 783f 0000 0000 56bc b8bf
000006b0: 0000 0000 a8ce b53f 0000 0020 6c46 e43f
000006c0: 0000 00c0 df05 d83f 0000 0080 e0aa c4bf
000006d0: 0000 00c0 3b3c da3f 0000 0040 5ceb d03f
000006e0: 0000 0000 5b5b bb3f 0000 0080 8504 dfbf
000006f0: 0000 0020 d09e d4bf 0000 00c0 40eb d6bf
00000700: 0000 00a0 8bb9 e5bf 0000 0080 7dab cd3f
00000710: 0000 00e0 f80a e03f 0000 0060 334f e4bf
00000720: 0000 0000 e2b2 b3bf 0000 0080 af55 c2bf
00000730: 0000 00e0 8012 e03f 0000 0080 7657 d8bf
00000740: 0000 0040 2f5f dabf 0000 0000 eb3e b73f
00000750: 0000 0080 6de5 d7bf 0000 0040 eb63 dfbf
00000760: 0000 0000 9e02 b4bf 0000 00c0 de2e d53f
00000770: 0000 0040 0df2 d23f 0000 0000 0ca8 c8bf
00000780: 0000 00e0 c438 e63f 0000 0020 2751 e6bf
00000790: 0000 00a0 86b1 e33f 0000 0080 0520 e1bf
000007a0: 0000 0040 5960 e0bf 0000 0080 4dd7 cfbf
000007b0: 0000 0060 1d0d e63f 0000 0020 298b e53f
000007c0: 0000 0000 b182 cf3f 0000 0000 fad8 cfbf
000007d0: 0000 00a0 6c9a e13f 0000 00c0 e5f3 db3f
000007e0: 0000 0000 c89d 993f 0000 0060 f38c e43f
000007f0: 0000 0040 32e4 cfbf 0000 0080 5581 cabf

encoder_layer.linear2.weight f8 [2, 2048]
-0.009324779734015465 0.0034756921231746674 0.02012794278562069 -0.017735201865434647 -0.016244400292634964 0.003444904461503029 0.017820803448557854 0.01918872632086277
-0.005716836079955101 -0.008303068578243256 -0.012820838950574398 -0.004290435463190079 0.006358057260513306 0.014493988826870918 -0.021555647253990173 -0.017744269222021103
-0.0003030281513929367 0.0011294856667518616 0.013621879741549492 0.013222763314843178 0.012371161952614784 0.017125220969319344 0.0035520177334547043 -0.00867820717394352
0.006218951195478439 0.007852133363485336 0.002604011446237564 0.02034030668437481 0.012388316914439201 0.004346117377281189 -0.018917778506875038 0.001452198252081871
-0.00816258043050766 -0.018715128302574158 0.020570995286107063 0.021473465487360954 0.004214981570839882 0.00797506794333458 0.012051565572619438 0.002972925081849098
0.009769679978489876 0.011525852605700493 -0.015306378714740276 -0.008838510140776634 -0.01586243510246277 -0.01114971935749054 -0.009882184676826 -0.0027862340211868286
0.0019939038902521133 -0.006262494251132011 0.019728751853108406 -0.0012560971081256866 -0.013515234924852848 0.01266290433704853 0.017566511407494545 0.020348219200968742
-0.0085775600746274 0.010418010875582695 0.006274329498410225 0.004804942756891251 0.012312201783061028 -0.005913225933909416 0.019001295790076256 0.010948585346341133
0.008735017850995064 0.015428243204951286 0.010177070274949074 -0.018228759989142418 -0.0035936906933784485 -0.009720775298774242 -0.019244929775595665 0.02139960415661335
-0.0028053466230630875 -0.010135737247765064 -0.005808025598526001 -0.0010810773819684982 0.016650265082716942 0.019413365051150322 -0.005979910492897034 0.0022080782800912857
-0.002491271123290062 -0.0059601180255413055 0.006413901224732399 0.012305652722716331 -0.006784454919397831 -0.003058740869164467 0.0038702208548784256 0.011039799079298973
-0.011545713059604168 0.021009737625718117 0.007990743964910507 0.02131824754178524 0.011223720386624336 -0.012977822683751583 -0.012802323326468468 -0.02155953273177147
0.007343970239162445 0.01909421943128109 -0.0027901194989681244 -0.01160059031099081 -0.012056674808263779 -0.02088329941034317 -0.011663020588457584 -0.007063340395689011
-0.00516190379858017 -0.008202245458960533 0.007121346890926361 -0.000982958823442459 -0.01881190575659275 -0.00046221353113651276 0.01646413840353489 -0.012563880532979965
-0.013192224316298962 0.014807803556323051 -0.01616685464978218 0.008400287479162216 -0.0037870891392230988 -0.008960172533988953 0.008140582591295242 0.013630582019686699
0.02067161165177822 -0.00590858981013298 -0.006183337420225143 -0.006352538242936134 0.01040462963283062 0.01952383480966091 -0.003305148333311081 -0.007936298847198486
0.004571784287691116 0.003658335655927658 -0.0037409812211990356 -0.010844365693628788 0.015433376654982567 0.0067773740738630295 -0.006341841071844101 -0.011052189394831657
0.007930461317300797 -0.001109568402171135 0.020954476669430733 -0.014263086020946503 0.015171794220805168 -0.019068190827965736 0.0033264365047216415 -0.01833995245397091
-0.016453491523861885 -0.012133166193962097 -0.021848158910870552 -0.0014053285121917725 -0.007339757867157459 -0.001410413533449173 -0.01726510562002659 -0.004060408100485802
0.012046502903103828 -0.013582251034677029 -0.007717817090451717 -0.011666063219308853 -0.010063650086522102 -0.017705567181110382 0.016849061474204063 0.01426502875983715
0.02130340225994587 -0.013862487860023975 0.010498641058802605 -0.004993237555027008 -0.021598508581519127 0.021630888804793358 -0.014902027323842049 -0.006876789964735508
0.010728919878602028 0.007129862904548645 -0.01706952229142189 0.009743040427565575 -0.01841781474649906 -0.006160154938697815 -0.017498916015028954 0.021293992176651955
0.02017783932387829 0.017594417557120323 -0.011679383926093578 -0.013697303831577301 0.010508580133318901 -0.003960536792874336 -0.015731502324342728 0.014622246846556664
-0.01219924446195364 -0.010602389462292194 0.02200605534017086 -0.017247594892978668 0.020849673077464104 0.005674205720424652 0.0003579724580049515 0.021318333223462105
0.0009661093354225159 0.004145745187997818 -0.010841683484613895 0.014564940705895424 -0.003977352753281593 -0.00018475577235221863 0.011205283924937248 -0.005800152197480202
-0.010395696386694908 0.004234649240970612 -0.0049454160034656525 -0.009266371838748455 -0.00630192831158638 -0.021228961646556854 -0.02078009769320488 -0.017730066552758217
-0.022021885961294174 0.01061919517815113 0.002930412068963051 0.013405947014689445 0.011848749592900276 -0.019084401428699493 -0.003456905484199524 -0.011554505676031113
-0.01588401570916176 -0.021913202479481697 -0.017674507573246956 0.01509702019393444 -0.02150212600827217 -0.019204678013920784 -0.0034846626222133636 -0.021754685789346695
-0.012039236724376678 0.003827955573797226 -0.00019592233002185822 0.019211096689105034 0.008314695209264755 0.005699342116713524 -0.010236921720206738 0.011376818642020226
-0.021611616015434265 -0.00040939077734947205 0.006998669356107712 -0.02105177380144596 -0.007261941209435463 -0.007886729203164577 0.011220408603549004 0.007433893159031868
0.012354763224720955 -0.014352144673466682 -0.004990199580788612 0.004007929936051369 -0.00020144134759902954 -0.008397556841373444 -0.001812625676393509 0.017568746581673622
0.012717114761471748 -0.019819455221295357 -0.0012195724993944168 -0.021623915061354637 -0.020264171063899994 0.021163271740078926 0.02012527920305729 0.0192291010171175
00000000: 0000 00c0 de18 83bf 0000 0000 0e79 6c3f
00000010: 0000 0060 6b9c 943f 0000 0040 2d29 92bf
00000020: 0000 0040 5fa2 90bf 0000 0000 7d38 6c3f
00000030: 0000 00e0 9d3f 923f 0000 00a0 35a6 933f
00000040: 0000 0080 896a 77bf 0000 0000 3301 81bf
00000050: 0000 00e0 cf41 8abf 0000 0000 d992 71bf
00000060: 0000 0000 e80a 7a3f 0000 0040 06af 8d3f
00000070: 0000 0000 af12 96bf 0000 00c0 8d2b 92bf
00000080: 0000 0000 f8db 33bf 0000 0000 6881 523f
00000090: 0000 00c0 c9e5 8b3f 0000 0040 8914 8b3f
000000a0: 0000 0040 0d56 893f 0000 0020 4689 913f
000000b0: 0000 0000 1f19 6d3f 0000 0040 e1c5 81bf
000000c0: 0000 0000 0b79 793f 0000 0080 c714 803f
000000d0: 0000 0000 0255 653f 0000 00e0 16d4 943f
000000e0: 0000 00c0 0b5f 893f 0000 0000 3ccd 713f
000000f0: 0000 00a0 2e5f 93bf 0000 0000 f6ca 573f
00000100: 0000 0000 8bb7 80bf 0000 0000 0f2a 93bf
00000110: 0000 0020 9010 953f 0000 00e0 23fd 953f
00000120: 0000 0080 ba43 713f 0000 0080 3b55 803f
00000130: 0000 00c0 7dae 883f 0000 0000 ad5a 683f
00000140: 0000 0040 2002 843f 0000 00c0 dd9a 873f
00000150: 0000 0060 f358 8fbf 0000 00c0 ec19 82bf
00000160: 0000 0000 3e3e 90bf 0000 0000 aad5 86bf
00000170: 0000 0060 1c3d 84bf 0000 0000 28d3 66bf
00000180: 0000 0000 8555 603f 0000 0080 b3a6 79bf
00000190: 0000 0020 c633 943f 0000 0000 7494 54bf
000001a0: 0000 0020 e0ad 8bbf 0000 0040 02ef 893f
000001b0: 0000 00a0 f4fc 913f 0000 00e0 29d6 943f
000001c0: 0000 00a0 1c91 81bf 0000 00c0 0956 853f
000001d0: 0000 0080 1cb3 793f 0000 0000 59ae 733f
000001e0: 0000 00c0 2337 893f 0000 0080 7738 78bf
000001f0: 0000 0060 1375 933f 0000 0040 366c 863f
00000200: 0000 0040 aae3 813f 0000 00c0 d798 8f3f
00000210: 0000 0040 b7d7 843f 0000 0060 8faa 92bf
00000220: 0000 0000 8470 6dbf 0000 0060 7ce8 83bf
00000230: 0000 0060 f1b4 93bf 0000 0020 c7e9 953f
00000240: 0000 0000 3dfb 66bf 0000 00a0 0bc2 84bf
00000250: 0000 0000 28ca 77bf 0000 0000 5eb6 51bf
00000260: 0000 0060 c40c 913f 0000 00e0 18e1 933f
00000270: 0000 0000 647e 78bf 0000 0000 ad16 623f
00000280: 0000 0000 9368 64bf 0000 0000 a369 78bf
00000290: 0000 0080 7645 7a3f 0000 00c0 b433 893f
000002a0: 0000 0040 04ca 7bbf 0000 0000 a50e 69bf
000002b0: 0000 0000 71b4 6f3f 0000 00c0 089c 863f
000002c0: 0000 0060 47a5 87bf 0000 00a0 9383 953f
000002d0: 0000 0080 735d 803f 0000 0060 73d4 953f
000002e0: 0000 0040 76fc 863f 0000 00e0 1d94 8abf
000002f0: 0000 00c0 1a38 8abf 0000 00c0 b313 96bf
00000300: 0000 0000 b614 7e3f 0000 0060 6f8d 933f
00000310: 0000 0000 4edb 66bf 0000 00e0 0cc2 87bf
00000320: 0000 0080 2bb1 88bf 0000 0080 6e62 95bf
00000330: 0000 0020 c8e2 87bf 0000 0000 73ee 7cbf
00000340: 0000 0000 a624 75bf 0000 00c0 56cc 80bf
00000350: 0000 0000 462b 7d3f 0000 0000 d41a 50bf
00000360: 0000 00a0 6d43 93bf 0000 0000 a84a 3ebf
00000370: 0000 00a0 f9db 903f 0000 0080 17bb 89bf
00000380: 0000 0060 8604 8bbf 0000 00c0 8d53 8e3f
00000390: 0000 0040 0b8e 90bf 0000 0080 2b34 813f
000003a0: 0000 0000 1a06 6fbf 0000 0000 b659 82bf
000003b0: 0000 0080 02ac 803f 0000 00c0 59ea 8b3f
000003c0: 0000 0060 f02a 953f 0000 0000 9b33 78bf
000003d0: 0000 0000 b353 79bf 0000 0080 1e05 7abf
000003e0: 0000 00c0 054f 853f 0000 0060 0efe 933f
000003f0: 0000 0000 6613 6bbf 0000 0000 e840 80bf
00000400: 0000 0000 ddb9 723f 0000 0000 16f8 6d3f
00000410: 0000 0000 68a5 6ebf 0000 0020 9235 86bf
00000420: 0000 00c0 889b 8f3f 0000 0080 97c2 7b3f
00000430: 0000 0000 e7f9 79bf 0000 00c0 87a2 86bf
00000440: 0000 0080 d83d 803f 0000 0000 de2d 52bf
00000450: 0000 0020 1775 953f 0000 0000 f735 8dbf
00000460: 0000 00c0 6312 8f3f 0000 00a0 9c86 93bf
00000470: 0000 0000 0b40 6b3f 0000 0060 b5c7 92bf
00000480: 0000 0020 2fd9 90bf 0000 0000 46d9 88bf
00000490: 0000 0020 5d5f 96bf 0000 0000 6006 57bf
000004a0: 0000 0040 4b10 7ebf 0000 0000 b41b 57bf
000004b0: 0000 00a0 f1ad 91bf 0000 0080 a5a1 70bf
000004c0: 0000 0040 d6ab 883f 0000 00e0 02d1 8bbf
000004d0: 0000 00c0 b79c 7fbf 0000 0080 60e4 87bf
000004e0: 0000 0040 409c 84bf 0000 0080 6821 92bf
000004f0: 0000 0060 e140 913f 0000 00c0 fb36 8d3f
00000500: 0000 0020 8fd0 953f 0000 00a0 ef63 8cbf
00000510: 0000 00c0 4f80 853f 0000 0000 ca73 74bf
00000520: 0000 0060 eb1d 96bf 0000 0060 6826 963f
00000530: 0000 0040 f484 8ebf 0000 0040 d62a 7cbf
00000540: 0000 0040 0bf9 853f 0000 0000 3434 7d3f
00000550: 0000 0040 ac7a 91bf 0000 00c0 28f4 833f
00000560: 0000 00a0 1edc 92bf 0000 0000 643b 79bf
00000570: 0000 0060 3ceb 91bf 0000 00a0 17ce 953f
00000580: 0000 00e0 7fa9 943f 0000 0060 4504 923f
00000590: 0000 0060 5ceb 87bf 0000 0000 550d 8cbf
000005a0: 0000 00c0 8585 853f 0000 0080 ec38 70bf
000005b0: 0000 0040 eb1b 90bf 0000 00c0 44f2 8d3f
000005c0: 0000 00e0 eafb 88bf 0000 00a0 b4b6 85bf
000005d0: 0000 0060 c188 963f 0000 0080 5aa9 91bf
000005e0: 0000 00e0 9d59 953f 0000 0000 d63d 773f
000005f0: 0000 0000 c875 373f 0000 0020 79d4 953f
00000600: 0000 0000 50a8 4f3f 0000 0000 21fb 703f
00000610: 0000 0020 2a34 86bf 0000 0040 39d4 8d3f
00000620: 0000 0080 8e4a 70bf 0000 0000 6037 28bf
00000630: 0000 00c0 cbf2 863f 0000 0080 e6c1 77bf
00000640: 0000 00c0 564a 85bf 0000 0000 5a58 713f
00000650: 0000 0000 a541 74bf 0000 0060 3ffa 82bf
00000660: 0000 0000 0dd0 79bf 0000 0080 0bbd 95bf
00000670: 0000 00c0 6047 95bf 0000 00a0 d427 92bf
00000680: 0000 00c0 e78c 96bf 0000 0040 84bf 853f
00000690: 0000 0000 8501 683f 0000 00c0 9374 8b3f
000006a0: 0000 0040 2844 883f 0000 0080 dc8a 93bf
000006b0: 0000 0000 a851 6cbf 0000 0080 e3a9 87bf
000006c0: 0000 0040 e643 90bf 0000 0020 6a70 96bf
000006d0: 0000 0020 4419 92bf 0000 00c0 2feb 8e3f
000006e0: 0000 0040 a704 96bf 0000 0020 64aa 93bf
000006f0: 0000 0000 de8b 6cbf 0000 0040 dc46 96bf
00000700: 0000 0000 07a8 88bf 0000 0000 ce5b 6f3f
00000710: 0000 0000 10ae 29bf 0000 00e0 12ac 933f
00000720: 0000 0080 4b07 813f 0000 0080 3158 773f
00000730: 0000 0060 18f7 84bf 0000 00c0 ba4c 873f
00000740: 0000 0000 5b21 96bf 0000 0000 70d4 3abf
00000750: 0000 0000 a3aa 7c3f 0000 00a0 988e 95bf
00000760: 0000 0080 b2be 7dbf 0000 00e0 ea26 80bf
00000770: 0000 00c0 b9fa 863f 0000 0080 0073 7e3f
00000780: 0000 0040 744d 893f 0000 0040 a864 8dbf
00000790: 0000 0080 9a70 74bf 0000 0080 9e6a 703f
000007a0: 0000 0000 4067 2abf 0000 0000 bd32 81bf
000007b0: 0000 0000 b4b2 5dbf 0000 00a0 8afd 913f
000007c0: 0000 0040 6e0b 8a3f 0000 0020 8d4b 94bf
000007d0: 0000 0000 42fb 53bf 0000 0060 9424 96bf
000007e0: 0000 0080 21c0 94bf 0000 0020 d3ab 953f
000007f0: 0000 00a0 b89b 943f 0000 0020 cbb0 933f

encoder_layer.linear2.bias f8 [2]
-0.002076832577586174 0.0023094676434993744
00000000: 0000 0000 6f03 61bf 0000 0000 4eeb 623f

encoder_layer.norm1.weight f8 [2]
1.0 1.0
00000000: 0000 0000 0000 f03f 0000 0000 0000 f03f

encoder_layer.norm1.bias f8 [2]
0.0 0.0
00000000: 0000 0000 0000 0000 0000 0000 0000 0000

encoder_layer.norm2.weight f8 [2]
1.0 1.0
00000000: 0000 0000 0000 f03f 0000 0000 0000 f03f

encoder_layer.norm2.bias f8 [2]
0.0 0.0
00000000: 0000 0000 0000 0000 0000 0000 0000 0000

transformer_encoder.layers.0.self_attn.in_proj_weight f8 [6, 2]
0.395119845867157 0.011963486671447754 0.05207854509353638 0.06298565864562988 0.7566353678703308 0.29078513383865356 0.09231823682785034 -0.6097489595413208
-0.43772026896476746 0.6771675944328308 -0.7602730393409729 0.40957289934158325
00000000: 0000 00c0 a449 d93f 0000 0000 5080 883f
00000010: 0000 0000 0aaa aa3f 0000 0000 d41f b03f
00000020: 0000 0060 5b36 e83f 0000 0040 399c d23f
00000030: 0000 0000 2ba2 b73f 0000 0040 1083 e3bf
00000040: 0000 00e0 9b03 dcbf 0000 0060 5bab e53f
00000050: 0000 0020 2854 e8bf 0000 0040 7136 da3f

transformer_encoder.layers.0.self_attn.in_proj_bias f8 [6]
-2.948738543210404e-17 -3.4485679474608928e-18 1.2362005056398516e-35 3.0495098748514115e-37 9.254906635781305e-08 -8.583221529630868e-09
00000000: eb7b d0ec 91ff 80bc 1275 8b6a b3ce 4fbc
00000010: 55db e784 926e b038 68cd 4691 3ef1 5938
00000020: 7035 c364 ecd7 783e f886 420a ad6e 42be

transformer_encoder.layers.0.self_attn.out_proj.weight f8 [2, 2]
0.002325415611270053 -0.2709469199180603 -0.7020613551139864 -0.20562058687210058
00000000: b11a 0000 c00c 633f 0000 00c0 3157 d1bf
00000010: 1d00 0060 4977 e6bf f7ff ff7f c651 cabf

transformer_encoder.layers.0.self_attn.out_proj.bias f8 [2]
1.3138939133628031e-07 -1.3138939133628034e-07
00000000: ac66 ee4e 81a2 813e ad66 ee4e 81a2 81be

transformer_encoder.layers.0.linear1.weight f8 [2048, 2]
-0.25360187886136143 -0.5628327131472294 -0.5078145265579507 -0.2462148070335107 0.32870930432968376 -0.6723287105529804 -0.4220576882362864 0.12628442049031474
0.38887888193130493 0.5443519949913025 -0.33505421877916775 -0.04332381485883282 -0.2062795758244758 0.4915272593495612 -0.6554975509642536 0.27001893520345066
-0.41397494078383906 -0.6272104978491265 0.048277974140354195 0.6254574656370205 -0.23872792720790093 0.28352957963938874 0.5496684908866882 0.47597211599349976
-0.05503046512610014 0.42427831888205086 0.6278658509254456 0.3131621479988098 -0.4868369102252756 -0.17352157833444734 0.22668850422598724 -0.4981814026901901
0.6974510550498962 0.24343329668045044 0.6640581488547316 -0.6266547441420546 0.5716610550899182 -0.06824964285084328 0.4345496296801528 0.15005552769518277
-0.5708684325218201 -0.6544907093048096 -0.07026058435428252 0.46307784318912115 -0.49140799045562744 -0.6241166591644287 0.10040730237960815 -0.36023813486099243
-0.3830326497553086 0.6083062291143635 -0.46826344728454045 -0.1386858224870352 0.32717269660411613 0.02878201006473764 -0.5386722683903804 -0.22647643089321995
0.052872478946152664 0.5889591574826806 -0.4655084013939984 0.3774821162224896 0.1257433295249939 0.3633221983909607 -0.13130444288236892 0.676153838634322
-0.14685976505280113 0.6364614367485101 0.5387704968748631 0.4829086661042631 0.2073872089103592 -0.37110307809866766 -0.5861051678657532 -0.05711066722869873
0.5406591296133777 -0.706247150891759 -0.08759599924071781 0.09749883413299076 -0.16326844691568282 -0.3745443821019564 -0.5807313919067383 -0.39325150847435
-0.09960937499989421 0.630517899989976 0.6894161105219534 -0.34581336379687094 -0.35210135579114005 0.4094013571739678 0.0008091330528259277 0.3668254017829895
0.19405215980746332 -0.19902551176287714 0.05402559041599208 -0.4247013032398599 0.13423442842162153 -0.323083907381659 -0.20609283447267626 0.6712546944618419
0.24135273694671588 -0.14545619487441974 -0.22737592458142722 -0.6931184530316408 0.6312316059758835 -0.259225696294564 -0.5313139557838864 0.13325411081318345
0.16188222172333622 -0.4212113023050011 0.3614855408576365 0.5387520194145803 0.21930098533642836 0.37296694517123147 0.6794726252458368 -0.02440148591020542
-0.6727465391160424 -0.2216282784937439 -0.24420541524887085 -0.3147321045398712 -0.081959426417915 -0.5002869367450797 0.391267716873197 -0.04340684412768331
-0.651539027690876 0.1777065992355225 0.5803042054371975 0.3023180365366791 0.5342968106269836 0.4360805153846741 -0.23427703976622147 0.5609769225119642
-0.5132992267607889 0.13641023635856656 -0.09928703310127053 -0.5163460969722766 0.09645128249657672 -0.6082114577246962 0.3004614711132049 -0.4117802679862976
-0.0603184700012207 0.3157755732536316 0.2568547725937088 -0.20899921658250895 -0.2804853320122909 0.3677673935891342 0.5594905018743463 0.11540025473270926
-0.4990214705465941 0.2645164132116942 -0.2867154777049864 0.47951155900953657 0.2105159759550685 0.24908739328092394 -0.023270189762133946 0.6759694218635741
-0.3467900753020529 0.29884713888161224 0.03535491228122707 0.6614547371862415 0.4107618928177818 -0.6603362560494407 -0.37110888957964755 0.2310588955877957
-0.5253701210023511 0.44390302896515055 0.02478665113430969 0.5124842524530316 -0.40772026777267456 -0.022584497928619385 -0.5110092759408055 -0.5157322883330288
0.36878544092187404 0.6169050335883192 -0.18833810091022374 -0.16156286001201747 -0.1633894443617081 -0.11535906790635846 -0.401343435049057 -0.3303453028202057
0.03881478309631348 -0.010838985443115234 0.5177538990886352 0.6754918694584229 -0.21134334802627563 0.04660916328430176 0.48738390205673054 -0.622650861723936
-0.43355998396864043 0.1225560307501803 -0.4398382604122514 0.01390081644061772 0.4800238013354891 0.36003440617641275 -0.23431336879743314 0.6608231663705227
-0.0657309889958628 0.0030200481580027485 0.05853986740124215 0.33239620923984053 0.09022486209869385 0.4322742819786072 -0.1347432136372025 -0.594444036500127
0.033515572555168946 0.17992228268851385 0.3763125538825989 0.30743473768234253 0.27141231300465674 -0.06394696237675782 -0.29717767238614406 0.1834592223167162
0.569308340557187 0.26922059058371295 0.5540621876941486 -0.5103154182658954 0.030627846720558335 -0.45838505029950705 0.12243825197230208 0.6251894831656373
0.2852253317832947 0.3954194188117981 0.17224615811489324 0.020928025253789548 -0.22814401984214783 0.06335777044296265 -0.10250937938690186 -0.19886624813079834
-0.4948275983335066 0.24596267938628683 -0.04810947179756724 -0.36659303307570856 -0.11113810539241878 0.331435143947564 0.4617993235432261 0.4009326100505239
0.580043613910675 0.6197523474693298 0.5750040411950413 0.4243654608725242 -0.6117894053459785 -0.05674844980233676 0.28499227759395307 0.1775831580444747
0.4803461432431285 -0.5021301507924142 0.45984715222109845 0.19766730071316704 0.4056716561395387 0.5688431858938481 0.40246134996033767 -0.30440577864266494
-0.26659321784973145 -0.11609739065170288 -0.5560963153839191 0.2496389150619588 0.1329222917614315 -0.6099572777805659 -0.15483140946570892 -0.518287777889333
00000000: 147a fa5f 033b d0bf f7c2 02c0 b902 e2bf
00000010: ff00 0040 0440 e0bf 0bfc ff7f f783 cfbf
00000020: 6b29 ffbf 9209 d53f b194 ff7f b783 e5bf
00000030: 8203 0040 fe02 dbbf 0407 0080 162a c03f
00000040: 0000 0040 64e3 d83f 0000 00e0 546b e13f
00000050: 52c6 0240 8771 d5bf 7bcd e9ff 892e a6bf
00000060: 2adb ff7f 5e67 cabf 94ed ffbf 2e75 df3f
00000070: 6afc ffff d5f9 e4bf daf8 ff7f fd47 d13f
00000080: 93ed 01c0 907e dabf 3b09 ffbf 1b12 e4bf
00000090: b393 1900 e4b7 a83f c966 fe5f bf03 e43f
000000a0: 8cf9 ffff a28e cebf c2fc ff3f 5925 d23f
000000b0: 0000 0060 e296 e13f 0000 00c0 5376 de3f
000000c0: 3523 0000 f42c acbf 6304 0040 6027 db3f
000000d0: 0000 0020 7a17 e43f 0000 0040 d90a d43f
000000e0: cbce f9ff 5528 dfbf 6b62 0c80 f435 c6bf
000000f0: 9acf 0300 2104 cd3f cde7 0140 34e2 dfbf
00000100: 0000 00e0 8451 e63f 0000 0080 d228 cf3f
00000110: dd25 ffdf f63f e53f dd25 ff3f 8e0d e4bf
00000120: f841 0020 0c4b e23f b40f 0200 cf78 b1bf
00000130: 4dc5 fd3f a9cf db3f 6275 0400 0535 c33f
00000140: 0000 00e0 8d44 e2bf 0000 0080 96f1 e4bf
00000150: c1de ffff 98fc b1bf acf7 ff3f 11a3 dd3f
00000160: 0000 0080 3a73 dfbf 0000 0080 c3f8 e3bf
00000170: 0000 0000 4bb4 b93f 0000 0040 240e d7bf
00000180: 16f4 ff5f 9b83 d8bf 0efa ff9f 3e77 e33f
00000190: e1f4 ff3f 07f8 ddbf 3416 0000 75c0 c1bf
000001a0: 87c3 03c0 65f0 d43f 93c7 c3ff 0779 9d3f
000001b0: 52f6 ff9f cd3c e1bf ca26 0000 2efd ccbf
000001c0: f145 ddff 1912 ab3f a32b 02e0 c0d8 e23f
000001d0: 9a07 00c0 e3ca ddbf 9a07 00c0 aa28 d83f
000001e0: 0000 0080 5b18 c03f 0000 00c0 ab40 d73f
000001f0: 3ae8 ff7f 95ce c0bf 0efa ff5f 0da3 e53f
00000200: ce00 0000 4dcc c2bf 3100 0060 e45d e43f
00000210: 1512 04a0 9b3d e13f dadb f7bf f9e7 de3f
00000220: a779 f0ff a98b ca3f cf3c f81f 27c0 d7bf
00000230: 0000 00a0 5fc1 e2bf 0000 0000 9c3d adbf
00000240: 2125 ff5f 144d e13f 2125 ff9f 9399 e6bf
00000250: b0d3 ffff b06c b6bf b0d3 ffff aef5 b83f
00000260: 665c fcff fae5 c4bf ced1 0100 89f8 d7bf
00000270: 0000 0000 5a95 e2bf 0000 0060 082b d9bf
00000280: 39e2 ffff ff7f b9bf 47fc ffdf 332d e43f
00000290: bcdf 0060 b20f e63f 77bf 0160 ce21 d6bf
000002a0: 6303 0020 d488 d6bf 6303 00c0 a133 da3f
000002b0: 0000 0000 8083 4a3f 0000 0040 117a d73f
000002c0: 1ead 0b80 b3d6 c83f 1ead 0b00 ab79 c9bf
000002d0: 9fb1 f7ff 3da9 ab3f 34f6 fe5f 4e2e dbbf
000002e0: 12b8 0800 982e c13f 0d5c 0420 68ad d4bf
000002f0: d102 0000 4061 cabf af00 0020 eb7a e53f
00000300: f83c fe7f a5e4 ce3f f83c feff 4e9e c2bf
00000310: 8dcc fc7f a71a cdbf e0cc 00c0 062e e6bf
00000320: 79c6 fb9f 0c33 e43f ff8c f75f 2797 d0bf
00000330: 7e01 0020 8600 e1bf fe05 0080 780e c13f
00000340: a882 0d80 8eb8 c43f 51c1 0640 20f5 dabf
00000350: 8877 fd3f 9422 d73f 3c44 01e0 743d e13f
00000360: 8b11 0000 0e12 cc3f 39f7 ffbf b0de d73f
00000370: 07a9 fe5f 3dbe e53f e221 d5ff b3fc 98bf
00000380: cf04 00c0 2387 e5bf acec ffbf 505e ccbf
00000390: 0000 0080 1f42 cfbf 0000 0020 9224 d4bf
000003a0: 5959 1000 4bfb b4bf d8f4 fdbf 5902 e0bf
000003b0: abdc fcbf 870a d93f 78e5 e6ff 6b39 a6bf
000003c0: 99ff ff5f 68d9 e4bf 4afe ffff 16bf c63f
000003d0: 5db0 0220 da91 e23f 409f fabf 2d59 d33f
000003e0: 0000 00a0 f518 e13f 0000 0040 bee8 db3f
000003f0: 4ff3 ff3f cafc cdbf d3fc ffdf 85f3 e13f
00000400: 59fd ff7f f26c e0bf 4df5 ffff e375 c13f
00000410: 413a 1600 e06a b9bf b638 fd3f e885 e0bf
00000420: d6e4 faff 07b1 b83f a05c ffdf 7776 e3bf
00000430: b3e9 08c0 c23a d33f b3e9 08a0 9b5a dabf
00000440: 0000 0000 10e2 aebf 0000 00c0 aa35 d43f
00000450: c222 0700 4f70 d03f 8745 0e80 7cc0 cabf
00000460: 0d08 00c0 78f3 d1bf 0d08 0040 8089 d73f
00000470: 5c22 ff9f 58e7 e13f 1ced 0600 df8a bd3f
00000480: f9f6 ffbf f7ef dfbf f9f6 ff3f d6ed d03f
00000490: eafe ffdf 8b59 d2bf eafe ff3f 51b0 de3f
000004a0: f69a 0100 30f2 ca3f 0a65 fe7f 18e2 cf3f
000004b0: cb14 0000 24d4 97bf a400 00a0 8aa1 e53f
000004c0: fffa ffff ce31 d6bf fffa ffbf 4f20 d33f
000004d0: 5a6b 0000 0a1a a23f 4df9 ff1f a32a e53f
000004e0: 871b 0640 ec49 da3f c30d 0380 7921 e5bf
000004f0: 2df7 ff7f 3fc0 d7bf 58ee ff7f 5693 cd3f
00000500: 6a05 0000 d5cf e0bf da0a 0040 e868 dc3f
00000510: e733 ffff ab61 993f 6106 0060 4566 e03f
00000520: 0000 00c0 1618 dabf 0000 0000 6420 97bf
00000530: edc9 0320 305a e0bf 1336 fcff e080 e0bf
00000540: 6006 0040 2e9a d73f d3fc ff9f afbd e33f
00000550: 3405 0080 761b c8bf ccfa ff7f 17ae c4bf
00000560: 68c7 0500 f2e9 c4bf 3b71 f4ff 2b88 bdbf
00000570: 0000 0060 9caf d9bf 0000 00a0 6024 d5bf
00000580: 0000 0000 88df a33f 0000 0000 c032 86bf
00000590: 1eca fe9f 7091 e03f e235 0120 a19d e53f
000005a0: 0000 0080 4c0d cbbf 0000 0000 28dd a73f
000005b0: b88d fb3f 4c31 df3f d9c6 fd7f c1ec e3bf
000005c0: 5df9 ff5f 72bf dbbf 71e5 ffff d45f bf3f
000005d0: 7a02 0060 4f26 dcbf d04f 0000 0878 8c3f
000005e0: d766 02c0 b5b8 de3f 2999 fdbf cd0a d73f
000005f0: 6c12 0000 fbfd cdbf 9b04 00a0 7625 e53f
00000600: de2a 1200 bfd3 b0bf 435c 4502 80bd 683f
00000610: 0d43 0000 f0f8 ad3f 9df7 ffbf fa45 d53f
00000620: 0000 0000 fa18 b73f 0000 00c0 61aa db3f
00000630: 4301 f7ff 433f c1bf b33f 0280 af05 e3bf
00000640: f6f4 0f00 f428 a13f c002 fc7f b107 c73f
00000650: 0000 0040 8115 d83f 0000 00c0 02ad d33f
00000660: c28c 05c0 d15e d13f 1a33 1600 d45e b0bf
00000670: 37fe ff7f f504 d3bf 60fc ff7f 977b c73f
00000680: 8e0f 0120 c637 e23f eae0 fdff e83a d13f
00000690: 3317 03a0 e0ba e13f 3317 0300 8154 e0bf
000006a0: ccfa 0b00 e85c 9f3f a8bf 0040 2e56 ddbf
000006b0: 291d 0000 1d58 bf3f 5afc ff5f 8d01 e43f
000006c0: 0000 00c0 2141 d23f 0000 0040 8d4e d93f
000006d0: c688 fb7f 290c c63f bcb9 2300 286e 953f
000006e0: 0000 00c0 d233 cdbf 0000 0000 3738 b03f
000006f0: 0000 0000 0e3e babf 0000 0000 7374 c9bf
00000700: 670a 0060 41ab dfbf d114 0080 b47b cf3f
00000710: 672c ffff cda1 a8bf 741a 00a0 4276 d7bf
00000720: 82f5 ffff 8b73 bcbf 60fd ffbf 3b36 d53f
00000730: 91b7 fbbf 1e8e dd3f 6f48 0440 e1a8 d93f
00000740: 0000 00a0 b78f e23f 0000 00e0 02d5 e33f
00000750: 6b04 00e0 6e66 e23f 23f7 ffbf cd28 db3f
00000760: 2c02 0060 c793 e3bf 24dd ffff 210e adbf
00000770: b03a f83f 503d d23f a18a 0f80 0bbb c63f
00000780: 424b ffbf fdbd de3f 9fa5 ff3f 7311 e0bf
00000790: cbb1 fcbf 226e dd3f 779c 0680 294d c93f
000007a0: 7a24 0240 86f6 d93f c8ed fe9f f633 e23f
000007b0: 4ef4 fe3f edc1 d93f 4ef4 fe5f 627b d3bf
000007c0: 0000 0000 dd0f d1bf 0000 0000 8fb8 bdbf
000007d0: 4800 0080 8acb e1bf 2401 0000 2bf4 cf3f
000007e0: fa29 0300 9903 c13f 7dca 0020 c584 e3bf
000007f0: 3b3f 0600 84d1 c3bf 3570 fe3f d095 e0bf
