Transformer-Time-Series-Forecasting-main/save_model/best_train_2.pth (torch, 259059 bytes, 38 tensors)

encoder_layer.self_attn.in_proj_weight f8 [6, 2]
0	0xbfc7769200000000	-0.18330597877502441
1	0xbfe1fb8bc0000000	-0.5619562864303589
2	0x3fe3cceaa0000000	0.6187642216682434
3	0x3fb0713a00000000	0.06422770023345947
4	0x3fe00e4020000000	0.5017395615577698
5	0x3fce27e180000000	0.2355920672416687
6	0x3fd635fc40000000	0.34704500436782837
7	0x3fe13f59a0000000	0.538983166217804
8	0x3fda61ecc0000000	0.4122268557548523
9	0xbfdda00880000000	-0.46289265155792236
10	0xbfa6441600000000	-0.04348820447921753
11	0x3fd5512240000000	0.33307701349258423

encoder_layer.self_attn.in_proj_bias f8 [6]
0	0x0000000000000000	0.0
1	0x0000000000000000	0.0
2	0x0000000000000000	0.0
3	0x0000000000000000	0.0
4	0x0000000000000000	0.0
5	0x0000000000000000	0.0

encoder_layer.self_attn.out_proj.weight f8 [2, 2]
0	0x3fe6944e60000000	0.7056037783622742
1	0xbfc498ae80000000	-0.1609094738960266
2	0x3fd8d75940000000	0.3881438374519348
3	0x3f994da000000000	0.02471017837524414

encoder_layer.self_attn.out_proj.bias f8 [2]
0	0x0000000000000000	0.0
1	0x0000000000000000	0.0

encoder_layer.linear1.weight f8 [2048, 2]
0	0xbfcf78d480000000	-0.24587494134902954
1	0xbfe1b2ab40000000	-0.5530601739883423
2	0xbfddcda620000000	-0.46567681431770325
3	0xbfd1d6cca0000000	-0.27873530983924866
4	0x3f8f644800000000	0.015327990055084229
5	0x3fe54b9320000000	0.6654754281044006
6	0xbfb6da0700000000	-0.08926433324813843
7	0xbfc6234300000000	-0.1729511022567749
8	0x3fd9a2d5c0000000	0.40056365728378296
9	0xbfd6493cc0000000	-0.3482200503349304
10	0xbfdbf5f040000000	-0.43688589334487915
11	0x3fd5b8b2c0000000	0.3393980860710144
12	0x3fe36a90e0000000	0.6067585349082947
13	0x3fb1b77b00000000	0.06920593976974487
14	0x3fe3c8ef60000000	0.6182782053947449
15	0x3fc4ea6e80000000	0.16340428590774536
16	0xbfe1908ae0000000	-0.5488943457603455
17	0xbfdf5a7300000000	-0.4898955821990967
18	0xbfd7eb67c0000000	-0.3737429976463318
19	0x3fbf9a3b00000000	0.12344712018966675
20	0xbfe6552a80000000	-0.6978962421417236
21	0x3fc1a3c500000000	0.1378103494644165
22	0x3fad4d2800000000	0.05722928047180176
23	0x3fe0ffcf60000000	0.5312268137931824
24	0x3f6cc2a000000000	0.003510773181915283
25	0xbfdc1266a0000000	-0.4386231005191803
26	0xbfc8e3be80000000	-0.19445019960403442
27	0xbfb7eb2b00000000	-0.09343212842941284
28	0xbfe3f05b80000000	-0.6230905055999756
29	0x3fc1ca5080000000	0.13898664712905884
30	0xbfcb837480000000	-0.21494919061660767
31	0xbfdf827000000000	-0.4923362731933594
32	0xbfdc7c0ee0000000	-0.44507190585136414
33	0x3fd5e49540000000	0.3420765995979309
34	0xbfb7903c00000000	-0.09204459190368652
35	0x3fe6219e60000000	0.6916038393974304
36	0x3fdd7d6fc0000000	0.4607810378074646
37	0x3fdeca6ac0000000	0.4811045527458191
38	0xbfe2f66aa0000000	-0.5925801396369934
39	0xbfdc25c520000000	-0.4398052990436554
40	0xbfce5c38c0000000	-0.237189382314682
41	0xbfe0f39a40000000	-0.5297366380691528
42	0xbfe4302be0000000	-0.6308802962303162
43	0xbfcc5f8f80000000	-0.22166627645492554
44	0xbfe1850a80000000	-0.5474903583526611
45	0x3fdc3b5e40000000	0.4411235451698303
46	0xbfb8d77a00000000	-0.0970379114151001
47	0x3fcd6ae580000000	0.2298247218132019
48	0x3fcf4a3300000000	0.2444518804550171
49	0xbfd0cc8720000000	-0.2624833881855011
50	0xbfe29e6340000000	-0.5818344354629517
51	0x3fe3019b20000000	0.5939460396766663
52	0x3fe35a77e0000000	0.6047934889793396
53	0x3fe142cba0000000	0.5394037365913391
54	0x3fd9c63dc0000000	0.4027246832847595
55	0x3fc3205100000000	0.1494237184524536
56	0x3fe4cfa5a0000000	0.6503475308418274
57	0xbfa5cfd000000000	-0.04260110855102539
58	0x3fdd8833c0000000	0.4614381194114685
59	0xbfccffbec0000000	-0.2265547215938568
60	0x3fc1637580000000	0.13584774732589722
61	0x3fcba9fa80000000	0.21612483263015747
62	0xbfc6051180000000	-0.17202967405319214
63	0xbfdbb5ca00000000	-0.4329705238342285
64	0xbfdc735900000000	-0.44454026222229004
65	0x3fd4f5d440000000	0.3275042176246643
66	0xbfb1b67a00000000	-0.0691906213760376
67	0xbfddcdc580000000	-0.46568429470062256
68	0x3fb09ef700000000	0.06492561101913452
69	0xbfc5e70100000000	-0.17111217975616455
70	0x3fd36acf40000000	0.3033941388130188
71	0xbfe507e860000000	-0.6572152972221375
72	0x3fe4f5e920000000	0.6550183892250061
73	0x3f7d551000000000	0.007161200046539307
74	0xbfdfcd7ac0000000	-0.4969164729118347
75	0x3fe1feb4a0000000	0.5623419880867004
76	0xbfe3e8b660000000	-0.6221572756767273
77	0x3fe1fc9ce0000000	0.5620865225791931
78	0xbfc30c2200000000	-0.14880776405334473
79	0xbfe32f4900000000	-0.5995221138000488
80	0x3fde830fc0000000	0.47674936056137085
81	0xbfe5a4fe00000000	-0.6763906478881836
82	0x3fbe37c000000000	0.11803817749023438
83	0xbfbb5bba00000000	-0.10686838626861572
84	0x3fd65e0ac0000000	0.34948986768722534
85	0xbfe19f25e0000000	-0.5506772398948669
86	0x3fc8b4cc80000000	0.19301754236221313
87	0xbfdcdc5d20000000	-0.45094993710517883
88	0x3fe58dcd20000000	0.6735597252845764
89	0xbfd8e93700000000	-0.3892343044281006
90	0x3fd07005c0000000	0.25683730840682983
91	0xbfd14ae0c0000000	-0.2701951861381531
92	0x3fd2b2b540000000	0.29215747117996216
93	0x3fe08ae3e0000000	0.5169543623924255
94	0x3fe45eb6e0000000	0.6365618109703064
95	0x3fc55b6400000000	0.16685152053833008
96	0x3fe38feba0000000	0.6113184094429016
97	0xbfa60ca000000000	-0.04306507110595703
98	0xbfda0a50c0000000	-0.40687960386276245
99	0x3fdf6b34c0000000	0.4909183382987976
100	0xbfe2e0c040000000	-0.5899354219436646
101	0xbfcf48a7c0000000	-0.24440476298332214
102	0xbfd7fb98c0000000	-0.37473124265670776
103	0x3fd8179bc0000000	0.37644094228744507
104	0x3fd3af4c40000000	0.3075743317604065
105	0xbfd62cd8c0000000	-0.34648722410202026
106	0xbfe176d440000000	-0.5457555055618286
107	0xbfe33a3440000000	-0.6008549928665161
108	0xbf9ea1f400000000	-0.029914677143096924
109	0xbfcca73a40000000	-0.22385337948799133
110	0xbfc15e2b00000000	-0.13568627834320068
111	0xbfd0697180000000	-0.256435751914978
112	0x3fe5e59160000000	0.6842734217643738
113	0xbfe1548e40000000	-0.5415717363357544
114	0x3fd7457540000000	0.36361438035964966
115	0x3fd177d140000000	0.272938072681427
116	0x3fa887bc00000000	0.04791057109832764
117	0x3fdd3dc840000000	0.4568958878517151
118	0x3fdcae6d40000000	0.44814616441726685
119	0x3fdc01cb40000000	0.4376094937324524
120	0x3fe0775ce0000000	0.5145706534385681
121	0x3fd9f88440000000	0.4057932496070862
122	0x3fdd5d1f40000000	0.4588087201118469
123	0x3fe3c2dde0000000	0.6175374388694763
124	0xbfe1631680000000	-0.5433456897735596
125	0x3fe5546b60000000	0.6665551066398621
126	0xbfe35f1ee0000000	-0.6053614020347595
127	0x3fc50d3a80000000	0.16446620225906372
128	0x3f982b6c00000000	0.02360314130783081
129	0x3fe4bbfe60000000	0.6479484438896179
130	0x3fd3089ac0000000	0.29740017652511597
131	0xbfdda14de0000000	-0.46297022700309753
132	0x3fd222d300000000	0.28337550163269043
133	0xbfd124c960000000	-0.2678702771663666
134	0x3fc08b2a00000000	0.12924695014953613
135	0x3fce872900000000	0.23849976062774658
136	0x3fd04c6dc0000000	0.2546648383140564
137	0xbfe272e480000000	-0.5765249729156494
138	0x3fcb2f1880000000	0.212374746799469
139	0xbfba680d00000000	-0.10315018892288208
140	0xbfd4074b20000000	-0.312945157289505
141	0xbfe2d4f0c0000000	-0.5884937047958374
142	0x3fdc2bd840000000	0.4401760697364807
143	0xbfab542e00000000	-0.053376615047454834
144	0xbf9cfc7000000000	-0.02830672264099121
145	0xbfad4a4200000000	-0.05720716714859009
146	0x3fcb5ee980000000	0.2138339877128601
147	0x3fe429e9e0000000	0.6301164031028748
148	0x3fd7c50740000000	0.3714006543159485
149	0xbfb77dfa00000000	-0.09176599979400635
150	0xbfc1a79e80000000	-0.1379278302192688
151	0x3fc3ab2f80000000	0.15366166830062866
152	0xbfb8d88c00000000	-0.09705424308776855
153	0xbfdff6b120000000	-0.49943187832832336
154	0x3fe3e007e0000000	0.6210975050926208
155	0x3fc5ea1e80000000	0.1712072491645813
156	0xbfd4c1a300000000	-0.32431864738464355
157	0xbfd75b6760000000	-0.3649538457393646
158	0x3fbc151b00000000	0.10969704389572144
159	0x3fe06bd4e0000000	0.5131630301475525
160	0x3fd97ea7c0000000	0.3983554244041443
161	0xbfd523d3a0000000	-0.33031168580055237
162	0x3fe40ce720000000	0.6265750527381897
163	0x3fdd562fc0000000	0.4583854079246521
164	0xbfe1f7fa00000000	-0.5615205764770508
165	0x3fdaf8d5c0000000	0.42143768072128296
166	0x3fccd07800000000	0.2251119613647461
167	0x3fe36dfca0000000	0.6071761250495911
168	0xbfd21bcb20000000	-0.28294637799263
169	0xbfd66ff380000000	-0.35058295726776123
170	0x3fdd4493c0000000	0.45731061697006226
171	0x3fc482d380000000	0.16024249792099
172	0xbfd3fd53e0000000	-0.31233689188957214
173	0x3fc5a7ae80000000	0.1691797375679016
174	0x3fd453ccc0000000	0.31761473417282104
175	0x3f875be800000000	0.011405766010284424
176	0xbfb3e54200000000	-0.07771694660186768
177	0xbfcb441280000000	-0.2130149006843567
178	0xbfe5845e80000000	-0.6724083423614502
179	0x3fe1bc5ea0000000	0.554244339466095
180	0xbfd600ef20000000	-0.34380701184272766
181	0x3fe272d560000000	0.5765177607536316
182	0xbfbcc49700000000	-0.11237472295761108
183	0x3fd412d2c0000000	0.31364887952804565
184	0x3fde7f9ac0000000	0.47653836011886597
185	0xbfcdf4c7c0000000	-0.23403260111808777
186	0x3fdb2e9840000000	0.4247189164161682
187	0xbfe490e040000000	-0.642685055732727
188	0xbfc6e38880000000	-0.17881876230239868
189	0xbfd7882800000000	-0.36768531799316406
190	0xbfd991ecc0000000	-0.3995315432548523
191	0x3fe27b75e0000000	0.5775708556175232
192	0xbfcbd11a80000000	-0.2173188328742981
193	0x3fd91378c0000000	0.3918134570121765
194	0x3fbc128d00000000	0.10965806245803833
195	0x3fc9189680000000	0.1960628628730774
196	0xbfe2a9fcc0000000	-0.5832504034042358
197	0x3fb3b6c000000000	0.07700729370117188
198	0x3f12300000000000	6.937980651855469e-05
199	0xbfb6b34500000000	-0.088672935962677
200	0xbfe67e1160000000	-0.7028891444206238
201	0xbfd560b100000000	-0.334026575088501
202	0x3fe660b920000000	0.6993070244789124
203	0xbfda8c22c0000000	-0.4148032069206238
204	0xbfe103a780000000	-0.531696081161499
205	0xbfe0cfc4a0000000	-0.5253623127937317
206	0x3fd4dec240000000	0.3260961174964905
207	0x3fe232c0a0000000	0.5686953663825989
208	0xbfa972c600000000	-0.049703776836395264
209	0xbfe57f6ac0000000	-0.6718038320541382
210	0x3fe1efc420000000	0.5605183243751526
211	0x3fe1f48ca0000000	0.5611022114753723
212	0xbfe0b837e0000000	-0.5224875807762146
213	0xbfb3f46000000000	-0.07794761657714844
214	0x3fd95bd2c0000000	0.39622944593429565
215	0xbfe143c080000000	-0.5395205020904541
216	0xbfb2311b00000000	-0.07106178998947144
217	0xbfe38f5da0000000	-0.6112506985664368
218	0x3fb3726100000000	0.07596403360366821
219	0xbfd058e2c0000000	-0.2554251551628113
220	0x3fe1bc1a20000000	0.5542116761207581
221	0x3fb1fa0e00000000	0.07022178173065186
222	0xbfb0a14f00000000	-0.06496137380599976
223	0x3fe1b935a0000000	0.5538585782051086
224	0x3fc6a6a680000000	0.1769607663154602
225	0xbfa9f75800000000	-0.05071520805358887
226	0xbfdd45bb40000000	-0.45738106966018677
227	0x3fb42a6d00000000	0.07877236604690552
228	0xbfe077c2c0000000	-0.5146192312240601
229	0x3fd83d2540000000	0.37873202562332153
230	0x3fe5f402a0000000	0.6860364079475403
231	0x3fcbd6b400000000	0.21748971939086914
232	0x3fc730db80000000	0.1811785101890564
233	0x3fcfdfd680000000	0.24901849031448364
234	0x3fabeeae00000000	0.05455535650253296
235	0x3fcd737580000000	0.23008602857589722
236	0xbfa4ee9a00000000	-0.040882885456085205
237	0xbfdb3bb920000000	-0.4255202114582062
238	0x3fd1cbadc0000000	0.2780565619468689
239	0x3fc3df3880000000	0.15524965524673462
240	0xbfe00559c0000000	-0.5006531476974487
241	0x3fddc3c4c0000000	0.46507376432418823
242	0xbfd6076720000000	-0.34420183300971985
243	0xbfd4c0ef60000000	-0.32427582144737244
244	0x3fc994cc00000000	0.19985342025756836
245	0xbfc3c77500000000	-0.15452444553375244
246	0x3fe34e1060000000	0.6032792925834656
247	0xbfe506c360000000	-0.6570755839347839
248	0xbfd4b84a20000000	-0.3237481415271759
249	0xbfd70e9060000000	-0.3602639138698578
250	0xbfd1cde820000000	-0.27819254994392395
251	0xbf7b1be000000000	-0.006618380546569824
252	0xbfd95b1e00000000	-0.39618635177612305
253	0xbfdfeea940000000	-0.49894171953201294
254	0xbfb5bc4900000000	-0.0849042534828186
255	0x3fc6510700000000	0.17434775829315186

encoder_layer.linear1.bias f8 [2048]
0	0x3fe331b020000000	0.5998154282569885
1	0xbfe3cad1e0000000	-0.6185082793235779
2	0x3fb2149800000000	0.07062673568725586
3	0x3fe08fbc20000000	0.517545759677887
4	0x3fe64b2f20000000	0.6966777443885803
5	0x3fe339d020000000	0.600807249546051
6	0x3fcde04280000000	0.23340636491775513
7	0x3fe07dbce0000000	0.5153488516807556
8	0x3fa4ff7e00000000	0.0410117506980896
9	0xbfe097ae20000000	-0.5185156464576721
10	0x3fd0e2a340000000	0.26383286714553833
11	0xbfe49d6640000000	-0.6442137956619263
12	0x3fe053b4e0000000	0.51021808385849
13	0xbfb8909e00000000	-0.09595668315887451
14	0x3fdfa08f40000000	0.4941747784614563
15	0xbfe675e200000000	-0.7018899917602539
16	0xbfe5afba60000000	-0.6777011752128601
17	0x3fb5340100000000	0.08282476663589478
18	0x3fb1edbe00000000	0.07003390789031982
19	0xbfd59be800000000	-0.33764076232910156
20	0x3fd7de4a40000000	0.3729425072669983
21	0xbfc87df580000000	-0.19134396314620972
22	0x3fd84d19c0000000	0.37970584630966187
23	0xbfdf7a7760000000	-0.49184975028038025
24	0x3fd275f1c0000000	0.2884487509727478
25	0x3fe1b560e0000000	0.5533909201622009
26	0x3fd9aa9540000000	0.4010365605354309
27	0x3fdca8c0c0000000	0.4477998614311218
28	0x3fe3fb6ae0000000	0.624440610408783
29	0xbfe0d8e760000000	-0.5264775156974792
30	0x3fc5590800000000	0.1667795181274414
31	0x3fe33c9620000000	0.6011458039283752
32	0xbfe494ce20000000	-0.6431646943092346
33	0x3fdef6fa40000000	0.48382431268692017
34	0x3fe6672660000000	0.700091540813446
35	0xbfccdaf580000000	-0.22543209791183472
36	0x3fc1967780000000	0.13740438222885132
37	0xbfdb8665c0000000	-0.4300779700279236
38	0xbfe2daf460000000	-0.5892278552055359
39	0x3fb21ef900000000	0.07078510522842407
40	0x3fc2f0e280000000	0.14797621965408325
41	0x3fe13f7160000000	0.5389944911003113
42	0x3fe25ab2a0000000	0.573571503162384
43	0x3fd9fd8540000000	0.4060986638069153
44	0xbfe4eb50e0000000	-0.6537250876426697
45	0xbfc3715480000000	-0.15189605951309204
46	0xbfbc8c5200000000	-0.11151611804962158
47	0xbfcb0d79c0000000	-0.2113487422466278
48	0xbf8ad2a800000000	-0.013097107410430908
49	0x3fe5e29ca0000000	0.6839125752449036
50	0x3fdf20f840000000	0.48638731241226196
51	0x3fe0657ee0000000	0.512389600276947
52	0x3fd504f5c0000000	0.3284277319908142
53	0x3fe1bfa1a0000000	0.5546424984931946
54	0x3fce984700000000	0.2390221357345581
55	0xbfe4175cc0000000	-0.6278518438339233
56	0x3f8d627800000000	0.014347970485687256
57	0xbfd0db2140000000	-0.2633746266365051
58	0xbfd9122540000000	-0.39173251390457153
59	0xbfde878b20000000	-0.4770229160785675
60	0xbfe262f360000000	-0.5745789408683777
61	0xbfd755fee0000000	-0.3646237552165985
62	0x3fd0c9cc40000000	0.2623167634010315
63	0xbfdd53c880000000	-0.45823872089385986
64	0x3fdb703fc0000000	0.4287261366844177
65	0xbfe4d2f240000000	-0.6507502794265747
66	0xbfd5c69520000000	-0.3402455151081085
67	0x3fd4058fc0000000	0.31283944845199585
68	0x3fdf985ec0000000	0.4936749339103699
69	0x3fb4273a00000000	0.07872354984283447
70	0x3fdf817040000000	0.49227529764175415
71	0xbfd68a97e0000000	-0.35220906138420105
72	0xbfcfd20640000000	-0.2485969364643097
73	0x3fe38aa3a0000000	0.610673725605011
74	0x3fa8ff1600000000	0.04882115125656128
75	0xbfb2028c00000000	-0.07035136222839355
76	0xbfd4935080000000	-0.3214913606643677
77	0xbfb7a90500000000	-0.09242278337478638
78	0xbfe3abb120000000	-0.6147084832191467
79	0xbfc802ca80000000	-0.18758517503738403
80	0x3fe39132e0000000	0.6114744544029236
81	0xbfdc4471a0000000	-0.4416774809360504
82	0xbfc3248d00000000	-0.14955294132232666
83	0x3fd8cba5c0000000	0.3874296545982361
84	0xbfd21efc80000000	-0.28314125537872314
85	0xbfe3cfe500000000	-0.6191277503967285
86	0xbfdfe72c40000000	-0.49848467111587524
87	0x3fd3040d40000000	0.2971222996711731
88	0xbfdd582500000000	-0.45850491523742676
89	0xbfd84e1c20000000	-0.37976744771003723
90	0x3fd72589c0000000	0.36166614294052124
91	0xbfc31ef780000000	-0.14938253164291382
92	0xbfc2327680000000	-0.14216500520706177
93	0xbfd43a4520000000	-0.3160565197467804
94	0xbfc05a5c80000000	-0.12775760889053345
95	0x3fd629ee40000000	0.34630924463272095
96	0xbf9e9e3800000000	-0.029900431632995605
97	0xbfd3fa67c0000000	-0.3121585249900818
98	0x3fd95478c0000000	0.3957807421684265
99	0x3fdb06b3c0000000	0.4222840666770935
100	0x3fd6e1c8c0000000	0.35753077268600464
101	0x3fd9dde8c0000000	0.4041692614555359
102	0xbfe2890fe0000000	-0.5792312026023865
103	0x3fb9bf1300000000	0.10057181119918823
104	0xbfa4c78200000000	-0.04058462381362915
105	0xbfd6abb620000000	-0.35423043370246887
106	0x3fc1f58000000000	0.1403045654296875
107	0xbfd81bb5a0000000	-0.3766912519931793
108	0xbfe66f5840000000	-0.7010918855667114
109	0xbfdd95e900000000	-0.46227478981018066
110	0x3fac603800000000	0.05542159080505371
111	0x3fb1fe2900000000	0.07028442621231079
112	0x3fe39f41a0000000	0.6131904721260071
113	0xbfe450ad00000000	-0.6348481178283691
114	0xbfe62d0620000000	-0.692996084690094
115	0xbfc574a800000000	-0.16762256622314453
116	0x3fcbf73980000000	0.21848219633102417
117	0x3fd485b9c0000000	0.3206619620323181
118	0xbfe49dea20000000	-0.6442766785621643
119	0xbfb8093e00000000	-0.09389102458953857
120	0xbfd2b894a0000000	-0.29251590371131897
121	0x3f91ceac00000000	0.017389953136444092
122	0x3fe2118ce0000000	0.5646423697471619
123	0x3fd4a89c40000000	0.3227911591529846
124	0x3fd073fe40000000	0.2570796608924866
125	0xbfe5cb2ba0000000	-0.6810510754585266
126	0x3f99a41800000000	0.025040030479431152
127	0xbfb8338000000000	-0.09453582763671875
128	0xbfe136a100000000	-0.5379185676574707
129	0x3fd53dfac0000000	0.3319079279899597
130	0xbfded04800000000	-0.4814624786376953
131	0xbfe4807040000000	-0.6406785249710083
132	0x3fe5e228a0000000	0.683857262134552
133	0x3fa64a3000000000	0.04353475570678711
134	0x3fd8cb9440000000	0.3874254822731018
135	0xbf8eb64800000000	-0.014996111392974854
136	0x3fd6a0c8c0000000	0.35356348752975464
137	0x3fdc282e40000000	0.43995243310928345
138	0xbfd1353fc0000000	-0.2688750624656677
139	0xbfe617ada0000000	-0.690390408039093
140	0x3fd0a391c0000000	0.25998347997665405
141	0xbfd2b5ae80000000	-0.2923389673233032
142	0xbfb370e600000000	-0.07594144344329834
143	0xbf9ab7f000000000	-0.0260922908782959
144	0xbfe5c74500000000	-0.680574893951416
145	0x3fba9dd700000000	0.10397094488143921
146	0x3fd4d6dfc0000000	0.325614869594574
147	0x3fc8a07400000000	0.1923966407775879
148	0xbfcb31d1c0000000	-0.21245786547660828
149	0xbfd81ede20000000	-0.37688401341438293
150	0xbfd15dc0c0000000	-0.2713472247123718
151	0xbfd58aaae0000000	-0.336588591337204
152	0x3fd7384f40000000	0.3628118634223938
153	0xbfe55b1c00000000	-0.6673717498779297
154	0xbfd8276fa0000000	-0.3774069845676422
155	0xbfe152e480000000	-0.5413687229156494
156	0x3fc4e72000000000	0.16330337524414062
157	0x3f734c9000000000	0.0047116875648498535
158	0xbfd54b4500000000	-0.332719087600708
159	0x3fe04dbaa0000000	0.5094884037971497
160	0xbfe4a28fe0000000	-0.6448439955711365
161	0xbfe4db02a0000000	-0.6517346501350403
162	0x3fdc64c6c0000000	0.44365090131759644
163	0xbfd6392c80000000	-0.34723961353302
164	0xbfe64429e0000000	-0.6958207488059998
165	0x3fe20302a0000000	0.5628674626350403
166	0xbfe1fda200000000	-0.5622110366821289
167	0x3fb5a52300000000	0.08455103635787964
168	0xbfe1f0b2c0000000	-0.5606321096420288
169	0x3fc2078280000000	0.14085417985916138
170	0xbf99dc1000000000	-0.0252535343170166
171	0xbfdbb73b80000000	-0.43305861949920654
172	0x3fce4a3880000000	0.23664003610610962
173	0x3fb0c8ec00000000	0.06556582450866699
174	0x3fe307eb20000000	0.5947166085243225
175	0x3fd5c1c5c0000000	0.33995193243026733
176	0x3f8b3c0800000000	0.013298094272613525
177	0xbfe655da00000000	-0.6979799270629883
178	0xbfc6b74d00000000	-0.1774688959121704
179	0xbf98ff7800000000	-0.024412035942077637
180	0xbfa406f400000000	-0.0391155481338501
181	0xbfdcd2e760000000	-0.4503725469112396
182	0xbfcc5d8a00000000	-0.221604585647583
183	0x3fdb63d440000000	0.4279680848121643
184	0xbfe61eefc0000000	-0.6912764310836792
185	0x3fd05a4740000000	0.255510151386261
186	0x3fdba7c540000000	0.4321148991584778
187	0xbfe562b760000000	-0.6683003306388855
188	0x3fd2784f00000000	0.288593053817749
189	0xbfe2774ec0000000	-0.5770639181137085
190	0xbfc5d0d780000000	-0.1704358458518982
191	0xbfe679e080000000	-0.7023775577545166
192	0xbfdbe1d6e0000000	-0.43565914034843445
193	0xbfd8c4aa40000000	-0.38700348138809204
194	0xbfd6311340000000	-0.3467453122138977
195	0xbfcf121b00000000	-0.24274003505706787
196	0xbfdf91c3c0000000	-0.49327176809310913
197	0x3fb464d100000000	0.07966333627700806
198	0xbfcd249900000000	-0.22767937183380127
199	0xbfd8fe1ae0000000	-0.39050933718681335
200	0xbfe53b2900000000	-0.6634716987609863
201	0x3f90649c00000000	0.01600879430770874
202	0xbfe2f740e0000000	-0.5926823019981384
203	0xbfd55fbe20000000	-0.3339686691761017
204	0xbfe5dc06a0000000	-0.6831086277961731
205	0xbfdb018340000000	-0.4219673275947571
206	0xbfd5df1200000000	-0.34174013137817383
207	0x3fe54c8060000000	0.6655885577201843
208	0x3fd56b7040000000	0.33468252420425415
209	0xbfc218dc80000000	-0.14138370752334595
210	0x3faebf8400000000	0.060054898262023926
211	0xbfd6858880000000	-0.35190021991729736
212	0x3fc00e8900000000	0.12544357776641846
213	0x3fac390e00000000	0.05512279272079468
214	0x3fc35c2800000000	0.15124988555908203
215	0xbfe3dc3fc0000000	-0.6206358671188354
216	0xbfd1b121e0000000	-0.27643629908561707
217	0xbfceb14e80000000	-0.23978596925735474
218	0x3f97710000000000	0.022891998291015625
219	0xbfc5251c00000000	-0.16519498825073242
220	0x3fb2b9d500000000	0.07314807176589966
221	0xbfd45d4f20000000	-0.3181951344013214
222	0xbfd9ba00e0000000	-0.4019777476787567
223	0xbfb83cb400000000	-0.09467625617980957
224	0x3fb8385200000000	0.09460937976837158
225	0x3fbf3b9f00000000	0.12200349569320679
226	0x3fd480e6c0000000	0.3203675150871277
227	0x3fe16996e0000000	0.5441393256187439
228	0xbfa0ce4000000000	-0.03282356262207031
229	0x3fe1ca72a0000000	0.555962860584259
230	0x3fdfff6940000000	0.49996405839920044
231	0xbfe68606e0000000	-0.7038607001304626
232	0x3f9b7eec00000000	0.026851356029510498
233	0x3fd4d91340000000	0.3257492184638977
234	0x3fe27fe720000000	0.5781131386756897
235	0x3fa49a0000000000	0.0402374267578125
236	0x3fb5fccc00000000	0.08588862419128418
237	0x3fc68d1d80000000	0.17618149518966675
238	0xbfe1a1d120000000	-0.5510030388832092
239	0xbfcf150f00000000	-0.24283015727996826
240	0xbfe155cca0000000	-0.5417235493659973
241	0xbfc7e0aa00000000	-0.18654370307922363
242	0xbfdd3d5540000000	-0.4568684697151184
243	0x3fcb9d5480000000	0.21573883295059204
244	0x3fab124a00000000	0.05287390947341919
245	0xbfc2581400000000	-0.14331293106079102
246	0xbfdedc1f80000000	-0.4821852445602417
247	0xbfdec4f480000000	-0.48077118396759033
248	0x3fe0cb7920000000	0.5248380303382874
249	0x3fc4d6ad00000000	0.16280138492584229
250	0x3fe5326fa0000000	0.6624067425727844
251	0x3fcf0ef500000000	0.24264395236968994
252	0xbfd50b9440000000	-0.3288317322731018
253	0x3fa1241200000000	0.03347831964492798
254	0xbfd9e4c780000000	-0.40458858013153076
255	0x3fbd20de00000000	0.11378276348114014

encoder_layer.linear2.weight f8 [2, 2048]
0	0xbf6954e900000000	-0.0030922461301088333
1	0x3f61441000000000	0.0021076500415802
2	0xbf5d63ae00000000	-0.0017937850207090378
3	0x3f5b186800000000	0.0016537681221961975
4	0xbf874ef100000000	-0.011381037533283234
5	0x3f62178600000000	0.002208482474088669
6	0xbf711eb580000000	-0.004179676994681358
7	0x3f635f6a00000000	0.0023648329079151154
8	0xbf526d2400000000	-0.0011246539652347565
9	0x3f93d8e120000000	0.019382016733288765
10	0x3f2b2b6000000000	0.00020728632807731628
11	0xbf909a87a0000000	-0.016214484348893166
12	0x3f840c1940000000	0.009788701310753822
13	0x3f163dc000000000	8.484348654747009e-05
14	0xbf86bf3160000000	-0.01110685896128416
15	0xbf8af9cba0000000	-0.013171759434044361
16	0x3f88d288c0000000	0.012120312079787254
17	0x3f81277d00000000	0.008376099169254303
18	0xbf66ef6500000000	-0.002799699082970619
19	0xbf91df9640000000	-0.01745447888970375
20	0x3f65a7c100000000	0.0026434678584337234
21	0xbf53c47600000000	-0.0012065079063177109
22	0x3f614c7000000000	0.0021116435527801514
23	0xbf82b4b380000000	-0.009133722633123398
24	0xbf614cc500000000	-0.002111801877617836
25	0x3f8a9e5940000000	0.01299733854830265
26	0xbf8c0ebd00000000	-0.013699986040592194
27	0x3f92a592e0000000	0.01820973865687847
28	0xbf83dfe280000000	-0.00970437005162239
29	0x3f7587f280000000	0.005256602540612221
30	0xbf845fad80000000	-0.009948115795850754
31	0xbf937aef40000000	-0.019023645669221878
32	0x3f7af92d00000000	0.006585288792848587
33	0xbf84de17a0000000	-0.010189232416450977
34	0x3f8f16b5c0000000	0.015180034562945366
35	0xbf8b522360000000	-0.013340259902179241
36	0x3f90910320000000	0.016178177669644356
37	0xbf9414c3e0000000	-0.019610462710261345
38	0xbf7fffc140000000	-0.0078122662380337715
39	0xbf965c8320000000	-0.021837281063199043
40	0x3f75dc3f80000000	0.005336998030543327
41	0xbf9058ba80000000	-0.015963472425937653
42	0x3f50631000000000	0.0010001808404922485
43	0x3f92ef45e0000000	0.018490878865122795
44	0x3f8a1a95c0000000	0.012746019288897514
45	0x3f7ad1f880000000	0.006547899916768074
46	0xbf91d12aa0000000	-0.017399469390511513
47	0x3f81ee7f40000000	0.008755678310990334
48	0x3f8305f6c0000000	0.009288718923926353
49	0xbf6febd100000000	-0.0038966257125139236
50	0xbf9230d7a0000000	-0.017764443531632423
51	0xbf8ad23d80000000	-0.013096313923597336
52	0xbf91448c80000000	-0.016863055527210236
53	0xbf8ccb3dc0000000	-0.014059526845812798
54	0x3f93ebff60000000	0.019454946741461754
55	0x3f947bfba0000000	0.020004207268357277
56	0x3f79c8fb80000000	0.006295187398791313
57	0xbf4fd25c00000000	-0.0009711217135190964
58	0x3f73068800000000	0.004644900560379028
59	0xbf81f6c560000000	-0.008771459572017193
60	0xbf60d9e600000000	-0.0020570270717144012
61	0xbf7221de80000000	-0.004426831379532814
62	0x3f35bc3000000000	0.0003316514194011688
63	0xbf9320ede0000000	-0.018680302426218987
64	0x3f55d8b400000000	0.0013334043323993683
65	0xbf80ab9a80000000	-0.008139807730913162
66	0x3f90c72660000000	0.01638469658792019
67	0x3f52183a00000000	0.0011044088751077652
68	0x3f915db4a0000000	0.016959020867943764
69	0x3f81ed7500000000	0.008753694593906403
70	0xbf857d71a0000000	-0.010493171401321888
71	0xbf92240b00000000	-0.017715618014335632
72	0x3f951bed20000000	0.020614342764019966
73	0xbf583ac800000000	-0.0014788582921028137
74	0x3f51d3a200000000	0.0010880548506975174
75	0xbf86558ba0000000	-0.010905352421104908
76	0xbf89a4d7c0000000	-0.012521443888545036
77	0xbf4f1f3c00000000	-0.0009497683495283127
78	0x3f9591c1a0000000	0.021063828840851784
79	0x3f7a866f80000000	0.006475863978266716
80	0xbf94c1f060000000	-0.020271068438887596
81	0x3f805551c0000000	0.007975233718752861
82	0x3f870e0540000000	0.011257210746407509
83	0xbf6a05b800000000	-0.003176555037498474
84	0x3f85aee4c0000000	0.010587489232420921
85	0xbf3d4a9800000000	-0.0004469510167837143
86	0xbf70481b80000000	-0.003975016996264458
87	0xbf6af03400000000	-0.00328836590051651
88	0xbf8f672e60000000	-0.01533352117985487
89	0xbf831ee000000000	-0.009336233139038086
90	0xbf8d091e00000000	-0.01417754590511322
91	0xbf93676540000000	-0.018949110060930252
92	0x3f72b1f980000000	0.0045642610639333725
93	0x3f80313b40000000	0.00790640152990818
94	0xbf87890280000000	-0.011491794139146805
95	0xbf85200740000000	-0.010314995422959328
96	0x3f60a31800000000	0.002030894160270691
97	0xbf921c2400000000	-0.01768547296524048
98	0x3f615fde00000000	0.002120908349752426
99	0x3f95ca08a0000000	0.021278509870171547
100	0x3f7c8a6600000000	0.006967924535274506
101	0x3f85a93a40000000	0.010576682165265083
102	0x3f91eb6c20000000	0.01749962754547596
103	0xbf698e8000000000	-0.0031197071075439453
104	0x3f83e333c0000000	0.009710697457194328
105	0xbf7c913c40000000	-0.006974444724619389
106	0xbf9313d000000000	-0.018630266189575195
107	0xbf8aee4c40000000	-0.01314982958137989
108	0x3f77dc0980000000	0.00582507811486721
109	0xbf928136a0000000	-0.01807103492319584
110	0xbf5c589000000000	-0.0017300993204116821
111	0xbf80eaca40000000	-0.008260326460003853
112	0xbf83e2b0e0000000	-0.009709722362458706
113	0x3f8baaef40000000	0.013509625568985939
114	0xbf9164d9a0000000	-0.01698627509176731
115	0x3f903294a0000000	0.015817949548363686
116	0xbf85925580000000	-0.010533016175031662
117	0xbf940d78c0000000	-0.019582640379667282
118	0x3f78726d00000000	0.005968499928712845
119	0x3f5ab91000000000	0.001631036400794983
120	0xbf8e002400000000	-0.01464870572090149
121	0x3f96981920000000	0.022064583376049995
122	0x3f92998460000000	0.01816374622285366
123	0x3f9295cfa0000000	0.018149608746170998
124	0x3f7d557f80000000	0.007161615416407585
125	0xbf922d2aa0000000	-0.017750421538949013
126	0x3f9457a020000000	0.01986551471054554
127	0x3f95b38520000000	0.021192627027630806
128	0xbf8177e3c0000000	-0.008529452607035637
129	0x3f94644fe0000000	0.01991390995681286
130	0xbf968dff60000000	-0.022026052698493004
131	0x3f918e25a0000000	0.01714381016790867
132	0xbf1d01a000000000	-0.000110650435090065
133	0x3f76dc6180000000	0.005581265315413475
134	0xbf93f17120000000	-0.01947571523487568
135	0xbf81339880000000	-0.008399192243814468
136	0x3f77397200000000	0.005670018494129181
137	0xbf943d2fc0000000	-0.01976465806365013
138	0xbf86ff3860000000	-0.011228981427848339
139	0x3f956a8ea0000000	0.020914295688271523
140	0xbf40427400000000	-0.0004962030798196793
141	0x3f8c4abdc0000000	0.013814432546496391
142	0x3f555a9e00000000	0.0013033431023359299
143	0xbf7599b180000000	-0.005273526534438133
144	0xbf8deda0a0000000	-0.014613394625484943
145	0xbf949b2820000000	-0.020123125985264778
146	0x3f81ab7500000000	0.008627809584140778
147	0xbf956fbbc0000000	-0.02093404158949852
148	0x3f93eadd60000000	0.019450625404715538
149	0xbf459a1000000000	-0.0006592348217964172
150	0xbf52e60e00000000	-0.001153482124209404
151	0xbf7c3ee780000000	-0.006895927712321281
152	0x3f9066ee20000000	0.016017647460103035
153	0xbf8651dae0000000	-0.010898313485085964
154	0xbf78c17400000000	-0.006043866276741028
155	0x3f6ed07900000000	0.003761516883969307
156	0x3f95bb80e0000000	0.021223081275820732
157	0xbf9632a280000000	-0.02167753130197525
158	0xbf88159ec0000000	-0.011759987100958824
159	0xbf83e093a0000000	-0.009705689735710621
160	0xbf866b9e00000000	-0.010947450995445251
161	0xbf6d708700000000	-0.003593696281313896
162	0xbf41976400000000	-0.0005368459969758987
163	0x3f6fd50800000000	0.0038857609033584595
164	0xbf879e9500000000	-0.011532939970493317
165	0xbf8b4da820000000	-0.01333171222358942
166	0x3f86f28f40000000	0.011204833164811134
167	0xbf817107a0000000	-0.008516368456184864
168	0xbf71a36780000000	-0.0043062251061201096
169	0xbf492d9c00000000	-0.0007683765143156052
170	0xbf7657ac80000000	-0.005454706028103828
171	0x3f8b9508c0000000	0.013467853888869286
172	0xbf56c3b200000000	-0.0013894308358430862
173	0xbf7d1ae240000000	-0.0071057165041565895
174	0x3f874f7340000000	0.011382007971405983
175	0xbf878e69e0000000	-0.011502101086080074
176	0xbf79e26900000000	-0.006319437175989151
177	0xbf8923c500000000	-0.012275256216526031
178	0xbf95a58ec0000000	-0.021139364689588547
179	0x3f95446420000000	0.020768703892827034
180	0x3f8a1163c0000000	0.012728480622172356
181	0x3f90f50360000000	0.016559651121497154
182	0xbf7ddf0300000000	-0.007292758673429489
183	0x3f91c962e0000000	0.017369790002703667
184	0x3f3bb22800000000	0.0004226062446832657
185	0xbf921be7e0000000	-0.0176845770329237
186	0xbf95f36d80000000	-0.0214364156126976
187	0x3f7a9cd600000000	0.006497226655483246
188	0xbf9324fc00000000	-0.01869577169418335
189	0x3f8b05b940000000	0.013194510713219643
190	0x3f8a6e9340000000	0.012906217947602272
191	0xbf94287040000000	-0.01968551054596901
192	0x3f400f2400000000	0.0004900861531496048
193	0xbf7d041a00000000	-0.007083989679813385
194	0x3f893ba740000000	0.012320810928940773
195	0xbf94defea0000000	-0.020381907001137733
196	0x3f7202de00000000	0.004397265613079071
197	0x3f605f6600000000	0.0019986145198345184
198	0x3f92b01220000000	0.01824978180229664
199	0x3f823feb00000000	0.008910976350307465
200	0x3f96982da0000000	0.02206488884985447
201	0xbf90a06c00000000	-0.016236960887908936
202	0x3f52286800000000	0.0011082664132118225
203	0x3f8bae9a40000000	0.01351662166416645
204	0x3f89e2dec0000000	0.01263975165784359
205	0x3f7391e680000000	0.004777813330292702
206	0x3f5f9d6c00000000	0.0019296221435070038
207	0xbf8ead0240000000	-0.014978425577282906
208	0x3f80151140000000	0.00785268284380436
209	0xbf909950c0000000	-0.016209851950407028
210	0xbf8c94b0c0000000	-0.013955479487776756
211	0xbf94248d40000000	-0.01967068389058113
212	0x3f926e5be0000000	0.017999110743403435
213	0x3f62e45b00000000	0.0023061539977788925
214	0xbf96416e60000000	-0.021733975037932396
215	0x3f83246340000000	0.009346747770905495
216	0x3f60868400000000	0.0020172670483589172
217	0x3f8f049440000000	0.015145452693104744
218	0xbf92108ac0000000	-0.017641227692365646
219	0x3f750d5900000000	0.005139682441949844
220	0x3f61894f00000000	0.0021406691521406174
221	0xbf8cde8400000000	-0.014096289873123169
222	0xbf94e8d860000000	-0.02041948400437832
223	0x3f80c3e540000000	0.008186141029000282
224	0xbf8fe59d80000000	-0.015574675053358078
225	0x3f916936e0000000	0.017002923414111137
226	0x3f2fac6000000000	0.00024164840579032898
227	0xbf88fc3400000000	-0.01219978928565979
228	0xbf827a7c80000000	-0.009022686630487442
229	0x3f70dbe000000000	0.004115939140319824
230	0xbf816073a0000000	-0.00848474819213152
231	0x3f8aa04540000000	0.013001004233956337
232	0x3f7e6c4680000000	0.0074274782091379166
233	0xbf06458000000000	-4.2479485273361206e-05
234	0xbf944a2380000000	-0.01981406658887863
235	0x3f84f02d40000000	0.01022372581064701
236	0x3f95eac2a0000000	0.021403351798653603
237	0xbf94b5e2a0000000	-0.02022508718073368
238	0xbf4efcb800000000	-0.0009456537663936615
239	0x3f85793c40000000	0.010485144332051277
240	0x3f9324ad60000000	0.018694600090384483
241	0x3f8f0b22c0000000	0.01515795849263668
242	0xbf92693240000000	-0.017979416996240616
243	0x3f8bc44240000000	0.013557927682995796
244	0xbf7b184e40000000	-0.006614976562559605
245	0x3f82b8f680000000	0.009141851216554642
246	0x3f5c005200000000	0.0017090607434511185
247	0x3f820fa9c0000000	0.008818937465548515
248	0xbf70841a80000000	-0.004032233729958534
249	0xbf9528d780000000	-0.020663611590862274
250	0xbf91230500000000	-0.016735151410102844
251	0xbf63332200000000	-0.0023437179625034332
252	0xbf8ca9ec60000000	-0.01399597804993391
253	0xbf8ef89580000000	-0.01512257382273674
254	0xbf50592a00000000	-0.000997820869088173
255	0xbf79464700000000	-0.006170537322759628

encoder_layer.linear2.bias f8 [2]
0	0x3f88806340000000	0.011963630095124245
1	0xbf8afd24a0000000	-0.013178144581615925

encoder_layer.norm1.weight f8 [2]
0	0x3ff0000000000000	1.0
1	0x3ff0000000000000	1.0

encoder_layer.norm1.bias f8 [2]
0	0x0000000000000000	0.0
1	0x0000000000000000	0.0

encoder_layer.norm2.weight f8 [2]
0	0x3ff0000000000000	1.0
1	0x3ff0000000000000	1.0

encoder_layer.norm2.bias f8 [2]
0	0x0000000000000000	0.0
1	0x0000000000000000	0.0

transformer_encoder.layers.0.self_attn.in_proj_weight f8 [6, 2]
0	0xbfc7769200000000	-0.18330597877502441
1	0xbfe1fb8bc0000000	-0.5619562864303589
2	0x3fe3cceaa0000000	0.6187642216682434
3	0x3fb0713a00000000	0.06422770023345947
4	0x3fe00e4020000000	0.5017395615577698
5	0x3fce27e180000000	0.2355920672416687
6	0x3fd635fc40000000	0.34704500436782837
7	0x3fe13f59a0000000	0.538983166217804
8	0x3fda61ecc0000000	0.4122268557548523
9	0xbfdda00880000000	-0.46289265155792236
10	0xbfa6441600000000	-0.04348820447921753
11	0x3fd5512240000000	0.33307701349258423

transformer_encoder.layers.0.self_attn.in_proj_bias f8 [6]
0	0x3cfaac0996a80d0a	5.92237843409242e-15
1	0x3cf9a7514c2e1c89	5.696239980280288e-15
2	0xb8ffcb5739d03490	-3.827099617090454e-34
3	0xb8de100ef6030f8f	-9.046673221398693e-35
4	0xbf596bdf552463db	-0.001551597688893339
5	0x3f513c3df8d6287a	0.0010519604869352593

transformer_encoder.layers.0.self_attn.out_proj.weight f8 [2, 2]
0	0x3fe694503f82cdcf	0.7056046715210246
1	0xbfc498b2f8bd500a	-0.160910006956897
2	0x3fd8d75580fa6461	0.38814294429318436
3	0x3f994dc3c5ea8047	0.0247107114361145

transformer_encoder.layers.0.self_attn.out_proj.bias f8 [2]
0	0xbf67ec6423018a87	-0.0029203372760531784
1	0x3f67ec6423018a87	0.0029203372760531784

transformer_encoder.layers.0.linear1.weight f8 [2048, 2]
0	0xbfcf78d49c97a2cd	-0.24587495466336975
1	0xbfe1b2ab38da174e	-0.5530601606740022
2	0xbfddcda620000000	-0.46567681431770325
3	0xbfd1d6cca0000000	-0.27873530983924866
4	0x3f8f6444a5b3649c	0.01532796507528849
5	0x3fe54b932d693269	0.6654754530841959
6	0xbfb6da07a687050b	-0.08926437202082498
7	0xbfc62342acbc7d9c	-0.17295106348408928
8	0x3fd9a2d5b3958507	0.40056364572053876
9	0xbfd6493cb395850d	-0.34822003877168656
10	0xbfdbf5f06b5bdd6d	-0.4368859337259526
11	0x3fd5b8b2eb5bdd5d	0.33939812645208695
12	0x3fe36a90ccfcd5a9	0.6067584994950056
13	0x3fb1b77b9819526b	0.06920597518303288
14	0x3fe3c8ef52992ec8	0.6182781804322639
15	0x3fc4ea6eb59b44d1	0.16340431087022592
16	0xbfe1908ac9b579c4	-0.5488943042399161
17	0xbfdf5a732c950c61	-0.4898956237195247
18	0xbfd7eb67c0000000	-0.3737429976463318
19	0x3fbf9a3b00000000	0.12344712018966675
20	0xbfe6552a7aabec13	-0.6978962322167511
21	0x3fc1a3c4eaafb04f	0.13781033953944408
22	0x3fad4d2800000000	0.05722928047180176
23	0x3fe0ffcf60000000	0.5312268137931824
24	0x3f6cc2c0216137c1	0.0035108330294297556
25	0xbfdc1266e042c255	-0.4386231603666933
26	0xbfc8e3be7fe4b1f4	-0.19445019955436715
27	0xbfb7eb2b00369c18	-0.09343212847908011
28	0xbfe3f05b9ca93ca8	-0.6230905589854006
29	0x3fc1ca50f2a4f278	0.1389867005144827
30	0xbfcb837480000000	-0.21494919061660767
31	0xbfdf827000000000	-0.4923362731933594
32	0xbfdc7c0edfb12420	-0.4450719055644772
33	0x3fd5e4953fb12420	0.34207659931104395
34	0xbfb7903bc5cb25f0	-0.09204457835144075
35	0x3fe6219e58b964c1	0.691603825845185
36	0x3fdd7d6feef129d7	0.4607810815256505
37	0x3fdeca6a910ed63a	0.48110450902763413
38	0xbfe2f66aa0000000	-0.5925801396369934
39	0xbfdc25c520000000	-0.4398052990436554
40	0xbfce5c38cb8ad720	-0.23718938768950526
41	0xbfe0f39a3d1d4a3a	-0.5297366326943298
42	0xbfe4302be032c930	-0.6308802965998321
43	0xbfcc5f8f7f34db44	-0.22166627608540967
44	0xbfe1850a764b8b4e	-0.5474903402758657
45	0x3fdc3b5e2c9716a4	0.4411235270930354
46	0xbfb8d77a00000000	-0.0970379114151001
47	0x3fcd6ae580000000	0.2298247218132019
48	0x3fcf4a32d0fb5207	0.24445185856042448
49	0xbfd0cc87087da90e	-0.26248336629090907
50	0xbfe29e6329c9afca	-0.5818343940895769
51	0x3fe3019b09c9afd6	0.5939459983032929
52	0x3fe35a77d6b89f1e	0.6047934716961867
53	0x3fe142cba94760e0	0.5394037538744918
54	0x3fd9c63de576cc8c	0.40272471817588307
55	0x3fc32050b512670c	0.14942368356133107
56	0x3fe4cfa5a9bba2dc	0.6503475489708666
57	0xbfa5cfd09bba2d81	-0.04260112668006411
58	0x3fdd8833c0000000	0.4614381194114685
59	0xbfccffbec0000000	-0.2265547215938568
60	0x3fc1637552ce1c06	0.13584772628038894
61	0x3fcba9faad31e3e7	0.21612485367566522
62	0xbfc605119faa9334	-0.17202968879896618
63	0xbfdbb5c9f02ab66c	-0.4329705090884548
64	0xbfdc7358ffd64d05	-0.44454026207058944
65	0x3fd4f5d43fd64d05	0.3275042174729637
66	0xbfb1b67a5dfe63af	-0.06919064326065326
67	0xbfddcdc56880671c	-0.4656842728160073
68	0x3fb09ef762099b5b	0.06492563384527499
69	0xbfc5e7013104cd9b	-0.1711122025823045
70	0x3fd36acf40000000	0.3033941388130188
71	0xbfe507e860000000	-0.6572152972221375
72	0x3fe4f5e92653c143	0.6550184010102743
73	0x3f7d550cd61f5f9f	0.00716118826127135
74	0xbfdfcd7ac0a09630	-0.4969164734960456
75	0x3fe1feb4a0504b16	0.5623419886709111
76	0xbfe3e8b660001528	-0.6221572756773286
77	0x3fe1fc9ce0001528	0.5620865225797944
78	0xbfc30c22746b42ce	-0.1488078182651606
79	0xbfe32f48e2e52f58	-0.5995220595882342
80	0x3fde830fe9a4ec7f	0.47674939934558574
81	0xbfe5a4fe14d27637	-0.6763906866723975
82	0x3fbe37bf823f3bd3	0.11803814821108398
83	0xbfbb5bb9823f3c03	-0.10686835698946599
84	0x3fd65e0aab1e79e9	0.3494898482403231
85	0xbfe19f25d58f3cf9	-0.5506772204479652
86	0x3fc8b4cd0798e2ae	0.19301760550458397
87	0xbfdcdc5d63cc713d	-0.4509500002475482
88	0x3fe58dcd20000000	0.6735597252845764
89	0xbfd8e93700000000	-0.3892343044281006
90	0x3fd07005c0000000	0.25683730840682983
91	0xbfd14ae0c0000000	-0.2701951861381531
92	0x3fd2b2b53fdcca3f	0.292157471051869
93	0x3fe08ae3e0119ae1	0.5169543625205187
94	0x3fe45eb6e0000000	0.6365618109703064
95	0x3fc55b6400000000	0.16685152053833008
96	0x3fe38feba0000000	0.6113184094429016
97	0xbfa60ca000000000	-0.04306507110595703
98	0xbfda0a50d9278064	-0.40687962728953253
99	0x3fdf6b34d927805a	0.49091836172556713
100	0xbfe2e0c065fdc17a	-0.5899354927078513
101	0xbfcf48a72808fa54	-0.24440469221913708
102	0xbfd7fb98d45031ba	-0.3747312615749042
103	0x3fd8179bd45031b0	0.37644096120564097
104	0x3fd3af4c379bfe49	0.30757432394600365
105	0xbfd62cd8b79bfe4d	-0.34648721628761764
106	0xbfe176d44833232d	-0.5457555208350634
107	0xbfe33a3437ccdcd9	-0.600854977593282
108	0xbf9ea1f2289ae1d2	-0.029914649704297087
109	0xbfcca73a7aeca3ad	-0.22385340692679048
110	0xbfc15e2b00000000	-0.13568627834320068
111	0xbfd0697180000000	-0.256435751914978
112	0x3fe5e5915ff52a75	0.684273421685545
113	0xbfe1548e3ff52a75	-0.5415717362569256
114	0x3fd7457540000000	0.36361438035964966
115	0x3fd177d140000000	0.272938072681427
116	0x3fa887bbfd092236	0.04791057075323517
117	0x3fdd3dc8405edbb9	0.45689588819680754
118	0x3fdcae6d40000000	0.44814616441726685
119	0x3fdc01cb40000000	0.4376094937324524
120	0x3fe0775ce0000000	0.5145706534385681
121	0x3fd9f88440000000	0.4057932496070862
122	0x3fdd5d1f40000000	0.4588087201118469
123	0x3fe3c2dde0000000	0.6175374388694763
124	0xbfe163167a071648	-0.5433456786492536
125	0x3fe5546b5a07164a	0.6665550955155564
126	0xbfe35f1ee064e1bd	-0.6053614027687712
127	0x3fc50d3a819386f5	0.16446620299307538
128	0x3f982b6d871b4e17	0.023603164073234675
129	0x3fe4bbfe53c72593	0.6479484211242145
130	0x3fd3089ac0000000	0.29740017652511597
131	0xbfdda14de0000000	-0.46297022700309753
132	0x3fd222d300000000	0.28337550163269043
133	0xbfd124c960000000	-0.2678702771663666
134	0x3fc08b29a542336b	0.12924690789477764
135	0x3fce87295abdcc70	0.23849980288250405
136	0x3fd04c6df8260690	0.25466489060645703
137	0xbfe272e49c13033d	-0.5765250252080488
138	0x3fcb2f1888cd3931	0.2123747508980585
139	0xbfba680d119a725c	-0.10315019302147149
140	0xbfd4074b5c990d60	-0.3129452137256603
141	0xbfe2d4f0a1b3795c	-0.5884936483596834
142	0x3fdc2bd840000000	0.4401760697364807
143	0xbfab542e00000000	-0.053376615047454834
144	0xbf9cfc7000000000	-0.02830672264099121
145	0xbfad4a4200000000	-0.05720716714859009
146	0x3fcb5ee9369799b4	0.21383395352968437
147	0x3fe429e9f25a198c	0.6301164372860497
148	0x3fd7c5073fcee1ab	0.3714006541372565
149	0xbfb77df9ff3b86ae	-0.09176599961531437
150	0xbfc1a79e806993e7	-0.1379278304113136
151	0x3fc3ab2f806993e7	0.15366166849267346
152	0xbfb8d88c00000000	-0.09705424308776855
153	0xbfdff6b120000000	-0.49943187832832336
154	0x3fe3e007e0000000	0.6210975050926208
155	0x3fc5ea1e80000000	0.1712072491645813
156	0xbfd4c1a300000000	-0.32431864738464355
157	0xbfd75b6760000000	-0.3649538457393646
158	0x3fbc151aff405623	0.10969704372140447
159	0x3fe06bd4e017f53d	0.5131630303218696
160	0x3fd97ea7aba231ba	0.39835540543642944
161	0xbfd523d38ba231c3	-0.330311666832838
162	0x3fe40ce720000000	0.6265750527381897
163	0x3fdd562fc0000000	0.4583854079246521
164	0xbfe1f7f9ffd349b1	-0.5615205761517271
165	0x3fdaf8d5bfa69363	0.42143768039595936
166	0x3fccd077e19a3adc	0.22511194720978878
167	0x3fe36dfca7997144	0.6071761392045478
168	0xbfd21bcb20000000	-0.28294637799263
169	0xbfd66ff380000000	-0.35058295726776123
170	0x3fdd4493c0000000	0.45731061697006226
171	0x3fc482d380000000	0.16024249792099
172	0xbfd3fd53e0000000	-0.31233689188957214
173	0x3fc5a7ae80000000	0.1691797375679016
174	0x3fd453ccd260d639	0.31761475128891764
175	0x3f875be5b3e539f3	0.011405748894188305
176	0xbfb3e54200000000	-0.07771694660186768
177	0xbfcb441280000000	-0.2130149006843567
178	0xbfe5845e7ffab0b3	-0.6724083423228165
179	0x3fe1bc5e9ffab0b3	0.5542443394274613
180	0xbfd600ef3916fb7c	-0.34380703520940137
181	0x3fe272d56c8b7dbb	0.576517784120305
182	0xbfbcc49700df0558	-0.11237472316044739
183	0x3fd412d2c037c157	0.313648879730882
184	0x3fde7f9ac0000000	0.47653836011886597
185	0xbfcdf4c7c0000000	-0.23403260111808777
186	0x3fdb2e9840000000	0.4247189164161682
187	0xbfe490e040000000	-0.642685055732727
188	0xbfc6e38880000000	-0.17881876230239868
189	0xbfd7882800000000	-0.36768531799316406
190	0xbfd991ecd4c875fe	-0.3995315626105763
191	0x3fe27b75ea643afc	0.5775708749732469
192	0xbfcbd11a22046fdb	-0.21731878911020783
193	0x3fd91378910237fe	0.39181341324808716
194	0x3fbc128d00000000	0.10965806245803833
195	0x3fc9189680000000	0.1960628628730774
196	0xbfe2a9fcd3463503	-0.5832504393053174
197	0x3fb3b6c09a31a7dc	0.0770073296022526
198	0x3f1234539d895d5c	6.944427821885729e-05
199	0xbfb6b34614e761eb	-0.0886730004343758
200	0xbfe67e1160899a51	-0.7028891454218159
201	0xbfd560b0feeccb5f	-0.3340265740873089
202	0x3fe660b9311f67ff	0.6993070563723903
203	0xbfda8c22e23ecfef	-0.4148032388141009
204	0xbfe103a780000000	-0.531696081161499
205	0xbfe0cfc4a0000000	-0.5253623127937317
206	0x3fd4dec247ac67ea	0.32609612464295756
207	0x3fe232c09c29cc0d	0.568695359236132
208	0xbfa972c600000000	-0.049703776836395264
209	0xbfe57f6ac0000000	-0.6718038320541382
210	0x3fe1efc420000000	0.5605183243751526
211	0x3fe1f48ca0000000	0.5611022114753723
212	0xbfe0b837fc0fe768	-0.5224876330459951
213	0xbfb3f45f1f80c51a	-0.07794756430736918
214	0x3fd95bd2c0000000	0.39622944593429565
215	0xbfe143c080000000	-0.5395205020904541
216	0xbfb2311b00000000	-0.07106178998947144
217	0xbfe38f5da0000000	-0.6112506985664368
218	0x3fb3726100000000	0.07596403360366821
219	0xbfd058e2c0000000	-0.2554251551628113
220	0x3fe1bc1a1fe4c919	0.5542116759227468
221	0x3fb1fa0e00d9b73f	0.07022178192866323
222	0xbfb0a14f7931d5c4	-0.06496140202383233
223	0x3fe1b935af263ab5	0.5538586064229408
224	0x3fc6a6a6498ea3f2	0.1769607409635508
225	0xbfa9f757263a901b	-0.05071518270168004
226	0xbfdd45bb40000000	-0.45738106966018677
227	0x3fb42a6d00000000	0.07877236604690552
228	0xbfe077c2c0583e11	-0.5146192318661084
229	0x3fd83d2540b07c21	0.3787320262653698
230	0x3fe5f402a0000000	0.6860364079475403
231	0x3fcbd6b400000000	0.21748971939086914
232	0x3fc730db7f0006c2	0.18117850972344313
233	0x3fcfdfd680fff93e	0.2490184907800969
234	0x3fabeeabbbff2152	0.05455528898125074
235	0x3fcd737611003771	0.2300860960971778
236	0xbfa4ee9a00000000	-0.040882885456085205
237	0xbfdb3bb920000000	-0.4255202114582062
238	0x3fd1cbadc0000000	0.2780565619468689
239	0x3fc3df3880000000	0.15524965524673462
240	0xbfe00559c04bdbdd	-0.5006531482493944
241	0x3fddc3c4c097b7bc	0.46507376487613405
242	0xbfd6076719ff26c9	-0.3442018274186976
243	0xbfd4c0ef6600d935	-0.3242758270383946
244	0x3fc994cc94d3b358	0.19985348956051996
245	0xbfc3c77594d3b31b	-0.15452451483670235
246	0x3fe34e10699a5700	0.6032793104702421
247	0xbfe506c3699a56fb	-0.6570756018215599
248	0xbfd4b84a3383e235	-0.32374815970209464
249	0xbfd70e904c7c1dd1	-0.3602638956949394
250	0xbfd1cde820000000	-0.27819254994392395
251	0xbf7b1be000000000	-0.006618380546569824
252	0xbfd95b1dea704195	-0.396186331695412
253	0xbfdfeea9558fbe62	-0.4989417396127235
254	0xbfb5bc48febeca7e	-0.0849042531906807
255	0x3fc65106ff5f653f	0.17434775800101396
