Transformer-Time-Series-Forecasting-main/save_model/best_train_70.pth (torch, 259059 bytes, 38 tensors)

encoder_layer.self_attn.in_proj_weight f8 [6, 2]
00000000: 0000 0060 d65e e63f 0000 0060 2ba3 ebbf
00000010: 0000 0000 ed06 bc3f 0000 0020 83a5 e83f
00000020: 0000 0080 e4f1 c6bf 0000 0040 9971 ebbf
00000030: 0000 0080 4231 e1bf 0000 0080 bcbd e6bf
00000040: 0000 0080 f016 cc3f 0000 0080 02f2 c6bf
00000050: 0000 0060 8abb e73f 0000 00e0 8e7b e23f
0.6990768313407898 -0.8636681437492371 0.10948067903518677 0.7702041268348694 -0.17925697565078735 -0.8576170206069946 -0.5372631549835205 -0.7106611728668213
0.21945005655288696 -0.17926055192947388 0.7416431307792664 0.5775827765464783

encoder_layer.self_attn.in_proj_bias f8 [6]
00000000: 0000 0000 0000 0000 0000 0000 0000 0000
00000010: 0000 0000 0000 0000 0000 0000 0000 0000
00000020: 0000 0000 0000 0000 0000 0000 0000 0000
0.0 0.0 0.0 0.0 0.0 0.0

encoder_layer.self_attn.out_proj.weight f8 [2, 2]
00000000: 0000 00e0 096d e53f 0000 0080 f3d8 cf3f
00000010: 0000 0000 f076 80bf 0000 0080 f2e8 c3bf
0.6695603728294373 0.24880832433700562 -0.008039355278015137 -0.15554648637771606

encoder_layer.self_attn.out_proj.bias f8 [2]
00000000: 0000 0000 0000 0000 0000 0000 0000 0000
0.0 0.0

encoder_layer.linear1.weight f8 [2048, 2]
00000000: 0000 00e0 86aa e0bf 0000 0000 389d b1bf
00000010: 0000 0040 1f1f de3f 0000 0040 8ce9 df3f
00000020: 0000 0000 00fc 123f 0000 0000 f8b3 c13f
00000030: 0000 00e0 a833 e5bf 0000 0080 cf25 cd3f
00000040: 0000 0080 d36a d13f 0000 0000 706d d03f
00000050: 0000 0080 01c5 c13f 0000 0080 e220 e0bf
00000060: 0000 0000 85e6 b93f 0000 00c0 f5fb d83f
00000070: 0000 00e0 631e e4bf 0000 0040 542a df3f
00000080: 0000 00c0 80cc d63f 0000 0040 fdb1 db3f
00000090: 0000 00e0 3ced e13f 0000 0060 ee4a debf
000000a0: 0000 0040 df93 e0bf 0000 0080 52f0 c5bf
000000b0: 0000 0040 943d dfbf 0000 00c0 4c9b d33f
000000c0: 0000 0080 3cc3 e5bf 0000 0040 ba17 d53f
000000d0: 0000 0000 8cb9 a23f 0000 0060 11f6 d5bf
000000e0: 0000 0020 ca9f d0bf 0000 0000 9607 be3f
000000f0: 0000 00e0 52a3 e43f 0000 00a0 3446 d0bf
00000100: 0000 0000 102c 9d3f 0000 0000 0e13 b73f
00000110: 0000 00c0 73f2 dc3f 0000 0080 0921 dcbf
00000120: 0000 0000 89be c8bf 0000 0040 60f0 d93f
00000130: 0000 0080 2107 c3bf 0000 00e0 f395 e43f
00000140: 0000 0000 1a17 bfbf 0000 0000 f876 9abf
00000150: 0000 00c0 84d8 dc3f 0000 0020 eca7 ddbf
00000160: 0000 00a0 77ac e03f 0000 0000 cfa7 b33f
00000170: 0000 0080 6409 c6bf 0000 00c0 ce3e dcbf
00000180: 0000 00c0 b41f d53f 0000 00e0 5572 e3bf
00000190: 0000 00a0 083e d0bf 0000 00c0 7230 d5bf
000001a0: 0000 0000 20fe 70bf 0000 0020 e44b e0bf
000001b0: 0000 0000 a179 c83f 0000 0080 8201 cc3f
000001c0: 0000 0080 f9ad d9bf 0000 0060 2931 e03f
000001d0: 0000 00e0 267b e33f 0000 0000 2002 9e3f
000001e0: 0000 0040 c054 df3f 0000 00c0 9147 de3f
000001f0: 0000 00a0 e300 e63f 0000 0000 f076 ddbf
00000200: 0000 0060 38af d4bf 0000 0000 62b4 cb3f
00000210: 0000 0000 7d1b cbbf 0000 00a0 df78 e23f
00000220: 0000 00c0 1e65 d43f 0000 0000 c043 b33f
00000230: 0000 0060 2fbf e4bf 0000 0000 48c3 98bf
00000240: 0000 0080 9901 cfbf 0000 00a0 5523 d4bf
00000250: 0000 0040 3499 d53f 0000 0000 8220 a7bf
00000260: 0000 0060 8b22 e03f 0000 0000 aa1f cabf
00000270: 0000 0020 1621 e2bf 0000 0000 760b be3f
00000280: 0000 00c0 bedf da3f 0000 0040 d17f d93f
00000290: 0000 0080 b0ab cf3f 0000 00a0 1e4d e13f
000002a0: 0000 0000 4409 c8bf 0000 0040 cf86 ddbf
000002b0: 0000 00e0 19e1 d7bf 0000 0020 dc17 d2bf
000002c0: 0000 00c0 e4c7 d03f 0000 0000 14dc a9bf
000002d0: 0000 0000 0660 ae3f 0000 00c0 9402 de3f
000002e0: 0000 0060 7749 e1bf 0000 0000 f83a 843f
000002f0: 0000 0060 21fe e13f 0000 0080 703a c83f
00000300: 0000 0000 3324 c03f 0000 00c0 282d d63f
00000310: 0000 0040 79df d23f 0000 0000 2b2b b3bf
00000320: 0000 00c0 a447 d2bf 0000 0020 2d22 e5bf
00000330: 0000 0060 2727 e23f 0000 00e0 2c75 e63f
00000340: 0000 0080 6fb9 cebf 0000 00c0 ba3a da3f
00000350: 0000 0080 ca1e d4bf 0000 0000 845b b3bf
00000360: 0000 0040 283c e6bf 0000 0000 17d8 b7bf
00000370: 0000 00a0 e01e e53f 0000 0000 d37c cf3f
00000380: 0000 0080 34a1 d4bf 0000 00e0 d32f d9bf
00000390: 0000 0080 db95 cf3f 0000 0000 a245 b63f
000003a0: 0000 0000 3649 cfbf 0000 0000 fae1 a9bf
000003b0: 0000 0000 f7d2 d3bf 0000 0000 0793 b6bf
000003c0: 0000 0020 bf4e e43f 0000 0000 00e5 84bf
000003d0: 0000 0080 78af c7bf 0000 0000 82a2 cfbf
000003e0: 0000 0000 80be b23f 0000 0040 8e67 df3f
000003f0: 0000 00c0 54b9 df3f 0000 00a0 2961 e03f
00000400: 0000 0040 7f55 d03f 0000 0040 dc54 dcbf
00000410: 0000 0020 3805 e23f 0000 0000 27f3 e0bf
00000420: 0000 0080 4f58 e6bf 0000 0040 f11b e6bf
00000430: 0000 0040 c5ac e5bf 0000 0080 46b1 e5bf
00000440: 0000 0080 84bc c93f 0000 0000 9842 843f
00000450: 0000 0060 7bce e4bf 0000 0020 ce55 e63f
00000460: 0000 0000 dcaf e5bf 0000 0000 a06e e2bf
00000470: 0000 0000 a801 a5bf 0000 0060 1167 dfbf
00000480: 0000 00e0 01d5 e4bf 0000 00c0 c627 dfbf
00000490: 0000 0040 989a df3f 0000 00a0 b1b0 e13f
000004a0: 0000 0000 10d5 a3bf 0000 0080 dcb6 e5bf
000004b0: 0000 0000 85be d4bf 0000 0000 91ef b13f
000004c0: 0000 0000 eaea b9bf 0000 0040 291f d13f
000004d0: 0000 00c0 5931 da3f 0000 00c0 325c d63f
000004e0: 0000 0000 0601 b6bf 0000 0040 c5e2 d6bf
000004f0: 0000 00c0 c1c5 d93f 0000 0000 5040 7fbf
00000500: 0000 0040 91a1 d83f 0000 0000 513b d23f
00000510: 0000 00e0 0572 dbbf 0000 0060 9416 e03f
00000520: 0000 0000 0e8a ba3f 0000 0040 058a db3f
00000530: 0000 0000 0c23 d2bf 0000 0080 1d8b cfbf
00000540: 0000 0060 3596 e23f 0000 00a0 0f03 d1bf
00000550: 0000 00a0 3578 e53f 0000 0060 67f9 d8bf
00000560: 0000 0040 4d5f e1bf 0000 0000 8876 ab3f
00000570: 0000 0000 a87e 8a3f 0000 0000 ceac cdbf
00000580: 0000 0000 fb75 b63f 0000 00e0 72e4 dcbf
00000590: 0000 00a0 5867 e23f 0000 00e0 c184 e13f
000005a0: 0000 0000 d0de bebf 0000 0020 52a7 dbbf
000005b0: 0000 0000 8a04 c6bf 0000 0000 3043 dfbf
000005c0: 0000 00c0 24ec d33f 0000 00a0 9c18 e4bf
000005d0: 0000 00c0 f418 df3f 0000 0040 9639 db3f
000005e0: 0000 00c0 78a0 d63f 0000 00c0 2433 db3f
000005f0: 0000 00a0 5df6 e03f 0000 0000 e8da d0bf
00000600: 0000 00a0 22b5 e33f 0000 0000 374d babf
00000610: 0000 0000 31a6 b63f 0000 0020 6e52 d3bf
00000620: 0000 0080 79ad e0bf 0000 00e0 810b e53f
00000630: 0000 0040 2527 e3bf 0000 00a0 cc48 d1bf
00000640: 0000 0000 bcfc b13f 0000 0040 e8bd d93f
00000650: 0000 0020 f5b1 e2bf 0000 00c0 3c68 dfbf
00000660: 0000 0000 a49f babf 0000 00c0 393f da3f
00000670: 0000 0000 23e9 bc3f 0000 0080 c23a c93f
00000680: 0000 0000 9bd3 c7bf 0000 0060 8d8d e03f
00000690: 0000 0000 5e1b a3bf 0000 0000 96a8 d0bf
000006a0: 0000 0000 8a09 b2bf 0000 00e0 6562 e23f
000006b0: 0000 00c0 f2f9 e1bf 0000 0000 dcea b5bf
000006c0: 0000 0000 1fe3 c8bf 0000 0020 24eb e43f
000006d0: 0000 0020 2946 e3bf 0000 00a0 ea86 e4bf
000006e0: 0000 00a0 5cba d2bf 0000 00c0 12dc df3f
000006f0: 0000 0020 b491 e6bf 0000 00e0 b66d d2bf
00000700: 0000 0000 871c e6bf 0000 0000 68de ae3f
00000710: 0000 00c0 8814 d13f 0000 0000 db20 c63f
00000720: 0000 0020 647d d8bf 0000 0020 6683 e23f
00000730: 0000 0000 4831 b43f 0000 0000 8814 983f
00000740: 0000 00c0 cdb1 d53f 0000 0060 48f1 e1bf
00000750: 0000 0000 1481 a73f 0000 00e0 5c59 e23f
00000760: 0000 0020 3ab9 d8bf 0000 0080 d81f e6bf
00000770: 0000 0000 e049 743f 0000 0000 3d5c b13f
00000780: 0000 00c0 ed49 d33f 0000 00c0 164f e2bf
00000790: 0000 0000 ab95 b43f 0000 0000 8bf4 cebf
000007a0: 0000 0040 4148 e0bf 0000 00c0 75b3 d3bf
000007b0: 0000 0000 545e 9e3f 0000 00e0 ee04 e53f
000007c0: 0000 00e0 da43 e23f 0000 0020 f61f e33f
000007d0: 0000 0020 726b e13f 0000 00a0 9419 e43f
000007e0: 0000 0040 d11a db3f 0000 0020 925a d1bf
000007f0: 0000 00c0 cc6f df3f 0000 0080 4163 cabf
-0.5208162665367126 -0.06880521774291992 0.4706495404243469 0.498629629611969 7.241964340209961e-05 0.1383047103881836 -0.6625561118125916 0.2277163863182068
0.27214515209198 0.2566795349121094 0.13882464170455933 -0.504014253616333 0.10117369890213013 0.3903784155845642 -0.6287097334861755 0.4869585633277893
0.3562318682670593 0.43273860216140747 0.5602096915245056 -0.47332343459129333 -0.5180507898330688 -0.17139655351638794 -0.4881334900856018 0.30635374784469604
-0.6800825595855713 0.32957321405410767 0.03657186031341553 -0.3431437909603119 -0.2597527801990509 0.11730325222015381 0.6449369788169861 -0.2542850077152252
0.0284883975982666 0.09013450145721436 0.452298104763031 -0.43951642513275146 -0.19331467151641846 0.4052963852882385 -0.14865511655807495 0.6433047652244568
-0.12144625186920166 -0.025844454765319824 0.45071524381637573 -0.46337416768074036 0.52105313539505 0.076779305934906 -0.17216163873672485 -0.44133347272872925
0.3300601840019226 -0.6077069640159607 -0.25378623604774475 -0.3310820460319519 -0.004148602485656738 -0.5092640519142151 0.19121181964874268 0.21879607439041138
-0.40124356746673584 0.5060011744499207 0.6087831854820251 0.029304981231689453 0.4895477890968323 0.47311824560165405 0.687608540058136 -0.4603843688964844
-0.32319459319114685 0.21644234657287598 -0.21177637577056885 0.5772550702095032 0.3186718821525574 0.07525253295898438 -0.6483380198478699 -0.024182438850402832
-0.24223631620407104 -0.31465664505958557 0.33747583627700806 -0.0451698899269104 0.5042168498039246 -0.20409131050109863 -0.5665388703346252 0.117362380027771
0.4199063181877136 0.398426353931427 0.2474270462989807 0.54066401720047 -0.18778276443481445 -0.4613531231880188 -0.37311407923698425 -0.28270629048347473
0.2622005343437195 -0.050507187843322754 0.059326350688934326 0.46890753507614136 -0.5402180552482605 0.009878098964691162 0.562271773815155 0.18928343057632446
0.1261047124862671 0.3465062975883484 0.29488974809646606 -0.07487744092941284 -0.285622775554657 -0.6604219079017639 0.5672795176506042 0.7018036246299744
-0.2400340437889099 0.4098345637321472 -0.31437933444976807 -0.07561516761779785 -0.6948434114456177 -0.09314101934432983 0.6600192189216614 0.24599683284759521
-0.32233917713165283 -0.39354416728019714 0.2467607855796814 0.08700001239776611 -0.24442172050476074 -0.050552189350128174 -0.3097512722015381 -0.08818095922470093
0.6346126198768616 -0.010202407836914062 -0.18504244089126587 -0.2471468448638916 0.07321929931640625 0.4906955361366272 0.49568670988082886 0.5118606686592102
0.2552183270454407 -0.4426794648170471 0.5631371140480042 -0.5296816825866699 -0.6982800960540771 -0.6909109354019165 -0.6773401498794556 -0.6778900623321533
0.20106559991836548 0.009892642498016357 -0.6502053141593933 0.6979742646217346 -0.6777172088623047 -0.5760040283203125 -0.04102826118469238 -0.4906657636165619
-0.6510018706321716 -0.48680275678634644 0.4938107132911682 0.5528190732002258 -0.03873491287231445 -0.6785719394683838 -0.3241283893585205 0.07006174325942993
-0.10124075412750244 0.26752692461013794 0.40926212072372437 0.3493773341178894 -0.08595311641693115 -0.3575909733772278 0.4026951193809509 -0.007629692554473877
0.3848612904548645 0.2848703861236572 -0.4288344085216522 0.5027562975883484 0.10366904735565186 0.4302991032600403 -0.2833890914916992 -0.24643296003341675
0.5808359980583191 -0.26581183075904846 0.6709240078926086 -0.3902224004268646 -0.5428835153579712 0.05363869667053223 0.012936890125274658 -0.23183608055114746
0.08773773908615112 -0.4514434039592743 0.5751155018806458 0.5474557280540466 -0.12058734893798828 -0.4320874512195587 -0.172013521194458 -0.4884757995605469
0.311288058757782 -0.6280043721199036 0.4858981966972351 0.42538982629776 0.3535444140434265 0.424996554851532 0.5300739407539368 -0.26336097717285156
0.6158612370491028 -0.10274070501327515 0.088473379611969 -0.30190613865852356 -0.5211760997772217 0.6576547026634216 -0.5985285043716431 -0.27006831765174866
0.07026267051696777 0.40221601724624634 -0.5842233300209045 -0.4907371401786804 -0.10399842262268066 0.4101089835166931 0.11293238401412964 0.19710570573806763
-0.18614518642425537 0.517279326915741 -0.03731817007064819 -0.26028966903686523 -0.0704580545425415 0.5745114684104919 -0.5617612600326538 -0.08561491966247559
-0.19443118572235107 0.6537037491798401 -0.6023145318031311 -0.6414692997932434 -0.2926246225833893 0.49780720472335815 -0.7052860856056213 -0.2879464328289032
-0.6909823417663574 0.06029057502746582 0.26687830686569214 0.17287766933441162 -0.38265326619148254 0.5785399079322815 0.07887697219848633 0.023515820503234863
0.33897727727890015 -0.560703456401825 0.045906662940979004 0.5734085440635681 -0.3863053619861603 -0.691387414932251 0.004953265190124512 0.0678136944770813
0.3013872504234314 -0.5721544027328491 0.08040875196456909 -0.24183785915374756 -0.5088201761245728 -0.3078283667564392 0.029656708240509033 0.6568521857261658
0.5707830786705017 0.5976515412330627 0.5443659424781799 0.6281226277351379 0.423511803150177 -0.2711530029773712 0.49119871854782104 -0.20615404844284058

encoder_layer.linear1.bias f8 [2048]
00000000: 0000 0060 b9c4 e23f 0000 0000 1066 b63f
00000010: 0000 0040 f66f db3f 0000 0040 abf8 d53f
00000020: 0000 0080 5adb c63f 0000 0000 7767 b0bf
00000030: 0000 0080 8ac4 c23f 0000 0040 9dd5 de3f
00000040: 0000 0060 6acd e5bf 0000 0080 9046 cd3f
00000050: 0000 0080 0176 cd3f 0000 0080 e139 dbbf
00000060: 0000 0000 ebb1 bb3f 0000 0040 8b37 dabf
00000070: 0000 0040 0a48 da3f 0000 0000 5ad6 adbf
00000080: 0000 0000 c033 853f 0000 00c0 9101 df3f
00000090: 0000 0060 d2cd e43f 0000 0000 2c61 c4bf
000000a0: 0000 0080 e2a9 d2bf 0000 0040 63af db3f
000000b0: 0000 0000 d9f5 bbbf 0000 0020 0fa1 e23f
000000c0: 0000 00e0 6694 e43f 0000 0040 0078 e1bf
000000d0: 0000 0040 b441 e6bf 0000 0040 57ba dfbf
000000e0: 0000 00c0 f706 d63f 0000 0020 33ed debf
000000f0: 0000 0020 dae9 e33f 0000 0000 84c1 b53f
00000100: 0000 0060 71a2 e53f 0000 00e0 348c e43f
00000110: 0000 0040 40cc e0bf 0000 0080 083f c13f
00000120: 0000 00c0 89e2 d53f 0000 00c0 3cb2 d93f
00000130: 0000 0080 a694 d13f 0000 00a0 a53a e53f
00000140: 0000 00a0 c705 d0bf 0000 0000 4ead b93f
00000150: 0000 0080 314d ddbf 0000 00c0 596a debf
00000160: 0000 0040 ef60 db3f 0000 0000 61e4 c23f
00000170: 0000 00a0 54c5 e0bf 0000 0080 6e57 c0bf
00000180: 0000 00e0 1ddb e33f 0000 0060 7f0d e43f
00000190: 0000 00e0 6b9f e43f 0000 00c0 b265 db3f
000001a0: 0000 0000 f75b ca3f 0000 0080 cbeb cebf
000001b0: 0000 0080 399a c6bf 0000 00e0 45ea ddbf
000001c0: 0000 0000 20e3 8abf 0000 0040 2908 d13f
000001d0: 0000 0000 08ed ae3f 0000 0080 84f8 e4bf
000001e0: 0000 00c0 2295 e1bf 0000 0080 bb9a c6bf
000001f0: 0000 0000 214d b4bf 0000 0040 e25f d03f
00000200: 0000 00a0 5363 d5bf 0000 0020 15bc e1bf
00000210: 0000 0040 277e d83f 0000 0000 32e0 c53f
00000220: 0000 0060 67fc e13f 0000 0000 9606 aebf
00000230: 0000 00a0 b50d e23f 0000 0040 5aa3 db3f
00000240: 0000 0060 ed8c e23f 0000 00c0 13c3 ddbf
00000250: 0000 0040 c0fe da3f 0000 0000 f777 b2bf
00000260: 0000 0020 fe0b e63f 0000 00e0 ad68 e43f
00000270: 0000 0080 835f c83f 0000 0080 af0d c0bf
00000280: 0000 0000 eaca c4bf 0000 0080 1040 d3bf
00000290: 0000 0040 7832 dfbf 0000 0020 feb1 e53f
000002a0: 0000 0000 4a37 cb3f 0000 0040 dc4b d33f
000002b0: 0000 0040 6d1d d6bf 0000 0000 5619 a4bf
000002c0: 0000 00a0 5133 e1bf 0000 0000 3068 7f3f
000002d0: 0000 0020 5cc6 e53f 0000 0080 19af d7bf
000002e0: 0000 0000 1587 ccbf 0000 00c0 79f9 d53f
000002f0: 0000 0080 a1e0 cfbf 0000 00a0 de6f e33f
00000300: 0000 00e0 9c00 e43f 0000 0080 5cf0 c2bf
00000310: 0000 0020 ca74 dcbf 0000 00e0 5c82 d9bf
00000320: 0000 0020 39de e43f 0000 0020 4cfa dcbf
00000330: 0000 00a0 fa63 e4bf 0000 0040 b4a3 da3f
00000340: 0000 0040 9ee9 d93f 0000 0060 52c7 e4bf
00000350: 0000 0000 7811 b4bf 0000 0080 74d1 e3bf
00000360: 0000 00c0 0260 d83f 0000 0040 b386 df3f
00000370: 0000 0060 a552 e43f 0000 0000 1141 cb3f
00000380: 0000 00a0 06e0 d0bf 0000 0060 7fd1 e53f
00000390: 0000 00a0 280f d9bf 0000 0080 663c c03f
000003a0: 0000 0080 5e58 e3bf 0000 0040 edea d23f
000003b0: 0000 0080 ae2e ca3f 0000 0000 80cc 8e3f
000003c0: 0000 0040 36f2 e1bf 0000 0000 6287 e0bf
000003d0: 0000 0000 a018 a7bf 0000 0040 aed6 da3f
000003e0: 0000 0040 f913 d6bf 0000 0040 db86 d93f
000003f0: 0000 0080 2fb2 cebf 0000 0020 fc30 e43f
00000400: 0000 00e0 0a19 d3bf 0000 0000 4653 cd3f
00000410: 0000 0000 8aa7 ab3f 0000 0080 b93d c0bf
00000420: 0000 0060 d401 d3bf 0000 00c0 842e d83f
00000430: 0000 00a0 f0ef e33f 0000 0080 9559 e2bf
00000440: 0000 00c0 5ad3 dc3f 0000 00e0 42ae e0bf
00000450: 0000 00e0 ee9f e53f 0000 0040 7e5e da3f
00000460: 0000 00e0 c033 e03f 0000 00c0 2b74 e2bf
00000470: 0000 00c0 8d7c dc3f 0000 0020 9b07 e33f
00000480: 0000 00c0 cf5d e0bf 0000 0000 b653 b53f
00000490: 0000 00c0 3233 d03f 0000 0000 3336 babf
000004a0: 0000 0080 c679 d9bf 0000 0000 88bd cd3f
000004b0: 0000 0040 88a9 dd3f 0000 0060 e737 e03f
000004c0: 0000 0000 9495 903f 0000 0060 d413 e43f
000004d0: 0000 0000 0031 ccbf 0000 0000 2092 bc3f
000004e0: 0000 00e0 845e e3bf 0000 0060 bcda e5bf
000004f0: 0000 00c0 3ef4 d1bf 0000 0020 9b1c e33f
00000500: 0000 00a0 950d e23f 0000 0040 edf8 dbbf
00000510: 0000 0000 9787 c53f 0000 0000 e5cc b5bf
00000520: 0000 00c0 bc6a e1bf 0000 0040 5957 dd3f
00000530: 0000 0080 58b3 e2bf 0000 0000 33a4 c13f
00000540: 0000 0000 be74 afbf 0000 0020 9022 e6bf
00000550: 0000 0000 805f 483f 0000 0080 a001 cdbf
00000560: 0000 0000 ba1e af3f 0000 0080 bd20 ca3f
00000570: 0000 0000 b05d e5bf 0000 00c0 4b06 d93f
00000580: 0000 0040 3929 d73f 0000 00e0 d622 e3bf
00000590: 0000 0000 7b72 bbbf 0000 0080 4103 d2bf
000005a0: 0000 0040 1a52 de3f 0000 0060 a17d e63f
000005b0: 0000 0000 561f cdbf 0000 00e0 2b40 e23f
000005c0: 0000 00e0 c165 e13f 0000 00e0 e553 e0bf
000005d0: 0000 0000 4aa9 c9bf 0000 0000 90e1 a03f
000005e0: 0000 0060 6efc e5bf 0000 0080 ea5e c53f
000005f0: 0000 00a0 f500 e23f 0000 0040 b2c9 e1bf
00000600: 0000 00c0 8bec d2bf 0000 00a0 5abc e3bf
00000610: 0000 00e0 433a d7bf 0000 0040 44d6 d53f
00000620: 0000 00e0 e761 e63f 0000 00e0 7f12 d0bf
00000630: 0000 0020 550e e13f 0000 00c0 1f81 d23f
00000640: 0000 0060 7e34 e6bf 0000 0060 ffa2 d8bf
00000650: 0000 00c0 283c cdbf 0000 0040 d7b4 d73f
00000660: 0000 0000 109a 9e3f 0000 0080 07d6 d9bf
00000670: 0000 00e0 150e dabf 0000 0000 9d0d dabf
00000680: 0000 0080 0882 c3bf 0000 00a0 6ae1 e03f
00000690: 0000 0040 6cd1 d23f 0000 0000 340a 9b3f
000006a0: 0000 0080 5eab d7bf 0000 00a0 d91b e13f
000006b0: 0000 0020 66e3 e53f 0000 0000 a06d 7abf
000006c0: 0000 0040 cc57 d13f 0000 00e0 4281 e13f
000006d0: 0000 0000 52ce cfbf 0000 0080 0472 c3bf
000006e0: 0000 00c0 6261 e4bf 0000 0000 b830 923f
000006f0: 0000 0040 170a da3f 0000 00c0 4e96 de3f
00000700: 0000 00c0 bb95 e0bf 0000 0000 d647 a13f
00000710: 0000 0020 fca2 e43f 0000 0000 ff6f d23f
00000720: 0000 0080 e00e e2bf 0000 00c0 2ce7 df3f
00000730: 0000 00a0 0c89 e33f 0000 00a0 765b e2bf
00000740: 0000 0040 643a d33f 0000 0080 c041 c93f
00000750: 0000 0080 f1ea e3bf 0000 00a0 c15b e13f
00000760: 0000 0040 1c8a e4bf 0000 0000 00cb 463f
00000770: 0000 0080 f428 d13f 0000 00a0 9226 e13f
00000780: 0000 00a0 c49f dcbf 0000 0040 4ed8 d13f
00000790: 0000 00e0 1f00 dabf 0000 00e0 b0ae ddbf
000007a0: 0000 0000 6fd7 c8bf 0000 00a0 45cb e43f
000007b0: 0000 0000 cdb2 b7bf 0000 0060 574a e33f
000007c0: 0000 0000 b8fe 8b3f 0000 0080 3f58 cfbf
000007d0: 0000 0060 695d e43f 0000 0000 8729 bdbf
000007e0: 0000 00e0 73b3 d3bf 0000 0000 be3e c7bf
000007f0: 0000 0000 5dad c93f 0000 00c0 4c70 da3f
0.5865141749382019 0.0874948501586914 0.42870861291885376 0.34330254793167114 0.17856913805007935 -0.06407874822616577 0.14662295579910278 0.4817879796028137
-0.6813251376152039 0.2287159562110901 0.23016375303268433 -0.4254077672958374 0.10818356275558472 -0.4096401333808899 0.4106469750404358 -0.05827599763870239
0.010352611541748047 0.48447078466415405 0.650124728679657 -0.15921545028686523 -0.2916189432144165 0.43257981538772583 -0.10922008752822876 0.5821605324745178
0.6431154608726501 -0.5458985567092896 -0.6955205202102661 -0.4957483410835266 0.3441752791404724 -0.48322752118110657 0.6222963929176331 0.08498406410217285
0.6760794520378113 0.64211505651474 -0.5249329805374146 0.13473612070083618 0.34195178747177124 0.4015037417411804 0.2746978998184204 0.6634090542793274
-0.25035277009010315 0.10030066967010498 -0.4578365087509155 -0.47524112462997437 0.42779141664505005 0.14759457111358643 -0.5240882039070129 -0.12766820192337036
0.6204976439476013 0.6266476511955261 0.6444606184959412 0.4280821681022644 0.20593154430389404 -0.24157088994979858 -0.17658156156539917 -0.4674238860607147
-0.013128519058227539 0.26612311601638794 0.06040215492248535 -0.6553366184234619 -0.5494550466537476 -0.17659705877304077 -0.07930189371109009 0.25585228204727173
-0.33418741822242737 -0.554209291934967 0.38269978761672974 0.17090439796447754 0.5620610117912292 -0.058643996715545654 0.5641735196113586 0.4318452477455139
0.5797030329704285 -0.46503156423568726 0.4217987656593323 -0.07214301824569702 0.6889639496803284 0.6377782225608826 0.19041484594345093 -0.12541764974594116
-0.16244244575500488 -0.3007851839065552 -0.48745542764663696 0.6779776215553284 0.21262478828430176 0.3015051484107971 -0.34554606676101685 -0.03925579786300659
-0.5375145077705383 0.007667720317840576 0.6804638504981995 -0.3700622320175171 -0.22287237644195557 0.3433517813682556 -0.24904268980026245 0.607405960559845
0.6250748038291931 -0.14796024560928345 -0.4446282684803009 -0.39858171343803406 0.6521268486976624 -0.4527769386768341 -0.6372044682502747 0.41624170541763306
0.4048839211463928 -0.649331271648407 -0.07839155197143555 -0.6193182468414307 0.38086003065109253 0.49259644746780396 0.6350886225700378 0.21292316913604736
-0.26367345452308655 0.6818234324455261 -0.391550213098526 0.12684327363967896 -0.6045372486114502 0.29558879137039185 0.2045496106147766 0.015038490295410156
-0.5608168840408325 -0.5165262222290039 -0.04510974884033203 0.41935306787490845 -0.34496909379959106 0.398855984210968 -0.23981279134750366 0.630979597568512
-0.29840347170829773 0.22910380363464355 0.05401259660720825 -0.12688368558883667 -0.2969866693019867 0.37783926725387573 0.6230395436286926 -0.5734355449676514
0.45040005445480347 -0.5212721228599548 0.6757730841636658 0.4120174050331116 0.5063175559043884 -0.5766810178756714 0.44510215520858765 0.5946784615516663
-0.5114516019821167 0.08330857753753662 0.2531248927116394 -0.10238951444625854 -0.39805757999420166 0.2323465347290039 0.4634724259376526 0.5068241953849792
0.016195595264434814 0.6274206042289734 -0.220245361328125 0.11160469055175781 -0.6052879691123962 -0.6829511523246765 -0.2805325388908386 0.5972419381141663
0.5641582608222961 -0.43706828355789185 0.16820037364959717 -0.08515769243240356 -0.5442794561386108 0.4584563374519348 -0.584392786026001 0.1378234624862671
-0.06143754720687866 -0.691719114780426 0.0007438063621520996 -0.2266121506690979 0.06078130006790161 0.20412415266036987 -0.6676864624023438 0.39100927114486694
0.36189109086990356 -0.5980028510093689 -0.10721558332443237 -0.28144872188568115 0.4737611413002014 0.702835738658905 -0.22751879692077637 0.5703334212303162
0.5436715483665466 -0.5102414488792419 -0.20047879219055176 0.03297090530395508 -0.6870643496513367 0.16695910692214966 0.5626171231269836 -0.5558711290359497
-0.29568761587142944 -0.6167424321174622 -0.3629312217235565 0.3412027955055237 0.6994513869285583 -0.2511291205883026 0.532999575138092 0.2891311049461365
-0.6939079165458679 -0.38494858145713806 -0.2283984124660492 0.3704126477241516 0.02988457679748535 -0.40368831157684326 -0.40710970759391785 -0.40708088874816895
-0.15240579843521118 0.5275166630744934 0.29403215646743774 0.02640610933303833 -0.3698345422744751 0.534649670124054 0.6840086579322815 -0.006452202796936035
0.2709837555885315 0.5470289587974548 -0.24848389625549316 -0.15191704034805298 -0.6368879079818726 0.017763972282409668 0.4068658947944641 0.47792404890060425
-0.5182780027389526 0.03375118970870972 0.644895613193512 0.2880856990814209 -0.5643160343170166 0.4984847903251648 0.6104796528816223 -0.5736649632453918
0.30043894052505493 0.19731909036636353 -0.622429609298706 0.5424507260322571 -0.6418591737747192 0.0006955862045288086 0.26812469959259033 0.5359585881233215
-0.44725146889686584 0.2788272500038147 -0.40625759959220886 -0.4637872874736786 -0.19407451152801514 0.6498134732246399 -0.09257203340530396 0.602824866771698
0.013669431209564209 -0.24488061666488647 0.6364027857780457 -0.11391490697860718 -0.3078279197216034 -0.18160223960876465 0.20060312747955322 0.41310423612594604

encoder_layer.linear2.weight f8 [2, 2048]
00000000: 0000 00c0 ada8 893f 0000 0080 29d5 753f
00000010: 0000 0040 e4ef 8d3f 0000 00c0 1743 92bf
00000020: 0000 0020 7631 88bf 0000 0000 e020 63bf
00000030: 0000 00c0 932b 7bbf 0000 0060 01a0 81bf
00000040: 0000 00a0 7d40 913f 0000 0000 d89e 90bf
00000050: 0000 0040 c0e2 8fbf 0000 00c0 a394 813f
00000060: 0000 0000 edb3 68bf 0000 0040 41db 8e3f
00000070: 0000 0000 f1cf 6b3f 0000 0000 9c2a 91bf
00000080: 0000 0080 a8a8 753f 0000 0000 5a32 50bf
00000090: 0000 0000 c053 6dbf 0000 0040 e54e 94bf
000000a0: 0000 0080 e899 91bf 0000 0040 e948 8d3f
000000b0: 0000 0000 3177 713f 0000 0000 ece5 6dbf
000000c0: 0000 0080 3328 79bf 0000 00e0 fb7c 80bf
000000d0: 0000 00c0 1bec 8dbf 0000 0080 7739 82bf
000000e0: 0000 0000 2e93 5bbf 0000 0080 ad00 83bf
000000f0: 0000 00c0 d067 8a3f 0000 00e0 4925 913f
00000100: 0000 0060 ee0b 913f 0000 0000 1cc7 64bf
00000110: 0000 0040 0aca 82bf 0000 0060 7080 83bf
00000120: 0000 0060 92b2 93bf 0000 0080 6dc6 703f
00000130: 0000 0060 45f5 86bf 0000 0000 5203 773f
00000140: 0000 00a0 65ae 92bf 0000 0000 0e7b 58bf
00000150: 0000 0000 0d9c 683f 0000 0000 679a 7abf
00000160: 0000 0000 aca7 5b3f 0000 0000 8860 5d3f
00000170: 0000 0000 30a9 2f3f 0000 00e0 2861 93bf
00000180: 0000 00a0 4629 923f 0000 0080 a8ba 703f
00000190: 0000 0000 e9d5 63bf 0000 0000 e4dc 4dbf
000001a0: 0000 00a0 8425 913f 0000 00a0 81e3 8bbf
000001b0: 0000 0040 c689 8e3f 0000 0040 2bf9 8c3f
000001c0: 0000 0080 5b5b 7c3f 0000 00c0 037e 853f
000001d0: 0000 0000 6603 5abf 0000 0080 56fb 73bf
000001e0: 0000 00c0 eab1 823f 0000 0080 e5a4 83bf
000001f0: 0000 0020 56aa 91bf 0000 0000 4675 813f
00000200: 0000 0000 5404 54bf 0000 0000 c6ea 90bf
00000210: 0000 0060 7ac8 90bf 0000 0040 07e5 8fbf
00000220: 0000 00e0 542d 8dbf 0000 0000 23e7 6d3f
00000230: 0000 00c0 4fbc 94bf 0000 00e0 6cda 88bf
00000240: 0000 0000 0934 96bf 0000 00a0 9c40 933f
00000250: 0000 00e0 a30c 933f 0000 00c0 c9ae 863f
00000260: 0000 0000 8c2a 653f 0000 0000 c59a 73bf
00000270: 0000 0080 b7d0 93bf 0000 0000 3e93 64bf
00000280: 0000 0000 ff04 6c3f 0000 0000 ab2a 70bf
00000290: 0000 0040 bdeb 843f 0000 00c0 5cf9 94bf
000002a0: 0000 0000 2412 5c3f 0000 0060 d9a4 94bf
000002b0: 0000 0040 3379 833f 0000 00c0 b73f 883f
000002c0: 0000 0000 0897 4ebf 0000 0000 2eb4 613f
000002d0: 0000 0000 2f43 723f 0000 0000 e731 723f
000002e0: 0000 00c0 7cb2 8b3f 0000 00e0 4d00 943f
000002f0: 0000 0060 cd31 953f 0000 0000 847a 5a3f
00000300: 0000 0000 9e9f 96bf 0000 0040 504b 893f
00000310: 0000 0080 e28d 7f3f 0000 0060 c3ad 8ebf
00000320: 0000 0060 1222 8cbf 0000 0020 45b9 923f
00000330: 0000 00c0 35e0 8fbf 0000 00c0 3321 91bf
00000340: 0000 0000 101e 2cbf 0000 0080 31f9 80bf
00000350: 0000 0080 653e 8fbf 0000 0040 b795 84bf
00000360: 0000 00a0 fb16 903f 0000 0080 0de0 87bf
00000370: 0000 0000 bcf6 793f 0000 0060 8f3b 90bf
00000380: 0000 0020 634f 913f 0000 0000 a146 823f
00000390: 0000 0080 9853 93bf 0000 0060 1f65 963f
000003a0: 0000 00a0 dae6 8abf 0000 0040 bbd0 95bf
000003b0: 0000 00a0 5a0b 96bf 0000 0000 c6b9 60bf
000003c0: 0000 0040 3dbd 8b3f 0000 0020 fcd7 90bf
000003d0: 0000 0000 5415 713f 0000 0000 b912 77bf
000003e0: 0000 0000 6ef9 6ebf 0000 0080 6a4b 813f
000003f0: 0000 0020 8054 83bf 0000 0040 eb17 95bf
00000400: 0000 0080 9386 92bf 0000 0000 06be 53bf
00000410: 0000 0040 9954 8dbf 0000 0000 a036 823f
00000420: 0000 0020 4f3a 93bf 0000 0000 706b 4dbf
00000430: 0000 00c0 995d 89bf 0000 0000 7f98 613f
00000440: 0000 0000 e3e8 90bf 0000 0000 b6de 89bf
00000450: 0000 0040 ecbb 8ebf 0000 0040 6280 8a3f
00000460: 0000 00c0 f7b0 833f 0000 0080 302f 94bf
00000470: 0000 0000 4875 313f 0000 0000 b5da 703f
00000480: 0000 0020 6cd7 903f 0000 00a0 d98a 8abf
00000490: 0000 0000 8c01 5f3f 0000 00e0 dd0e 88bf
000004a0: 0000 00e0 f67f 90bf 0000 0000 a433 713f
000004b0: 0000 00c0 bf78 7ebf 0000 0000 9d38 663f
000004c0: 0000 0000 942f 61bf 0000 0040 e069 883f
000004d0: 0000 00c0 74c7 8c3f 0000 0000 14ea 413f
000004e0: 0000 00c0 3732 8e3f 0000 0080 911c 71bf
000004f0: 0000 0040 76b7 8b3f 0000 0040 72dd 8d3f
00000500: 0000 0000 2edb 803f 0000 00a0 d46a 933f
00000510: 0000 00e0 aaa8 85bf 0000 00a0 ee51 80bf
00000520: 0000 0000 0882 34bf 0000 00e0 35db 923f
00000530: 0000 0060 0957 86bf 0000 0000 b8f1 62bf
00000540: 0000 0000 5b03 74bf 0000 0000 ac46 5abf
00000550: 0000 0040 25ea 863f 0000 0000 3015 3c3f
00000560: 0000 00a0 2a7e 903f 0000 00a0 d7c7 8bbf
00000570: 0000 0000 4f49 813f 0000 0000 c23c 74bf
00000580: 0000 0020 263d 82bf 0000 0000 c6d5 623f
00000590: 0000 0000 a3fe 71bf 0000 0040 c412 96bf
000005a0: 0000 00a0 db38 933f 0000 0020 e1f6 933f
000005b0: 0000 00c0 d16a 87bf 0000 0000 fe29 75bf
000005c0: 0000 0000 3f82 683f 0000 0020 90ff 953f
000005d0: 0000 0000 d8d1 353f 0000 00c0 d496 90bf
000005e0: 0000 0000 efe2 7c3f 0000 0040 8b14 813f
000005f0: 0000 0000 50e2 8dbf 0000 00e0 7365 82bf
00000600: 0000 0060 3ad0 943f 0000 0040 aa02 823f
00000610: 0000 0000 1402 40bf 0000 00c0 9df3 8e3f
00000620: 0000 0040 de6c 873f 0000 0060 b16c 80bf
00000630: 0000 0000 12c1 52bf 0000 00a0 97fa 943f
00000640: 0000 00a0 4c4f 963f 0000 00a0 3dc4 953f
00000650: 0000 0080 7c98 93bf 0000 0000 dc63 41bf
00000660: 0000 0020 d557 913f 0000 00e0 88a0 95bf
00000670: 0000 0040 d817 813f 0000 00a0 c172 943f
00000680: 0000 0000 e00b 7f3f 0000 0020 4147 923f
00000690: 0000 0000 27a1 783f 0000 0000 c03e 5fbf
000006a0: 0000 00c0 b24b 813f 0000 0000 2ce1 53bf
000006b0: 0000 0060 43d8 85bf 0000 00c0 fedc 8a3f
000006c0: 0000 0040 75a4 883f 0000 0080 58d4 76bf
000006d0: 0000 00c0 3b9f 843f 0000 0000 a1b3 773f
000006e0: 0000 00a0 7054 8fbf 0000 0000 283b 71bf
000006f0: 0000 0080 5eb2 7b3f 0000 00a0 02a5 93bf
00000700: 0000 0080 745a 90bf 0000 00e0 e7d7 92bf
00000710: 0000 0000 4422 8fbf 0000 0000 cb73 60bf
00000720: 0000 0080 d2f0 8dbf 0000 0000 582a 5f3f
00000730: 0000 0000 8a95 7b3f 0000 0000 60d5 23bf
00000740: 0000 00a0 23eb 933f 0000 0040 b76a 95bf
00000750: 0000 00c0 56f4 95bf 0000 00a0 2e11 80bf
00000760: 0000 00c0 6dc3 94bf 0000 0080 3723 8cbf
00000770: 0000 0040 b5a7 823f 0000 00a0 12c3 943f
00000780: 0000 0060 2848 943f 0000 00c0 66e7 8b3f
00000790: 0000 0080 b514 78bf 0000 0060 e635 96bf
000007a0: 0000 00c0 8603 8f3f 0000 0040 ee2d 94bf
000007b0: 0000 0040 6faa 89bf 0000 0000 8003 30bf
000007c0: 0000 0000 8b0f 6ebf 0000 00c0 fa31 873f
000007d0: 0000 00e0 b87b 933f 0000 0000 4f80 7a3f
000007e0: 0000 00c0 85b2 883f 0000 00c0 c11b 8abf
000007f0: 0000 0020 d9a1 95bf 0000 0020 93a7 923f
0.012528760358691216 0.005330240353941917 0.014617713168263435 -0.01783406361937523 -0.011813090182840824 -0.0023350119590759277 -0.0066333552822470665 -0.00860596727579832
0.016847575083374977 -0.01623094081878662 -0.015569211915135384 0.008584288880228996 -0.003015482798218727 0.015066633000969887 0.0033950526267290115 -0.01676410436630249
0.005287798121571541 -0.0009885672479867935 -0.0035799741744995117 -0.01983221247792244 -0.017188675701618195 0.014299223199486732 0.004264060407876968 -0.003649674355983734
-0.006141854450106621 -0.0080508878454566 -0.014610497280955315 -0.008898671716451645 -0.001683039590716362 -0.009278636425733566 0.012893324717879295 0.01674380712211132
0.01664707623422146 -0.0025363489985466003 -0.009174423292279243 -0.00952232163399458 -0.019235884770751 0.004095485433936119 -0.011210004799067974 0.005618400871753693
-0.018243396654725075 -0.0014941822737455368 0.0030040983110666275 -0.006494905799627304 0.0016879253089427948 0.0017930343747138977 0.0002415534108877182 -0.018925322219729424
0.01773557998239994 0.004084261134266853 -0.0024213362485170364 -0.000911341980099678 0.01674468256533146 -0.013617527671158314 0.014911221340298653 0.01414712704718113
0.006923062726855278 0.010494260117411613 -0.0015877243131399155 -0.004878366366028786 0.00912841223180294 -0.009591858834028244 -0.01725134439766407 0.008524462580680847
-0.001221735030412674 -0.016520589590072632 -0.016389762982726097 -0.01557355560362339 -0.014246619306504726 0.003650253638625145 -0.02024960145354271 -0.012135363183915615
-0.021682873368263245 0.018801162019371986 0.018602905794978142 0.011075569316744804 0.0025837644934654236 -0.0047862716019153595 -0.01935087889432907 -0.0025116167962551117
0.0034203510731458664 -0.0039469413459300995 0.010215261951088905 -0.020482491701841354 0.0017133094370365143 -0.020160099491477013 0.009508514776825905 0.011840282008051872
-0.0009335316717624664 0.002161111682653427 0.0044586025178432465 0.004442121833562851 0.013524031266570091 0.01953241042792797 0.02069779299199581 0.0016161240637302399
-0.022093266248703003 0.01235068030655384 0.007703671231865883 -0.014979864470660686 -0.013736861757934093 0.01828487403690815 -0.015564365312457085 -0.016728218644857407
-0.0002145189791917801 -0.00828779861330986 -0.015255730599164963 -0.010051185265183449 0.015712672844529152 -0.011657815426588058 0.006338819861412048 -0.015852203592658043
0.016904400661587715 0.00892377644777298 -0.018873579800128937 0.021870126947760582 -0.013135631568729877 -0.021304059773683548 -0.021527687087655067 -0.002041708678007126
0.013544538989663124 -0.016448916867375374 0.004170730710029602 -0.005633089691400528 -0.0037810467183589935 0.00844462588429451 -0.00943851564079523 -0.020599056035280228
-0.018091492354869843 -0.0012049730867147446 -0.014321515336632729 0.008893251419067383 -0.018777118995785713 -0.0008978173136711121 -0.01238556019961834 0.0021479111164808273
-0.016513392329216003 -0.012631818652153015 -0.01500687189400196 0.012940185144543648 0.009614882990717888 -0.019711263477802277 0.0002663899213075638 0.004114825278520584
0.01644677110016346 -0.01296014804393053 0.0018924586474895477 -0.011747105978429317 -0.016113145276904106 0.0041996389627456665 -0.00743937399238348 0.0027125421911478043
-0.002097882330417633 0.011920692399144173 0.014052307233214378 0.000546703115105629 0.014744220301508904 -0.004177635535597801 0.013533519580960274 0.014582531526684761
0.008230552077293396 0.018962213769555092 -0.010575613938272 -0.007968773134052753 -0.00031292624771595 0.018414346501231194 -0.010908196680247784 -0.0023125261068344116
-0.004886012524366379 -0.0016037635505199432 0.01118878461420536 0.0004285089671611786 0.016106287017464638 -0.0135647626593709 0.00844060629606247 -0.004940755665302277
-0.00890569481998682 0.0022992007434368134 -0.004393231123685837 -0.021555963903665543 0.0187715832144022 0.019496457651257515 -0.01143421046435833 -0.005166999995708466
0.002991793677210808 0.02148270793259144 0.0003329422324895859 -0.01620037481188774 0.007052358239889145 0.008339965716004372 -0.014591813087463379 -0.008982568047940731
0.02032557688653469 0.008794145658612251 -0.0004885289818048477 0.015113098546862602 0.011438118293881416 -0.00801981519907713 -0.0011446643620729446 0.020487183704972267
0.021786877885460854 0.02125641144812107 -0.019136376678943634 -0.000530702993273735 0.016936616972088814 -0.021120203658938408 0.008346261456608772 0.01996901072561741
0.007579684257507324 0.017849938943982124 0.006013061851263046 -0.001907050609588623 0.008445164188742638 -0.0012133531272411346 -0.010666395537555218 0.013116827234625816
0.01203242875635624 -0.005573602393269539 0.010069338604807854 0.005786541849374771 -0.015297775156795979 -0.004206806421279907 0.006761902943253517 -0.01918415166437626
-0.015970058739185333 -0.0184017401188612 -0.015202075242996216 -0.0020083393901586533 -0.014619488269090652 0.0019021853804588318 0.006734408438205719 -0.0001513175666332245
0.019451672211289406 -0.020914901047945023 -0.021439891308546066 -0.007845272310078144 -0.0202767513692379 -0.013739045709371567 0.00910894013941288 0.02027539350092411
0.0198065098375082 0.013624956831336021 -0.005879124626517296 -0.021689986810088158 0.015143444761633873 -0.01970646157860756 -0.012532109394669533 -0.00024434924125671387
-0.00366952084004879 0.011325797066092491 0.019026650115847588 0.0064700208604335785 0.012059254571795464 -0.012748254463076591 -0.02112521417438984 0.01821737177670002

encoder_layer.linear2.bias f8 [2]
00000000: 0000 0080 4055 763f 0000 00e0 e48b 963f
0.005452396348118782 0.022018028423190117

encoder_layer.norm1.weight f8 [2]
00000000: 0000 0000 0000 f03f 0000 0000 0000 f03f
1.0 1.0

encoder_layer.norm1.bias f8 [2]
00000000: 0000 0000 0000 0000 0000 0000 0000 0000
0.0 0.0

encoder_layer.norm2.weight f8 [2]
00000000: 0000 0000 0000 f03f 0000 0000 0000 f03f
1.0 1.0

encoder_layer.norm2.bias f8 [2]
00000000: 0000 0000 0000 0000 0000 0000 0000 0000
0.0 0.0

transformer_encoder.layers.0.self_attn.in_proj_weight f8 [6, 2]
00000000: c248 295f d65e e63f 1547 0361 2ba3 ebbf
00000010: 70b3 d28c ec06 bc3f f2da 9a0e 83a5 e83f
00000020: 3f7c 3f81 e4f1 c6bf b063 4540 9971 ebbf
00000030: 9bcf bc73 4231 e1bf 7530 3374 bcbd e6bf
00000040: 55d3 8f67 f116 cc3f e5be b59d 01f2 c6bf
00000050: 4e81 c371 8abb e73f ffb9 9af1 8e7b e23f
0.6990768297785268 -0.8636681456357304 0.10948065221846348 0.770204094433977 -0.1792569762319278 -0.857617021111869 -0.5372631321429141 -0.7106611508875306
0.21945016438226142 -0.17926044655495513 0.7416431638667207 0.5775828093372296

transformer_encoder.layers.0.self_attn.in_proj_bias f8 [6]
00000000: 6a8e 9194 9ae8 21be 1b6f ff39 bf3a 63be
00000010: 4c10 e153 066e b3ba 6648 76de 6c9c 22bb
00000020: ccc1 9f03 26f1 933e f1b2 8c34 00cd 873e
-2.0848364463184285e-09 -3.581769836256011e-08 -6.278101825848608e-26 -7.69734416579936e-24 2.971587523817217e-07 1.773296623095912e-07

transformer_encoder.layers.0.self_attn.out_proj.weight f8 [2, 2]
00000000: 6f45 c8e3 096d e53f 8533 e866 f4d8 cf3f
00000010: b15d 11f2 f076 80bf 8533 e866 f3e8 c3bf
0.6695603798745376 0.2488084318614733 -0.00803936232311639 -0.15554659390218376

transformer_encoder.layers.0.self_attn.out_proj.bias f8 [2]
00000000: 8257 3f24 186e 9d3e aa57 3f24 186e 9dbe
4.385420064844583e-07 -4.385420064844604e-07

transformer_encoder.layers.0.linear1.weight f8 [2048, 2]
00000000: ff88 00e0 86aa e0bf ecb7 fbff 379d b1bf
00000010: 0983 ff3f 1f1f de3f f77c 0040 8ce9 df3f
00000020: d5b9 bcda fffb 123f 68a8 0400 f8b3 c13f
00000030: f619 ffdf a833 e5bf c867 fc7f cf25 cd3f
00000040: de92 ff7f d36a d13f 226d 0000 706d d03f
00000050: f94b 0080 01c5 c13f fd12 0080 e220 e0bf
00000060: 2b6c 0200 85e6 b93f f064 ffbf f5fb d83f
00000070: 5b55 00e0 631e e4bf b9aa 0040 542a df3f
00000080: 0000 00c0 80cc d63f 0000 0040 fdb1 db3f
00000090: 568f 00e0 3ced e13f bc1e 0160 ee4a debf
000000a0: 45f9 fe3f df93 e0bf e51a 0480 52f0 c5bf
000000b0: bb13 0040 943d dfbf bb13 00c0 4c9b d33f
000000c0: 1f57 0080 3cc3 e5bf 4aae 0040 ba17 d53f
000000d0: 0000 0000 8cb9 a23f 0000 0060 11f6 d5bf
000000e0: 6248 ff1f ca9f d0bf ae21 fdff 9507 be3f
000000f0: 9def ffdf 52a3 e43f 46df ff9f 3446 d0bf
00000100: 41fe 0200 102c 9d3f 7a40 ffff 0d13 b73f
00000110: 1bf9 00c0 73f2 dc3f 1bf9 0080 0921 dcbf
00000120: 4332 0100 89be c8bf 1b99 0040 60f0 d93f
00000130: 1a9b fe7f 2107 c3bf caa6 ffdf f395 e43f
00000140: 0000 0000 1a17 bfbf 0000 0000 f876 9abf
00000150: 8c50 ffbf 84d8 dc3f 8c50 ff1f eca7 ddbf
00000160: d404 00a0 77ac e03f 86d9 ffff cea7 b33f
00000170: 1463 fd7f 6409 c6bf 774e 01c0 ce3e dcbf
00000180: 988a 00c0 b41f d53f 5045 00e0 5572 e3bf
00000190: 0000 00a0 083e d0bf 0000 00c0 7230 d5bf
000001a0: 0000 0000 20fe 70bf 0000 0020 e44b e0bf
000001b0: 0000 0000 a179 c83f 0000 0080 8201 cc3f
000001c0: 02cb ff7f f9ad d9bf 87e5 ff5f 2931 e03f
000001d0: 1ce3 ffdf 267b e33f 3f9c 0300 2002 9e3f
000001e0: a8dd ff3f c054 df3f 5822 00c0 9147 de3f
000001f0: 1627 00a0 e300 e63f 3b4e 0000 f076 ddbf
00000200: 4d4a 0260 38af d4bf a394 0400 62b4 cb3f
00000210: ae09 0100 7d1b cbbf 6e42 00a0 df78 e23f
00000220: 0000 00c0 1e65 d43f 0000 0000 c043 b33f
00000230: 30ca ff5f 2fbf e4bf e1b9 0600 48c3 98bf
00000240: cc45 fe7f 9901 cfbf 1add 00a0 5523 d4bf
00000250: 7b6a fe3f 3499 d53f e453 f3ff 8120 a7bf
00000260: de8d 0060 8b22 e03f 5a37 0200 aa1f cabf
00000270: 8e72 ff1f 1621 e2bf 5894 fbff 750b be3f
00000280: 0000 00c0 bedf da3f 0000 0040 d17f d93f
00000290: 415c 0380 b0ab cf3f ee28 ff9f 1e4d e13f
000002a0: 0000 0000 4409 c8bf 0000 0040 cf86 ddbf
000002b0: 0000 00e0 19e1 d7bf 0000 0020 dc17 d2bf
000002c0: 4426 01c0 e4c7 d03f f731 0900 14dc a9bf
000002d0: 1371 0600 0660 ae3f d731 ffbf 9402 de3f
000002e0: b501 0060 7749 e1bf a45e 0000 f83a 843f
000002f0: 0602 0060 21fe e13f f2f7 ff7f 703a c83f
00000300: e458 ffff 3224 c03f 8c53 00c0 282d d63f
00000310: 5912 ff3f 79df d23f 2a49 fcff 2a2b b3bf
00000320: 67e7 00c0 a447 d2bf 408c ff1f 2d22 e5bf
00000330: 6d9b ff5f 2727 e23f 9364 00e0 2c75 e63f
00000340: d7b7 0380 6fb9 cebf d8db 01c0 ba3a da3f
00000350: 0000 0080 ca1e d4bf 0000 0000 845b b3bf
00000360: 5758 0040 283c e6bf 353d fdff 16d8 b7bf
00000370: 0000 00a0 e01e e53f 0000 0000 d37c cf3f
00000380: 9115 0080 34a1 d4bf 6fea ffdf d32f d9bf
00000390: eace fe7f db95 cf3f 1562 0200 a245 b63f
000003a0: 8724 0200 3649 cfbf db6d f7ff f9e1 a9bf
000003b0: 0000 0000 f7d2 d3bf 0000 0000 0793 b6bf
000003c0: 08f8 ff1f bf4e e43f e200 feff ffe4 84bf
000003d0: 0000 0080 78af c7bf 0000 0000 82a2 cfbf
000003e0: 70e7 0000 80be b23f 26c6 ff3f 8e67 df3f
000003f0: 718c 00c0 54b9 df3f cbb9 ff9f 2961 e03f
00000400: 1f0a 0040 7f55 d03f 1f0a 0040 dc54 dcbf
00000410: 24ea ff1f 3805 e23f 24ea ffff 26f3 e0bf
00000420: 561d ff7f 4f58 e6bf aae2 0040 f11b e6bf
00000430: 8020 ff3f c5ac e5bf 80df 0080 46b1 e5bf
00000440: 1961 0080 84bc c93f fded f9ff 9742 843f
00000450: 3857 ff5f 7bce e4bf 3857 ff1f ce55 e63f
00000460: b6b9 ffff dbaf e5bf 4a46 0000 a06e e2bf
00000470: 67cd faff a701 a5bf 54a6 0060 1167 dfbf
00000480: f033 ffdf 01d5 e4bf 2f98 01c0 c627 dfbf
00000490: 0000 0040 989a df3f 0000 00a0 b1b0 e13f
000004a0: f72b 0900 10d5 a3bf 486d ff7f dcb6 e5bf
000004b0: c363 0000 85be d4bf f68e 0100 91ef b13f
000004c0: 1791 fbff e9ea b9bf 44e4 fe3f 291f d13f
000004d0: f445 01c0 5931 da3f 0cba febf 325c d63f
000004e0: 8f70 faff 0501 b6bf d263 0140 c5e2 d6bf
000004f0: f7fa ffbf c1c5 d93f adbe feff 4f40 7fbf
00000500: 0000 0040 91a1 d83f 0000 0000 513b d23f
00000510: 2b2e 00e0 0572 dbbf 1117 0060 9416 e03f
00000520: 0000 0000 0e8a ba3f 0000 0040 058a db3f
00000530: 0dbf feff 0b23 d2bf f681 0280 1d8b cfbf
00000540: f85c 0060 3596 e23f dbb9 00a0 0f03 d1bf
00000550: 1dbc 00a0 3578 e53f 1178 0160 67f9 d8bf
00000560: 4316 0040 4d5f e1bf 1065 0100 8876 ab3f
00000570: 8974 0700 a87e 8a3f 5577 0000 ceac cdbf
00000580: 9aa8 0000 fb75 b63f 2b2a 00e0 72e4 dcbf
00000590: fe26 00a0 5867 e23f 02d9 ffdf c184 e13f
000005a0: 907d ffff cfde bebf a820 0020 52a7 dbbf
000005b0: 0000 0000 8a04 c6bf 0000 0000 3043 dfbf
000005c0: f23c 00c0 24ec d33f 761e 00a0 9c18 e4bf
000005d0: 8ee2 fdbf f418 df3f 721d 0240 9639 db3f
000005e0: 0000 00c0 78a0 d63f 0000 00c0 2433 db3f
000005f0: d5ba ff9f 5df6 e03f a675 ffff e7da d0bf
00000600: bd13 00a0 22b5 e33f e69d 0000 374d babf
00000610: 45b2 ffff 30a6 b63f 96ec ff1f 6e52 d3bf
00000620: 9f29 0080 79ad e0bf 9f29 00e0 810b e53f
00000630: 0000 0040 2527 e3bf 0000 00a0 cc48 d1bf
00000640: bbed 0100 bcfc b13f 8e84 ff3f e8bd d93f
00000650: 0000 0020 f5b1 e2bf 0000 00c0 3c68 dfbf
00000660: 0000 0000 a49f babf 0000 00c0 393f da3f
00000670: 78d0 ffff 22e9 bc3f cb17 0080 c23a c93f
00000680: c8ea fdff 9ad3 c7bf ac7a ff5f 8d8d e03f
00000690: 0000 0000 5e1b a3bf 0000 0000 96a8 d0bf
000006a0: ae3e 0100 8a09 b2bf d327 00e0 6562 e23f
000006b0: 0000 00c0 f2f9 e1bf 0000 0000 dcea b5bf
000006c0: 6267 0500 1fe3 c8bf df59 0120 24eb e43f
000006d0: 3623 0020 2946 e3bf cadc ff9f ea86 e4bf
000006e0: ff43 ff9f 5cba d2bf ff43 ffbf 12dc df3f
000006f0: 5add ff1f b491 e6bf 6a45 00e0 b66d d2bf
00000700: 202e 0000 871c e6bf 19e2 0200 68de ae3f
00000710: 775a febf 8814 d13f f54a 0300 db20 c63f
00000720: e199 ff1f 647d d8bf eacc ff1f 6683 e23f
00000730: 4b0b f7ff 4731 b43f c3d2 2300 8814 983f
00000740: e7b9 ffbf cdb1 d53f e6dc ff5f 48f1 e1bf
00000750: 5dae 0400 1481 a73f 21b5 ffdf 5c59 e23f
00000760: 563d fe1f 3ab9 d8bf 5de1 0080 d81f e6bf
00000770: c5d0 d0ff df49 743f f1f2 0200 3d5c b13f
00000780: ee20 00c0 ed49 d33f 7610 00c0 164f e2bf
00000790: 0000 0000 ab95 b43f 0000 0000 8bf4 cebf
000007a0: 06ee ff3f 4148 e0bf 0f24 00c0 75b3 d3bf
000007b0: 51d0 1000 545e 9e3f 7d79 ffdf ee04 e53f
000007c0: 0000 00e0 da43 e23f 0000 0020 f61f e33f
000007d0: 0bda ff1f 726b e13f f525 00a0 9419 e43f
000007e0: 03c9 ff3f d11a db3f 03c9 ff1f 925a d1bf
000007f0: 707b 01c0 cc6f df3f e7f6 0280 4163 cabf
-0.5208162665406063 -0.06880521773902587 0.47064954042257107 0.49862962961374485 7.241963492952222e-05 0.13830471039665615 -0.6625561118060534 0.22771638631166824
0.2721451520904291 0.25667953491366025 0.13882464170509914 -0.5040142536168727 0.1011736989043334 0.39037841558236064 -0.6287097334886015 0.4869585633302154
0.3562318682670593 0.43273860216140747 0.5602096915285795 -0.4733234345953681 -0.5180507898256016 -0.171396553523855 -0.4881334900858822 0.30635374784497643
-0.6800825595880474 0.32957321405658446 0.03657186031341553 -0.3431437909603119 -0.25975278019644155 0.11730325221754498 0.6449369788165203 -0.25428500771476015
0.028488397598947172 0.09013450145653393 0.452298104766571 -0.43951642513629147 -0.19331467151859458 0.4052963852904143 -0.14865511655553904 0.6433047652219213
-0.12144625186920166 -0.025844454765319824 0.4507152438138824 -0.463374167678247 0.5210531353951873 0.07677930593476931 -0.17216163873197188 -0.4413334727334823
0.33006018400389214 -0.6077069640179307 -0.25378623604774475 -0.3310820460319519 -0.004148602485656738 -0.5092640519142151 0.19121181964874268 0.21879607439041138
-0.4012435674659828 0.5060011744491683 0.608783185481204 0.02930498123251035 0.4895477890963442 0.4731182456021421 0.6876085400592469 -0.4603843688975961
-0.3231945931994787 0.21644234658120806 -0.21177637577245662 0.5772550702113912 0.3186718821525574 0.07525253295898438 -0.6483380198463404 -0.024182438851932168
-0.242236316200929 -0.3146566450627276 0.3374758362712453 -0.045169889921147705 0.5042168498079567 -0.2040913105051299 -0.5665388703306051 0.11736238002375055
0.4199063181877136 0.398426353931427 0.24742704630509318 0.5406640171943573 -0.18778276443481445 -0.4613531231880188 -0.37311407923698425 -0.28270629048347473
0.26220053434790125 -0.050507187847504235 0.05932635069186367 0.46890753507321165 -0.540218055248309 0.009878098964733191 0.5622717738152125 0.18928343057626723
0.1261047124850797 0.34650629758953566 0.2948897480930888 -0.0748774409260348 -0.2856227755579454 -0.6604219078984741 0.5672795176477458 0.7018036246328329
-0.24003404379567314 0.40983456373890936 -0.31437933444976807 -0.07561516761779785 -0.6948434114481284 -0.0931410193418188 0.6600192189216614 0.24599683284759521
-0.3223391771319593 -0.39354416727989067 0.24676078557751363 0.08700001239993356 -0.24442172050865826 -0.05055218934623059 -0.3097512722015381 -0.08818095922470093
0.6346126198766351 -0.010202407836687081 -0.18504244089126587 -0.2471468448638916 0.07321929931722848 0.4906955361358051 0.49568670988282465 0.5118606686572148
0.2552183270455845 -0.44267946481719095 0.5631371140473829 -0.5296816825860486 -0.698280096047635 -0.6909109354083587 -0.6773401498731033 -0.6778900623385056
0.2010655999190554 0.009892642497326238 -0.6502053141545963 0.6979742646169376 -0.677717208860307 -0.5760040283223102 -0.04102826118232877 -0.49066576361892555
-0.6510018706263718 -0.4868027567921471 0.4938107132911682 0.5528190732002258 -0.03873491287648528 -0.6785719394642138 -0.3241283893599382 0.07006174326084733
-0.10124075412347043 0.26752692460610583 0.40926212072835644 0.34937733411325733 -0.08595311641187407 -0.3575909733822843 0.4026951193808794 -0.007629692554402529
0.3848612904548645 0.2848703861236572 -0.4288344085223083 0.502756297589004 0.10366904735565186 0.4302991032600403 -0.28338909148713826 -0.24643296003797815
0.5808359980609614 -0.2658118307616896 0.6709240078979551 -0.39022240043220885 -0.5428835153586039 0.0536386966711665 0.012936890126122218 -0.23183608055199537
0.08773773908675012 -0.45144340395987353 0.575115501881754 0.5474557280529384 -0.12058734893752487 -0.4320874512200228 -0.172013521194458 -0.4884757995605469
0.31128805875864807 -0.6280043721207693 0.4858981966895407 0.4253898263054544 0.3535444140434265 0.424996554851532 0.5300739407519709 -0.26336097717088547
0.6158612370496638 -0.10274070501383611 0.08847337961169284 -0.30190613865824767 -0.5211760997784046 0.6576547026646046 -0.5985285043716431 -0.27006831765174866
0.07026267051872186 0.4022160172444921 -0.5842233300209045 -0.4907371401786804 -0.10399842262268066 0.4101089835166931 0.11293238401396077 0.1971057057382367
-0.18614518642046662 0.5172793269119516 -0.03731817007064819 -0.26028966903686523 -0.07045805454367368 0.5745114684116238 -0.5617612600326538 -0.08561491966247559
-0.1944311857321806 0.6537037491896703 -0.6023145318041319 -0.6414692997922427 -0.2926246225807176 0.49780720472068646 -0.7052860856046366 -0.28794643282988963
-0.6909823417676684 0.060290575028776945 0.26687830685970176 0.1728776693404012 -0.3826532661900313 0.5785399079308295 0.078876972190341 0.023515820511380136
0.338977277277904 -0.5607034564008273 0.045906662943107725 0.5734085440614402 -0.38630536197975596 -0.6913874149386562 0.004953265187442384 0.06781369447976339
0.30138725042389936 -0.572154402733317 0.08040875196456909 -0.24183785915374756 -0.5088201761240618 -0.30782836675695163 0.029656708244332034 0.6568521857223427
0.5707830786705017 0.5976515412330627 0.5443659424771011 0.6281226277362167 0.42351180314939557 -0.2711530029765898 0.4911987185532132 -0.2061540484482329
