Transformer-Time-Series-Forecasting-main/save_model/best_train_2.pth (torch, 518471 bytes, 74 tensors)

encoder_layer.self_attn.in_proj_weight f8 [6, 2]
0	0x3fe73e2760000000	0.7263371348381042
1	0xbfe26903a0000000	-0.5753191113471985
2	0xbfc7f53900000000	-0.1871711015701294
3	0x3fead14d60000000	0.838049590587616
4	0xbfdcb605a0000000	-0.44860973954200745
5	0xbfd640a4c0000000	-0.347695529460907
6	0x3fd83cf0c0000000	0.3787195086479187
7	0xbf762f6000000000	-0.005416274070739746
8	0x3fe4328ae0000000	0.6311697363853455
9	0x3fd5a3d4c0000000	0.33812445402145386
10	0x3fe9aae460000000	0.8021108508110046
11	0x3fd169d140000000	0.272083580493927

encoder_layer.self_attn.in_proj_bias f8 [6]
0	0x0000000000000000	0.0
1	0x0000000000000000	0.0
2	0x0000000000000000	0.0
3	0x0000000000000000	0.0
4	0x0000000000000000	0.0
5	0x0000000000000000	0.0

encoder_layer.self_attn.out_proj.weight f8 [2, 2]
0	0xbfcc63d400000000	-0.22179651260375977
1	0xbfa99f2200000000	-0.05004221200942993
2	0x3fc2744600000000	0.14417338371276855
3	0x3fe3ab57a0000000	0.6146658062934875

encoder_layer.self_attn.out_proj.bias f8 [2]
0	0x0000000000000000	0.0
1	0x0000000000000000	0.0

encoder_layer.linear1.weight f8 [2048, 2]
0	0xbfde0d0e80000000	-0.469546914100647
1	0xbfe4c669c0000000	-0.64922034740448
2	0xbfdc951800000000	-0.44659996032714844
3	0xbfb35f7a00000000	-0.0756756067276001
4	0x3fb785d800000000	0.09188604354858398
5	0x3fe14a41e0000000	0.5403146147727966
6	0xbfcae5f5c0000000	-0.2101428210735321
7	0x3fe5b85b20000000	0.6787543892860413
8	0xbfd37be2c0000000	-0.3044363856315613
9	0x3fdd5437c0000000	0.4582652449607849
10	0x3fe23450e0000000	0.5688862204551697
11	0x3fc47a1280000000	0.1599753499031067
12	0x3fb3433b00000000	0.07524460554122925
13	0xbfc8273380000000	-0.18869632482528687
14	0x3fd8bc9040000000	0.3865090012550354
15	0xbfd03c5460000000	-0.2536822259426117
16	0xbfd30695a0000000	-0.29727688431739807
17	0x3fb4525000000000	0.07938098907470703
18	0xbfd3b4b820000000	-0.3079052269458771
19	0x3fda2b5c40000000	0.4088965058326721
20	0xbfd8e7a5c0000000	-0.3891386389732361
21	0x3fd5c0f6c0000000	0.3399025797843933
22	0x3fd906e340000000	0.39104539155960083
23	0x3fb4b84e00000000	0.08093726634979248
24	0xbfd7983660000000	-0.36866530776023865
25	0x3fd52480c0000000	0.3303529620170593
26	0x3fe5c595e0000000	0.6803693175315857
27	0x3fca2b7200000000	0.2044508457183838
28	0x3fd355c8c0000000	0.30211085081100464
29	0x3fe0a048a0000000	0.5195658802986145
30	0xbfd2373460000000	-0.28461942076683044
31	0x3fcc42c900000000	0.2207881212234497
32	0x3fa63daa00000000	0.04343920946121216
33	0xbfe1df11c0000000	-0.5584801435470581
34	0xbfb8d58c00000000	-0.09700846672058105
35	0xbfe49a5f20000000	-0.6438441872596741
36	0xbfa33dd000000000	-0.03758096694946289
37	0xbfcf382c80000000	-0.243901789188385
38	0xbfc50f1a80000000	-0.1645234227180481
39	0x3fde268740000000	0.4711015820503235
40	0xbfc6850580000000	-0.17593449354171753
41	0xbfbdeaa700000000	-0.11686176061630249
42	0xbfa61d0e00000000	-0.04319041967391968
43	0x3fdc9e9d40000000	0.4471810460090637
44	0xbfe53d0280000000	-0.6636974811553955
45	0x3fadc15200000000	0.05811554193496704
46	0x3fc717b100000000	0.1804105043411255
47	0x3fd027d380000000	0.25243079662323
48	0x3f95b79c00000000	0.021208226680755615
49	0xbfdbc61800000000	-0.43396568298339844
50	0x3fe5b8e820000000	0.6788216233253479
51	0x3fd8f7e240000000	0.39012962579727173
52	0xbfcea41d80000000	-0.23938339948654175
53	0x3f8d0d8800000000	0.014185965061187744
54	0xbfc82a8e00000000	-0.1887986660003662
55	0xbfe4854960000000	-0.6412703394889832
56	0x3fd4a77ec0000000	0.3227230906486511
57	0x3fdcb6d9c0000000	0.44866031408309937
58	0xbfd36e2ae0000000	-0.303599089384079
59	0xbfe1368e40000000	-0.5379096269607544
60	0x3f5cf54000000000	0.0017674565315246582
61	0xbfe3342240000000	-0.6001139879226685
62	0xbfca6f4600000000	-0.20652079582214355
63	0x3fd029c1c0000000	0.2525486350059509
64	0xbfe30d0ea0000000	-0.5953438878059387
65	0x3fe26f0e60000000	0.5760566592216492
66	0x3fdd4ca140000000	0.4578021168708801
67	0x3fe08e7c60000000	0.5173932909965515
68	0xbfc2e73080000000	-0.1476803421974182
69	0xbfe163e100000000	-0.5434422492980957
70	0x3fdcb60a40000000	0.4486108422279358
71	0x3f977bcc00000000	0.02293318510055542
72	0xbfdd29bba0000000	-0.45567217469215393
73	0x3fdd763540000000	0.46033984422683716
74	0x3fdbdbbcc0000000	0.4352867007255554
75	0xbfd27cc920000000	-0.2888663113117218
76	0xbfe2b050a0000000	-0.5840228199958801
77	0x3fc9571e80000000	0.1979711651802063
78	0x3fd89106c0000000	0.38385170698165894
79	0x3fe525bd20000000	0.6608567833900452
80	0x3fe6164760000000	0.6902195811271667
81	0x3fe5e53460000000	0.6842290759086609
82	0xbf958d6c00000000	-0.02104729413986206
83	0x3fe2495e60000000	0.5714561343193054
84	0xbfba24ca00000000	-0.10212385654449463
85	0xbfb2a41600000000	-0.07281625270843506
86	0xbfcc279340000000	-0.21995773911476135
87	0x3fb4b80f00000000	0.08093351125717163
88	0xbfe2fa2c80000000	-0.59303879737854
89	0xbfd9dec9c0000000	-0.40422290563583374
90	0xbfab56d800000000	-0.05339694023132324
91	0x3fdb768d40000000	0.4291108250617981
92	0xbfe4ec1100000000	-0.6538166999816895
93	0xbfe67f6c60000000	-0.7030546069145203
94	0xbfd4feae00000000	-0.32804441452026367
95	0xbfc7ebf880000000	-0.18688875436782837
96	0x3fdd917ec0000000	0.4620053172111511
97	0x3fbc866300000000	0.11142557859420776
98	0x3fe0da6020000000	0.5266571640968323
99	0xbfe4927820000000	-0.6428795456886292
100	0x3fe66fc520000000	0.7011438012123108
101	0xbfe54cc940000000	-0.6656233072280884
102	0xbfdc5c1c20000000	-0.44312193989753723
103	0xbfc48d1d80000000	-0.16055649518966675
104	0xbfe0c947a0000000	-0.5245702862739563
105	0x3fc8ed5000000000	0.19474220275878906
106	0xbfe2506560000000	-0.5723139643669128
107	0xbfde7525c0000000	-0.4759001135826111
108	0xbfd37333e0000000	-0.3039064109325409
109	0x3fe3e5b7a0000000	0.621791660785675
110	0xbfda769860000000	-0.4134884774684906
111	0x3fe59629a0000000	0.6745803952217102
112	0x3fcaf7dd80000000	0.2106892466545105
113	0xbfc6830f80000000	-0.17587465047836304
114	0xbfa2e7b400000000	-0.036924004554748535
115	0xbfe4b41860000000	-0.6469842791557312
116	0xbfc4820f80000000	-0.16021913290023804
117	0xbfcebb8f40000000	-0.24009886384010315
118	0x3fda1145c0000000	0.40730422735214233
119	0xbfde8f9b80000000	-0.4775151014328003
120	0xbfe3438b20000000	-0.601995050907135
121	0xbfb94dd200000000	-0.09884369373321533
122	0xbfe3827e20000000	-0.6096792817115784
123	0x3fd1b5d440000000	0.2767229676246643
124	0xbfe54528c0000000	-0.6646922826766968
125	0x3fa8d56000000000	0.04850292205810547
126	0x3fbf8f1b00000000	0.12327736616134644
127	0x3fe4dd9ba0000000	0.6520517468452454
128	0xbfa4a46600000000	-0.040316760540008545
129	0xbfc2943680000000	-0.14514809846878052
130	0x3fe0be0a20000000	0.5231981873512268
131	0xbfe43610e0000000	-0.6315998435020447
132	0x3fe29cb460000000	0.5816289782524109
133	0x3fddd02bc0000000	0.4658307433128357
134	0xbfc56ff780000000	-0.16747945547103882
135	0x3fe5d6d060000000	0.6824724078178406
136	0xbfbb211c00000000	-0.10597395896911621
137	0xbfb23c3400000000	-0.07123112678527832
138	0x3fc3ab0280000000	0.15365630388259888
139	0x3fdf0d8940000000	0.4852011799812317
140	0xbfc4b63380000000	-0.16181033849716187
141	0xbfd28934a0000000	-0.2896243631839752
142	0xbfe0dbd5a0000000	-0.5268352627754211
143	0xbfdf632160000000	-0.4904254376888275
144	0x3fd60821c0000000	0.3442463278770447
145	0xbfa2e28800000000	-0.03688454627990723
146	0x3fd57c6540000000	0.33571749925613403
147	0xbfd15489e0000000	-0.27078482508659363
148	0xbfa3f40800000000	-0.0389711856842041
149	0xbfd886c680000000	-0.38322603702545166
150	0xbfe680a2a0000000	-0.7032025456428528
151	0x3fd1b8ba40000000	0.27689987421035767
152	0xbfe63eace0000000	-0.6951507925987244
153	0xbfe4e12900000000	-0.6524853706359863
154	0xbfd6e38e00000000	-0.3576388359069824
155	0xbfdd00cb40000000	-0.4531734585762024
156	0xbfb00c5b00000000	-0.06268852949142456
157	0xbfdc32f700000000	-0.4406106472015381
158	0x3fe0ab6260000000	0.5209209322929382
159	0x3fd0729980000000	0.2569946050643921
160	0x3fb17f8500000000	0.06835204362869263
161	0xbfe316c820000000	-0.5965309739112854
162	0xbfe5eb3760000000	-0.6849629282951355
163	0x3fcb288c00000000	0.2121748924255371
164	0xbfe34d4860000000	-0.603183925151825
165	0x3fdbda5040000000	0.4351997971534729
166	0x3fe3f44860000000	0.623569667339325
167	0xbfe535faa0000000	-0.6628392338752747
168	0xbfe10fd1e0000000	-0.5331811308860779
169	0xbf8f734800000000	-0.015356600284576416
170	0x3fe5718f20000000	0.6701121926307678
171	0x3fc7749380000000	0.18324512243270874
172	0xbfe01d07c0000000	-0.5035437345504761
173	0x3fe40fcd60000000	0.626928985118866
174	0x3fbb1dc400000000	0.10592293739318848
175	0x3fe1bb2920000000	0.5540967583656311
176	0x3fe259dee0000000	0.5734705328941345
177	0x3fd80c39c0000000	0.3757461905479431
178	0xbfd6a671a0000000	-0.3539089262485504
179	0x3fe250bae0000000	0.5723547339439392
180	0x3fe2551e60000000	0.5728904604911804
181	0x3fe5d41520000000	0.682138979434967
182	0x3fe5ed25e0000000	0.6851987242698669
183	0x3fc6e0f380000000	0.17873996496200562
184	0xbfd8eab200000000	-0.3893246650695801
185	0xbfb1121200000000	-0.06668198108673096
186	0x3fd82cdd40000000	0.3777382969856262
187	0xbfde68a300000000	-0.47513651847839355
188	0xbfe1a12300000000	-0.5509200096130371
189	0x3fae790e00000000	0.05951732397079468
190	0xbfe5250700000000	-0.6607699394226074
191	0xbfbcd56f00000000	-0.11263173818588257
192	0xbfb8a9d100000000	-0.09634119272232056
193	0x3fcea18400000000	0.2393040657043457
194	0x3fe6446ca0000000	0.6958525776863098
195	0xbfc6e58500000000	-0.17887938022613525
196	0xbfb5c62600000000	-0.08505475521087646
197	0x3f90199c00000000	0.015722692012786865
198	0x3fe1595960000000	0.5421568751335144
199	0x3fe41ff8a0000000	0.6289027333259583
200	0xbfe3d5bda0000000	-0.6198413968086243
201	0xbfda54d620000000	-0.4114280045032501
202	0x3fdb7f63c0000000	0.4296502470970154
203	0x3fda008340000000	0.4062812924385071
204	0x3fd5bbe9c0000000	0.339594304561615
205	0xbfb04b8400000000	-0.06365227699279785
206	0x3fcc851b80000000	0.22281211614608765
207	0x3fd7619840000000	0.3653317093849182
208	0xbfdedaf780000000	-0.48211467266082764
209	0x3fe61e4fe0000000	0.6912001967430115
210	0xbf82be2000000000	-0.009151697158813477
211	0xbfe01c59a0000000	-0.503460705280304
212	0x3fc7f3cb80000000	0.18712753057479858
213	0xbfa34dd600000000	-0.03770321607589722
214	0x3fb1fe0000000000	0.070281982421875
215	0x3fdd770b40000000	0.4603908658027649
216	0xbfc7058180000000	-0.17985552549362183
217	0xbfd155da00000000	-0.27086496353149414
218	0xbfe5c5fd20000000	-0.6804185509681702
219	0x3f93c4b400000000	0.019305050373077393
220	0xbf79fd4000000000	-0.006345033645629883
221	0x3fc8309b00000000	0.18898332118988037
222	0x3fc4f7c280000000	0.16381102800369263
223	0x3fdf5267c0000000	0.4894046187400818
224	0x3fce647c80000000	0.23744159936904907
225	0xbfda08a160000000	-0.4067767560482025
226	0xbfe0adec40000000	-0.5212308168411255
227	0x3fdc4cb940000000	0.44218283891677856
228	0xbfc1aa1080000000	-0.1380024552345276
229	0xbfd5c06040000000	-0.3398666977882385
230	0xbfb179b100000000	-0.06826311349868774
231	0xbf9bc2a400000000	-0.02710968255996704
232	0xbfcc1f6700000000	-0.21970832347869873
233	0xbfc2919680000000	-0.1450679898262024
234	0x3fd6b9d6c0000000	0.35509270429611206
235	0x3fdc3955c0000000	0.44099944829940796
236	0xbfb76e4c00000000	-0.09152674674987793
237	0xbfdc6d5700000000	-0.44417357444763184
238	0xbfba076600000000	-0.10167539119720459
239	0x3fe332b6a0000000	0.5999405980110168
240	0xbfdfac2300000000	-0.49488139152526855
241	0xbfb0638300000000	-0.06401842832565308
242	0xbfae1a2000000000	-0.058793067932128906
243	0x3fb8e0e100000000	0.09718137979507446
244	0x3fe38d4ee0000000	0.6109995245933533
245	0x3fe4ef7f20000000	0.6542354226112366
246	0x3fd4af2bc0000000	0.3231915831565857
247	0xbfd0759d60000000	-0.2571786344051361
248	0xbfe512bda0000000	-0.6585376858711243
249	0xbfd3a33ce0000000	-0.3068382441997528
250	0x3fe5af0de0000000	0.6776189208030701
251	0x3fde6172c0000000	0.4746977686882019
252	0xbfc3a24880000000	-0.15338999032974243
253	0xbfd0217920000000	-0.2520430386066437
254	0x3fe46f4560000000	0.6385828852653503
255	0x3fc86fed80000000	0.1909157633781433

encoder_layer.linear1.bias f8 [2048]
0	0x3f9f210800000000	0.030399441719055176
1	0x3fd8d80040000000	0.3881836533546448
2	0xbfc26c8580000000	-0.14393681287765503
3	0xbfc2dd0b80000000	-0.14737075567245483
4	0xbfe4702500000000	-0.6386895179748535
5	0xbfd1d25700000000	-0.27846312522888184
6	0x3fdbeeaf40000000	0.43644315004348755
7	0x3fd4a01ac0000000	0.32227200269699097
8	0x3fe5c73620000000	0.6805678009986877
9	0xbfe285fbc0000000	-0.5788553953170776
10	0x3fa1b76e00000000	0.034602582454681396
11	0xbfc41f0f80000000	-0.15719789266586304
12	0xbfb1bf2200000000	-0.06932270526885986
13	0xbfde5d8740000000	-0.4744585156440735
14	0xbfc6c23280000000	-0.17780143022537231
15	0x3fe29cc0e0000000	0.5816349387168884
16	0x3fd6d3ff40000000	0.3566892743110657
17	0x3fe5df0f20000000	0.6834788918495178
18	0xbfd5ca11e0000000	-0.34045836329460144
19	0xbfc2dfd880000000	-0.14745622873306274
20	0x3fe2e3e360000000	0.5903183817863464
21	0x3fc4d33300000000	0.1626952886581421
22	0x3fe244dda0000000	0.5709064602851868
23	0x3fdf133ec0000000	0.4855496287345886
24	0x3fb5efac00000000	0.08568835258483887
25	0xbfdbfb9480000000	-0.4372302293777466
26	0xbfe4f34360000000	-0.6546952128410339
27	0xbfc5aa5780000000	-0.1692609190940857
28	0xbfe6641480000000	-0.6997168064117432
29	0xbfd7536ca0000000	-0.3644668161869049
30	0x3fe6267a20000000	0.6921969056129456
31	0xbfc10edf00000000	-0.13326632976531982
32	0x3fab723e00000000	0.05360597372055054
33	0xbfbaa9b200000000	-0.10415184497833252
34	0x3fe030e460000000	0.5059682726860046
35	0xbf975edc00000000	-0.022822797298431396
36	0x3fdfd22640000000	0.49720150232315063
37	0x3fe5992920000000	0.6749463677406311
38	0x3fd91242c0000000	0.39173954725265503
39	0x3fdfa38240000000	0.494354784488678
40	0x3fd6ca8140000000	0.3561099171638489
41	0x3fc9a39980000000	0.20030516386032104
42	0xbfe4a3c160000000	-0.6449896693229675
43	0x3fe6629ee0000000	0.6995386481285095
44	0xbf9218c000000000	-0.01767253875732422
45	0x3fe5ba3260000000	0.6789790987968445
46	0xbfd40a28c0000000	-0.3131200671195984
47	0x3fce9dcc80000000	0.23919063806533813
48	0xbfe40b92a0000000	-0.6264126896858215
49	0xbfe11a3440000000	-0.5344487428665161
50	0xbfd4b1f7e0000000	-0.3233623206615448
51	0x3fe4acc220000000	0.6460886597633362
52	0xbfdc4b1620000000	-0.4420829117298126
53	0x3fba496300000000	0.10268229246139526
54	0xbf9db8c800000000	-0.02902519702911377
55	0xbfe3ab9d80000000	-0.614699125289917
56	0x3fc0f4af00000000	0.1324671506881714
57	0x3fd260e5c0000000	0.2871641516685486
58	0x3f5e804000000000	0.0018616318702697754
59	0x3fd1321180000000	0.2686809301376343
60	0x3f9cd38c00000000	0.028150737285614014
61	0xbfe1c5d320000000	-0.5553985238075256
62	0xbfabed4200000000	-0.05454450845718384
63	0xbfd7b78c20000000	-0.3705778419971466
64	0xbfd18357c0000000	-0.27364152669906616
65	0x3fe3bacee0000000	0.6165537238121033
66	0x3fdd339440000000	0.4562731385231018
67	0xbfd1cdf0a0000000	-0.2781945765018463
68	0xbfd7d452c0000000	-0.37233418226242065
69	0x3fd5698740000000	0.3345659375190735
70	0xbf8ba5c000000000	-0.013499736785888672
71	0x3fc1023100000000	0.132879376411438
72	0x3fa1464800000000	0.033739328384399414
73	0x3fdca09840000000	0.4473019242286682
74	0xbfc1aa7580000000	-0.13801449537277222
75	0x3fd1e0ae00000000	0.27933835983276367
76	0xbfccbfbb00000000	-0.224601149559021
77	0x3fd32aefc0000000	0.2994956374168396
78	0x3fc7cd6600000000	0.18595576286315918
79	0xbfe34a7080000000	-0.6028368473052979
80	0xbfc6044d00000000	-0.1720062494277954
81	0xbfa49ece00000000	-0.040274083614349365
82	0x3fcaa0bb00000000	0.208030104637146
83	0xbfddfad5c0000000	-0.46843475103378296
84	0xbfd0ba7d60000000	-0.26138243079185486
85	0x3fda2e4e40000000	0.4090762734413147
86	0x3fe08b9620000000	0.5170393586158752
87	0xbfd39eb0a0000000	-0.3065606653690338
88	0xbfdbb86ec0000000	-0.4331318736076355
89	0x3fd046e540000000	0.25432711839675903
90	0x3fa5f29e00000000	0.042866647243499756
91	0x3fc5d6ba80000000	0.17061549425125122
92	0x3fba7a1400000000	0.10342526435852051
93	0xbfe585d720000000	-0.6725879311561584
94	0x3fd075aec0000000	0.257182776927948
95	0xbfe476d9e0000000	-0.6395081877708435
96	0x3fc9f09600000000	0.20265460014343262
97	0xbfc4ff9780000000	-0.16405004262924194
98	0xbfdf8ae800000000	-0.49285316467285156
99	0xbfe09fde80000000	-0.5195152759552002
100	0xbfd2ed3580000000	-0.29572808742523193
101	0x3fe27047a0000000	0.5762060284614563
102	0xbfd5ffd500000000	-0.34373974800109863
103	0x3fe1a90f20000000	0.5518870949745178
104	0x3fe11c7f60000000	0.5347287058830261
105	0xbfe23a8d20000000	-0.5696473717689514
106	0x3fc5e65a80000000	0.17109233140945435
107	0xbfe671f8e0000000	-0.7014126181602478
108	0xbfe3d97ee0000000	-0.620299756526947
109	0x3fd0f971c0000000	0.2652248740196228
110	0x3fe28a7ae0000000	0.5794042944908142
111	0x3fc12f8700000000	0.13426291942596436
112	0xbfbabcb000000000	-0.10444164276123047
113	0xbfe04cfa40000000	-0.5093966722488403
114	0xbfe3ffd040000000	-0.6249772310256958
115	0xbfd3dcacc0000000	-0.3103439211845398
116	0xbfe3ec2060000000	-0.6225740313529968
117	0x3fd78fc8c0000000	0.36815088987350464
118	0xbfdc4e01e0000000	-0.4422611892223358
119	0x3fe6030aa0000000	0.6878712773323059
120	0x3fe2500620000000	0.572268545627594
121	0x3fa915d200000000	0.048994600772857666
122	0x3fe5e958e0000000	0.6847347617149353
123	0xbfe65c90a0000000	-0.6987994313240051
124	0x3fcc52e180000000	0.2212793231010437
125	0xbfe1b37e00000000	-0.5531606674194336
126	0x3fce9e0080000000	0.23919683694839478
127	0x3fe5de2520000000	0.6833673119544983
128	0xbfdb5028c0000000	-0.4267675280570984
129	0xbfc508fe80000000	-0.16433697938919067
130	0x3fbd3ccf00000000	0.1142091155052185
131	0x3fbe6bed00000000	0.11883431673049927
132	0xbfe663a280000000	-0.699662446975708
133	0xbfada8d600000000	-0.05792874097824097
134	0xbfd5424d20000000	-0.3321717083454132
135	0x3fcab56e00000000	0.20866179466247559
136	0xbfe3b61fe0000000	-0.6159819960594177
137	0xbfe6992100000000	-0.7061924934387207
138	0x3fd4e36940000000	0.32638007402420044
139	0x3fdabc7940000000	0.41775351762771606
140	0xbfd2087d20000000	-0.2817681133747101
141	0xbfbab3fe00000000	-0.10430896282196045
142	0x3fd647f9c0000000	0.3481430411338806
143	0x3fd4ae3e40000000	0.3231349587440491
144	0x3fe02f4860000000	0.505771815776825
145	0x3fd3807940000000	0.30471640825271606
146	0x3f9b852000000000	0.026875019073486328
147	0xbfbe497000000000	-0.11830806732177734
148	0xbf9c7a8400000000	-0.027811110019683838
149	0x3fbf962300000000	0.12338465452194214
150	0x3fe2d07420000000	0.5879459977149963
151	0xbfb6b96100000000	-0.08876615762710571
152	0xbfe59ded60000000	-0.6755282282829285
153	0x3fe11715e0000000	0.5340680480003357
154	0xbfe5322ec0000000	-0.662375807762146
155	0xbfc1db6680000000	-0.13950806856155396
156	0x3fe0dc23e0000000	0.5268725752830505
157	0xbfe2f55180000000	-0.5924460887908936
158	0xbfcc63c740000000	-0.221794992685318
159	0xbfe4b8c780000000	-0.6475560665130615
160	0x3fe41fc920000000	0.6288800835609436
161	0x3fd86c35c0000000	0.3816046118736267
162	0xbfe218e1c0000000	-0.5655373334884644
163	0x3fe1e4c1e0000000	0.5591744780540466
164	0x3fd019e900000000	0.25158143043518066
165	0xbfe56d1440000000	-0.6695653200149536
166	0xbfd223bc00000000	-0.2834310531616211
167	0xbfd81ba940000000	-0.37668830156326294
168	0xbfc1e80780000000	-0.13989347219467163
169	0xbfe40147c0000000	-0.6251562833786011
170	0x3fe23ebca0000000	0.5701583027839661
171	0x3fe16e4360000000	0.5447098612785339
172	0x3f64d04000000000	0.0025407075881958008
173	0xbfb03fb400000000	-0.06347203254699707
174	0x3fc2a0bf80000000	0.14553064107894897
175	0x3fe1064360000000	0.5320145487785339
176	0x3fd1ae1240000000	0.2762494683265686
177	0x3fe68bbbe0000000	0.7045573592185974
178	0xbfb96e3000000000	-0.09933757781982422
179	0xbfdc7a8d20000000	-0.4449799358844757
180	0x3fde44a740000000	0.47294026613235474
181	0x3fdfcb08c0000000	0.49676722288131714
182	0x3fe2000de0000000	0.5625066161155701
183	0x3faf795000000000	0.061472415924072266
184	0x3f92fc1400000000	0.018539726734161377
185	0xbfdf258d20000000	-0.4866669476032257
186	0x3f8485e800000000	0.010021030902862549
187	0xbfd63c7b40000000	-0.34744149446487427
188	0x3f80d6a800000000	0.008221924304962158
189	0x3fd36923c0000000	0.3032922148704529
190	0x3fe0f89460000000	0.5303441882133484
191	0xbfc3582b00000000	-0.15112817287445068
192	0xbfd955bd40000000	-0.39585810899734497
193	0xbfd760f940000000	-0.36529380083084106
194	0xbfdb96f9e0000000	-0.431089848279953
195	0x3fdd41b140000000	0.45713454484939575
196	0xbfd83dd760000000	-0.378774493932724
197	0xbfcfcd0680000000	-0.24844437837600708
198	0xbfe4c4f800000000	-0.6490440368652344
199	0xbfc5813500000000	-0.1680055856704712
200	0x3fdb2e96c0000000	0.42471855878829956
201	0x3fe31045e0000000	0.5957364439964294
202	0xbfc0ae5880000000	-0.13032060861587524
203	0xbfe1d2aee0000000	-0.5569681525230408
204	0xbfd533ffa0000000	-0.33129873871803284
205	0x3fc2b5e000000000	0.14617538452148438
206	0x3fd015c500000000	0.251328706741333
207	0x3fe41d1ba0000000	0.6285532116889954
208	0xbf9aa48800000000	-0.026018261909484863
209	0xbfb66a0900000000	-0.08755546808242798
210	0xbfe487fe00000000	-0.6416006088256836
211	0x3fd894e440000000	0.38408762216567993
212	0x3fb91cf700000000	0.09809821844100952
213	0xbfd3546a80000000	-0.3020273447036743
214	0x3fdebdf0c0000000	0.4803430438041687
215	0x3fe6867ba0000000	0.7039163708686829
216	0xbfbc6e3800000000	-0.11105680465698242
217	0x3fc9425e00000000	0.19733786582946777
218	0x3fd40ee3c0000000	0.3134087920188904
219	0x3fba5d7900000000	0.10298877954483032
220	0xbfbec1a100000000	-0.12014204263687134
221	0x3fa538fa00000000	0.041450321674346924
222	0xbf800f0000000000	-0.007841110229492188
223	0x3fdb74bc40000000	0.42899996042251587
224	0xbfe09dc240000000	-0.519257664680481
225	0xbfd618f1a0000000	-0.3452724516391754
226	0xbfbd7f9600000000	-0.11522805690765381
227	0x3fe64cc3a0000000	0.6968706250190735
228	0x3fb5a0c000000000	0.08448410034179688
229	0x3f99f02c00000000	0.02533024549484253
230	0x3faac06e00000000	0.052249372005462646
231	0xbfce6c3a80000000	-0.23767787218093872
232	0xbfa2887200000000	-0.0361972451210022
233	0xbfd94d6e40000000	-0.39535099267959595
234	0xbfd2079040000000	-0.2817116379737854
235	0x3fdc090740000000	0.4380510449409485
236	0xbfe4af9c40000000	-0.6464368104934692
237	0x3fd75177c0000000	0.3643473982810974
238	0x3fd29606c0000000	0.29040688276290894
239	0xbfd2dee160000000	-0.294853538274765
240	0xbfae8d6e00000000	-0.059672772884368896
241	0xbfb28dd400000000	-0.07247662544250488
242	0xbfe66189a0000000	-0.6994064450263977
243	0x3fd06ca280000000	0.256630539894104
244	0xbfadf84000000000	-0.05853462219238281
245	0x3fe28d45a0000000	0.5797451138496399
246	0xbfd6fc9580000000	-0.3591665029525757
247	0xbfc0720680000000	-0.12847977876663208
248	0x3fb9227a00000000	0.0981823205947876
249	0x3fe5fb2f60000000	0.6869122385978699
250	0xbfc3549800000000	-0.15101909637451172
251	0x3fb987d400000000	0.09972882270812988
252	0x3fb5c91700000000	0.08509963750839233
253	0xbfb7d3da00000000	-0.09307634830474854
254	0xbfc3343700000000	-0.1500309705734253
255	0xbfbe059400000000	-0.11727261543273926

encoder_layer.linear2.weight f8 [2, 2048]
0	0x3f943d2aa0000000	0.019764581695199013
1	0x3f848acdc0000000	0.010030372068285942
2	0x3f7834b180000000	0.005909627303481102
3	0x3f888248c0000000	0.011967247352004051
4	0xbf77a19500000000	-0.005769331008195877
5	0x3f96615f60000000	0.021855821833014488
6	0x3f5a2fea00000000	0.0015983376652002335
7	0x3f93d8bd60000000	0.019381484016776085
8	0xbf4f1be800000000	-0.0009493716061115265
9	0xbf882ac3a0000000	-0.011800316162407398
10	0x3f4c1ce800000000	0.0008579380810260773
11	0xbf828d4740000000	-0.009058529511094093
12	0x3f854254c0000000	0.010380422696471214
13	0x3f8a5739c0000000	0.01286168210208416
14	0xbf84c9cde0000000	-0.010150535963475704
15	0x3f7bac0380000000	0.00675584189593792
16	0xbf834da1e0000000	-0.00942541565746069
17	0xbf77d2f780000000	-0.005816427990794182
18	0xbf66815600000000	-0.002747219055891037
19	0xbf8a589ee0000000	-0.012864342890679836
20	0xbf7ab3bbc0000000	-0.006519063375890255
21	0xbf8f482180000000	-0.015274297446012497
22	0xbf93b2a820000000	-0.019236208871006966
23	0x3f901b31a0000000	0.01572873629629612
24	0xbf45bc2400000000	-0.00066329725086689
25	0x3f87986ac0000000	0.011521181091666222
26	0x3f75372380000000	0.005179537460207939
27	0xbf70e78280000000	-0.004127034917473793
28	0xbf96581a60000000	-0.021820461377501488
29	0x3f8d57d840000000	0.014327706769108772
30	0x3f91a2ace0000000	0.017222119495272636
31	0x3f82375540000000	0.008894601836800575
32	0x3f85303f40000000	0.010345930233597755
33	0xbf8243d3e0000000	-0.00891843345016241
34	0x3f8acdab40000000	0.013087594881653786
35	0x3f87a6b640000000	0.011548446491360664
36	0x3f8561cb40000000	0.010440433397889137
37	0xbf95b55f60000000	-0.021199693903326988
38	0x3f6bef1500000000	0.0034099016338586807
39	0xbf8a4eca40000000	-0.012845592573285103
40	0xbf92a22c00000000	-0.01819676160812378
41	0xbf890ffe20000000	-0.01223753485828638
42	0xbf716e6380000000	-0.0042556654661893845
43	0x3f95581160000000	0.020843764767050743
44	0xbf60a8b400000000	-0.0020335689187049866
45	0x3f81da3a40000000	0.008717017248272896
46	0x3f960c2420000000	0.021530689671635628
47	0xbf87e82380000000	-0.01167323812842369
48	0xbf9581fde0000000	-0.021003691479563713
49	0x3f7ed21800000000	0.007524579763412476
50	0x3f6c5e5000000000	0.0034629404544830322
51	0x3f84ea3140000000	0.010212311521172523
52	0x3f94888da0000000	0.02005215920507908
53	0x3f8f0750c0000000	0.015150671824812889
54	0xbf8e8dc820000000	-0.014918864704668522
55	0xbf880e3920000000	-0.011745878495275974
56	0x3f90061720000000	0.015648232772946358
57	0x3f75ec1000000000	0.00535207986831665
58	0x3f8fd70ac0000000	0.015546878799796104
59	0x3f8375edc0000000	0.009502274915575981
60	0xbf7a796f00000000	-0.0064634643495082855
61	0xbf8d2fc540000000	-0.01425127126276493
62	0x3f7ad71900000000	0.006552789360284805
63	0x3f531ed600000000	0.0011670198291540146
64	0x3f8c2c5cc0000000	0.013756489381194115
65	0xbf87e4b3a0000000	-0.011666682548820972
66	0xbf7bfe2bc0000000	-0.006834193132817745
67	0xbf8699aaa0000000	-0.011035283096134663
68	0x3f5bbaca00000000	0.001692483201622963
69	0xbf91c05560000000	-0.017335256561636925
70	0xbf94cd12a0000000	-0.02031354047358036
71	0xbf911445c0000000	-0.01667889580130577
72	0x3f804c4000000000	0.007957935333251953
73	0xbf92c3ba80000000	-0.018324770033359528
74	0x3f8e8f8240000000	0.014922158792614937
75	0xbf5eb6b200000000	-0.001874612644314766
76	0x3f7caa5000000000	0.0069983601570129395
77	0x3eef3b0000000000	1.4891847968101501e-05
78	0xbf74b35880000000	-0.005053849890828133
79	0x3f6fd0c400000000	0.0038837268948554993
80	0xbf8ebcc400000000	-0.015008479356765747
81	0xbf91b5adc0000000	-0.017294611781835556
82	0xbf95396e80000000	-0.020726896822452545
83	0xbf8de62180000000	-0.014599096029996872
84	0xbf9345d3c0000000	-0.018821056932210922
85	0x3f879c4bc0000000	0.011528579518198967
86	0xbf7c978ec0000000	-0.006980474106967449
87	0xbf92a8c660000000	-0.01822195015847683
88	0xbf90af7c00000000	-0.016294419765472412
89	0x3f8b0c77c0000000	0.013207374140620232
90	0x3f8560ffc0000000	0.010438917204737663
91	0xbf75938c80000000	-0.005267666652798653
92	0xbf74520a00000000	-0.004961051046848297
93	0x3f878f1840000000	0.011503400281071663
94	0x3f9665eee0000000	0.021873218938708305
95	0xbf8619d440000000	-0.01079145260155201
96	0x3f83e42f40000000	0.009712571278214455
97	0x3f7f44a680000000	0.007633829489350319
98	0x3f89f1eac0000000	0.01266845129430294
99	0xbf959353c0000000	-0.02106982097029686
100	0xbf90306f00000000	-0.015809759497642517
101	0x3f94e14160000000	0.020390531048178673
102	0xbf7b6a6d40000000	-0.0066932933405041695
103	0x3f6805d300000000	0.0029324647039175034
104	0x3f855fc940000000	0.010436603799462318
105	0x3f76c20800000000	0.0055561363697052
106	0x3f7d3e9400000000	0.00713975727558136
107	0xbf960b7240000000	-0.021528039127588272
108	0xbf7cfd0a80000000	-0.007077256217598915
109	0xbf9234e3c0000000	-0.0177798829972744
110	0xbf83857c40000000	-0.00953194685280323
111	0xbf96545ce0000000	-0.02180619351565838
112	0xbf5f2f8000000000	-0.0019034147262573242
113	0x3f75459200000000	0.005193300545215607
114	0x3f919dbaa0000000	0.017203250899910927
115	0xbf814ace00000000	-0.008443459868431091
116	0x3f56b89000000000	0.0013867765665054321
117	0xbf91667c20000000	-0.016992511227726936
118	0xbf8fc29100000000	-0.015507824718952179
119	0xbf92953c00000000	-0.018147408962249756
120	0xbf71064400000000	-0.004156365990638733
121	0xbf923829c0000000	-0.017792370170354843
122	0x3f8e831040000000	0.014898421242833138
123	0xbf9007bdc0000000	-0.015654530376195908
124	0x3f9584f4a0000000	0.021014997735619545
125	0x3f862bbac0000000	0.010825594887137413
126	0xbf69dd7a00000000	-0.003157366067171097
127	0x3f95ddea20000000	0.021354349330067635
128	0xbf838eacc0000000	-0.009549474343657494
129	0xbf7c815780000000	-0.006959287449717522
130	0xbf8a8f3080000000	-0.012968424707651138
131	0x3f88458a40000000	0.011851387098431587
132	0x3f93004ba0000000	0.018555814400315285
133	0xbf35d2f000000000	-0.00033300742506980896
134	0xbf75b8a400000000	-0.005303040146827698
135	0xbf94abdf20000000	-0.020186888054013252
136	0x3f3e6da000000000	0.0004642978310585022
137	0x3f88dde440000000	0.01214197464287281
138	0x3f81a9f900000000	0.008624978363513947
139	0xbf802271a0000000	-0.00787819642573595
140	0xbf6f317800000000	-0.003807768225669861
141	0xbf928a4ce0000000	-0.018105698749423027
142	0x3f933b8fe0000000	0.01878189854323864
143	0xbf8bf1e120000000	-0.013644942082464695
144	0x3f966f07a0000000	0.021907920017838478
145	0x3f90131860000000	0.015697842463850975
146	0xbf8f7a3f80000000	-0.01536988839507103
147	0xbf72787200000000	-0.004509396851062775
148	0x3f8e18f540000000	0.014696041122078896
149	0x3f888ff9c0000000	0.01199336163699627
150	0x3f5218fc00000000	0.0011045895516872406
151	0x3f8bbd49c0000000	0.013544632121920586
152	0x3f67c83f00000000	0.0029031019657850266
153	0x3f77203980000000	0.0056459661573171616
154	0x3f799bc380000000	0.006252063438296318
155	0x3f6cb12200000000	0.003502432256937027
156	0x3f75aedd80000000	0.005293717607855797
157	0xbf87eef840000000	-0.011686267331242561
158	0xbf600b9000000000	-0.0019586384296417236
159	0xbf74a34180000000	-0.005038505420088768
160	0x3f725ade00000000	0.004481188952922821
161	0xbf858b7260000000	-0.01051987987011671
162	0xbf7ac70580000000	-0.006537457928061485
163	0x3f60284e00000000	0.001972343772649765
164	0xbf86d20220000000	-0.011142746545374393
165	0x3f81789d00000000	0.008530832827091217
166	0x3f41685000000000	0.0005312338471412659
167	0x3f92c27c60000000	0.018320029601454735
168	0xbf93300420000000	-0.018737854436039925
169	0x3f92840ea0000000	0.01808188296854496
170	0xbf8d28cb80000000	-0.014237966388463974
171	0x3f88b23140000000	0.012058624997735023
172	0xbf8ceb2ec0000000	-0.014120450243353844
173	0xbf8fc0eae0000000	-0.015504679642617702
174	0xbf848a29c0000000	-0.010029150173068047
175	0x3f922eec60000000	0.017757123336195946
176	0x3f92ca3360000000	0.018349459394812584
177	0xbf890a7b20000000	-0.012227022089064121
178	0x3f92e7e3a0000000	0.018462711945176125
179	0xbf93d3b340000000	-0.019362259656190872
180	0x3f947883e0000000	0.01999097876250744
181	0x3f957a0ae0000000	0.020973367616534233
182	0x3f82fed1c0000000	0.00927509181201458
183	0xbf74308d80000000	-0.004929115995764732
184	0x3f6f670100000000	0.003833295777440071
185	0x3f90db90a0000000	0.016462573781609535
186	0x3f9628c520000000	0.021639900282025337
187	0x3f61e57e00000000	0.0021846257150173187
188	0xbf619a2000000000	-0.0021486878395080566
189	0xbf8f7a5bc0000000	-0.015370098873972893
190	0x3f88526940000000	0.011875936761498451
191	0x3f8a028ac0000000	0.012700160965323448
192	0xbf65962400000000	-0.002635069191455841
193	0xbf947301c0000000	-0.019969966262578964
194	0x3f85baee40000000	0.010610448196530342
195	0xbf8058fc80000000	-0.007982227951288223
196	0xbf87ae23c0000000	-0.011562613770365715
197	0xbf6ea59600000000	-0.0037410669028759003
198	0xbf7ea39b40000000	-0.007480246014893055
199	0x3f95b42920000000	0.021195070818066597
200	0xbf91a7e0e0000000	-0.01724196784198284
201	0x3f80cb1380000000	0.008199837058782578
202	0x3f8e9430c0000000	0.01493108831346035
203	0x3f94564ce0000000	0.019860459491610527
204	0x3f9281d2a0000000	0.01807335950434208
205	0x3f8fa18a40000000	0.015444831922650337
206	0xbf4395a000000000	-0.0005976706743240356
207	0x3f69605b00000000	0.00309770368039608
208	0xbf7200bf80000000	-0.0043952446430921555
209	0x3f88f34840000000	0.012182774022221565
210	0x3f90fde9a0000000	0.016593599691987038
211	0x3f81459880000000	0.008433524519205093
212	0xbf934b1920000000	-0.01884116418659687
213	0xbf8bca65c0000000	-0.013569636270403862
214	0x3f870290c0000000	0.01123536191880703
215	0x3f734cd380000000	0.004711939021945
216	0xbf6a330500000000	-0.0031981561332941055
217	0x3f790dc480000000	0.006116645410656929
218	0xbf963d0a00000000	-0.021717220544815063
219	0xbf563db400000000	-0.001357484608888626
220	0xbf90940fc0000000	-0.016189809888601303
221	0x3f8f680c40000000	0.015335174277424812
222	0x3f91d652a0000000	0.01741913892328739
223	0x3f849a6840000000	0.010060133412480354
224	0x3f8210f4c0000000	0.008821403607726097
225	0xbf70156500000000	-0.003926653414964676
226	0xbf7cde8800000000	-0.007048159837722778
227	0x3f90c575a0000000	0.01637824811041355
228	0xbf958c1080000000	-0.0210421159863472
229	0x3f602b0300000000	0.001973634585738182
230	0xbf90b6a1c0000000	-0.016321685165166855
231	0xbf90ecb360000000	-0.016527941450476646
232	0x3f91290360000000	0.016758015379309654
233	0xbf945cfda0000000	-0.01988598145544529
234	0x3f73ad3180000000	0.004803841933608055
235	0xbf82463680000000	-0.008922982960939407
236	0x3f90c45de0000000	0.016374079510569572
237	0xbf70fd2b80000000	-0.004147691652178764
238	0x3f965958a0000000	0.02182520367205143
239	0x3f9262e6a0000000	0.01795540191233158
240	0x3f77054b80000000	0.005620284005999565
241	0x3f8b0fcb40000000	0.013213718309998512
242	0xbf84d299a0000000	-0.010167312808334827
243	0x3f87608640000000	0.011414574459195137
244	0xbf70923880000000	-0.004045696929097176
245	0xbf88a8acc0000000	-0.012040471658110619
246	0xbf60276700000000	-0.0019719135016202927
247	0x3f92703520000000	0.018006162717938423
248	0x3f874648c0000000	0.011364525184035301
249	0x3f88c75cc0000000	0.012099003419280052
250	0x3f962bf6e0000000	0.021652085706591606
251	0xbf5f42f800000000	-0.0019080564379692078
252	0xbf7053eb80000000	-0.0039862822741270065
253	0xbf8aff2aa0000000	-0.013182003982365131
254	0xbf943324a0000000	-0.0197263453155756
255	0xbf71144b00000000	-0.00416974350810051

encoder_layer.linear2.bias f8 [2]
0	0xbf8c8948c0000000	-0.013933723792433739
1	0x3f866c4040000000	0.010948659852147102

encoder_layer.norm1.weight f8 [2]
0	0x3ff0000000000000	1.0
1	0x3ff0000000000000	1.0

encoder_layer.norm1.bias f8 [2]
0	0x0000000000000000	0.0
1	0x0000000000000000	0.0

encoder_layer.norm2.weight f8 [2]
0	0x3ff0000000000000	1.0
1	0x3ff0000000000000	1.0

encoder_layer.norm2.bias f8 [2]
0	0x0000000000000000	0.0
1	0x0000000000000000	0.0

transformer_encoder.layers.0.self_attn.in_proj_weight f8 [6, 2]
0	0x3fe73e2760000000	0.7263371348381042
1	0xbfe26903a0000000	-0.5753191113471985
2	0xbfc7f53900000000	-0.1871711015701294
3	0x3fead14d60000000	0.838049590587616
4	0xbfdcb605a0000000	-0.44860973954200745
5	0xbfd640a4c0000000	-0.347695529460907
6	0x3fd83cf0c0000000	0.3787195086479187
7	0xbf762f6000000000	-0.005416274070739746
8	0x3fe4328ae0000000	0.6311697363853455
9	0x3fd5a3d4c0000000	0.33812445402145386
10	0x3fe9aae460000000	0.8021108508110046
11	0x3fd169d140000000	0.272083580493927

transformer_encoder.layers.0.self_attn.in_proj_bias f8 [6]
0	0xb7648da647fa6085	-7.373141414328644e-42
1	0x376a5bdcf3bfc2bd	9.455770191538517e-42
2	0x34062685f07828d0	4.4109690637888684e-58
3	0xb430c6203159be33	-2.6722410166161187e-57
4	0xb83116e0ad2746a4	-5.022113236172695e-38
5	0xb83f0a0d9b4e33c5	-9.121621670275181e-38

transformer_encoder.layers.0.self_attn.out_proj.weight f8 [2, 2]
0	0xbfcc63d400000000	-0.22179651260375977
1	0xbfa99f2200000000	-0.05004221200942993
2	0x3fc2744600000000	0.14417338371276855
3	0x3fe3ab57a0000000	0.6146658062934875

transformer_encoder.layers.0.self_attn.out_proj.bias f8 [2]
0	0x38475919b52376c1	1.3722749566890754e-37
1	0xb8475919b52376c2	-1.3722749566890757e-37

transformer_encoder.layers.0.linear1.weight f8 [2048, 2]
0	0xbfde0d0e80000000	-0.469546914100647
1	0xbfe4c669c0000000	-0.64922034740448
2	0xbfdc951800000000	-0.44659996032714844
3	0xbfb35f7a00000000	-0.0756756067276001
4	0x3fb785d800000000	0.09188604354858398
5	0x3fe14a41e0000000	0.5403146147727966
6	0xbfcae5f5c0000000	-0.2101428210735321
7	0x3fe5b85b20000000	0.6787543892860413
8	0xbfd37be2c0000000	-0.3044363856315613
9	0x3fdd5437c0000000	0.4582652449607849
10	0x3fe23450e0000000	0.5688862204551697
11	0x3fc47a1280000000	0.1599753499031067
12	0x3fb3433b00000000	0.07524460554122925
13	0xbfc8273380000000	-0.18869632482528687
14	0x3fd8bc9040000000	0.3865090012550354
15	0xbfd03c5460000000	-0.2536822259426117
16	0xbfd30695a0000000	-0.29727688431739807
17	0x3fb4525000000000	0.07938098907470703
18	0xbfd3b4b820000000	-0.3079052269458771
19	0x3fda2b5c40000000	0.4088965058326721
20	0xbfd8e7a5c0000000	-0.3891386389732361
21	0x3fd5c0f6c0000000	0.3399025797843933
22	0x3fd906e340000000	0.39104539155960083
23	0x3fb4b84e00000000	0.08093726634979248
24	0xbfd7983660000000	-0.36866530776023865
25	0x3fd52480c0000000	0.3303529620170593
26	0x3fe5c595e0000000	0.6803693175315857
27	0x3fca2b7200000000	0.2044508457183838
28	0x3fd355c8c0000000	0.30211085081100464
29	0x3fe0a048a0000000	0.5195658802986145
30	0xbfd2373460000000	-0.28461942076683044
31	0x3fcc42c900000000	0.2207881212234497
32	0x3fa63daa00000000	0.04343920946121216
33	0xbfe1df11c0000000	-0.5584801435470581
34	0xbfb8d58c00000000	-0.09700846672058105
35	0xbfe49a5f20000000	-0.6438441872596741
36	0xbfa33dd000000000	-0.03758096694946289
37	0xbfcf382c80000000	-0.243901789188385
38	0xbfc50f1a80000000	-0.1645234227180481
39	0x3fde268740000000	0.4711015820503235
40	0xbfc6850580000000	-0.17593449354171753
41	0xbfbdeaa700000000	-0.11686176061630249
42	0xbfa61d0e00000000	-0.04319041967391968
43	0x3fdc9e9d40000000	0.4471810460090637
44	0xbfe53d0280000000	-0.6636974811553955
45	0x3fadc15200000000	0.05811554193496704
46	0x3fc717b100000000	0.1804105043411255
47	0x3fd027d380000000	0.25243079662323
48	0x3f95b79c00000000	0.021208226680755615
49	0xbfdbc61800000000	-0.43396568298339844
50	0x3fe5b8e820000000	0.6788216233253479
51	0x3fd8f7e240000000	0.39012962579727173
52	0xbfcea41d80000000	-0.23938339948654175
53	0x3f8d0d8800000000	0.014185965061187744
54	0xbfc82a8e00000000	-0.1887986660003662
55	0xbfe4854960000000	-0.6412703394889832
56	0x3fd4a77ec0000000	0.3227230906486511
57	0x3fdcb6d9c0000000	0.44866031408309937
58	0xbfd36e2ae0000000	-0.303599089384079
59	0xbfe1368e40000000	-0.5379096269607544
60	0x3f5cf54000000000	0.0017674565315246582
61	0xbfe3342240000000	-0.6001139879226685
62	0xbfca6f4600000000	-0.20652079582214355
63	0x3fd029c1c0000000	0.2525486350059509
64	0xbfe30d0ea0000000	-0.5953438878059387
65	0x3fe26f0e60000000	0.5760566592216492
66	0x3fdd4ca140000000	0.4578021168708801
67	0x3fe08e7c60000000	0.5173932909965515
68	0xbfc2e73080000000	-0.1476803421974182
69	0xbfe163e100000000	-0.5434422492980957
70	0x3fdcb60a40000000	0.4486108422279358
71	0x3f977bcc00000000	0.02293318510055542
72	0xbfdd29bba0000000	-0.45567217469215393
73	0x3fdd763540000000	0.46033984422683716
74	0x3fdbdbbcc0000000	0.4352867007255554
75	0xbfd27cc920000000	-0.2888663113117218
76	0xbfe2b050a0000000	-0.5840228199958801
77	0x3fc9571e80000000	0.1979711651802063
78	0x3fd89106c0000000	0.38385170698165894
79	0x3fe525bd20000000	0.6608567833900452
80	0x3fe6164760000000	0.6902195811271667
81	0x3fe5e53460000000	0.6842290759086609
82	0xbf958d6c00000000	-0.02104729413986206
83	0x3fe2495e60000000	0.5714561343193054
84	0xbfba24ca00000000	-0.10212385654449463
85	0xbfb2a41600000000	-0.07281625270843506
86	0xbfcc279340000000	-0.21995773911476135
87	0x3fb4b80f00000000	0.08093351125717163
88	0xbfe2fa2c80000000	-0.59303879737854
89	0xbfd9dec9c0000000	-0.40422290563583374
90	0xbfab56d800000000	-0.05339694023132324
91	0x3fdb768d40000000	0.4291108250617981
92	0xbfe4ec1100000000	-0.6538166999816895
93	0xbfe67f6c60000000	-0.7030546069145203
94	0xbfd4feae00000000	-0.32804441452026367
95	0xbfc7ebf880000000	-0.18688875436782837
96	0x3fdd917ec0000000	0.4620053172111511
97	0x3fbc866300000000	0.11142557859420776
98	0x3fe0da6020000000	0.5266571640968323
99	0xbfe4927820000000	-0.6428795456886292
100	0x3fe66fc520000000	0.7011438012123108
101	0xbfe54cc940000000	-0.6656233072280884
102	0xbfdc5c1c20000000	-0.44312193989753723
103	0xbfc48d1d80000000	-0.16055649518966675
104	0xbfe0c947a0000000	-0.5245702862739563
105	0x3fc8ed5000000000	0.19474220275878906
106	0xbfe2506560000000	-0.5723139643669128
107	0xbfde7525c0000000	-0.4759001135826111
108	0xbfd37333e0000000	-0.3039064109325409
109	0x3fe3e5b7a0000000	0.621791660785675
110	0xbfda769860000000	-0.4134884774684906
111	0x3fe59629a0000000	0.6745803952217102
112	0x3fcaf7dd80000000	0.2106892466545105
113	0xbfc6830f80000000	-0.17587465047836304
114	0xbfa2e7b400000000	-0.036924004554748535
115	0xbfe4b41860000000	-0.6469842791557312
116	0xbfc4820f80000000	-0.16021913290023804
117	0xbfcebb8f40000000	-0.24009886384010315
118	0x3fda1145c0000000	0.40730422735214233
119	0xbfde8f9b80000000	-0.4775151014328003
120	0xbfe3438b20000000	-0.601995050907135
121	0xbfb94dd200000000	-0.09884369373321533
122	0xbfe3827e20000000	-0.6096792817115784
123	0x3fd1b5d440000000	0.2767229676246643
124	0xbfe54528c0000000	-0.6646922826766968
125	0x3fa8d56000000000	0.04850292205810547
126	0x3fbf8f1b00000000	0.12327736616134644
127	0x3fe4dd9ba0000000	0.6520517468452454
128	0xbfa4a46600000000	-0.040316760540008545
129	0xbfc2943680000000	-0.14514809846878052
130	0x3fe0be0a20000000	0.5231981873512268
131	0xbfe43610e0000000	-0.6315998435020447
132	0x3fe29cb460000000	0.5816289782524109
133	0x3fddd02bc0000000	0.4658307433128357
134	0xbfc56ff780000000	-0.16747945547103882
135	0x3fe5d6d060000000	0.6824724078178406
136	0xbfbb211c00000000	-0.10597395896911621
137	0xbfb23c3400000000	-0.07123112678527832
138	0x3fc3ab0280000000	0.15365630388259888
139	0x3fdf0d8940000000	0.4852011799812317
140	0xbfc4b63380000000	-0.16181033849716187
141	0xbfd28934a0000000	-0.2896243631839752
142	0xbfe0dbd5a0000000	-0.5268352627754211
143	0xbfdf632160000000	-0.4904254376888275
144	0x3fd60821c0000000	0.3442463278770447
145	0xbfa2e28800000000	-0.03688454627990723
146	0x3fd57c6540000000	0.33571749925613403
147	0xbfd15489e0000000	-0.27078482508659363
148	0xbfa3f40800000000	-0.0389711856842041
149	0xbfd886c680000000	-0.38322603702545166
150	0xbfe680a2a0000000	-0.7032025456428528
151	0x3fd1b8ba40000000	0.27689987421035767
152	0xbfe63eace0000000	-0.6951507925987244
153	0xbfe4e12900000000	-0.6524853706359863
154	0xbfd6e38e00000000	-0.3576388359069824
155	0xbfdd00cb40000000	-0.4531734585762024
156	0xbfb00c5b00000000	-0.06268852949142456
157	0xbfdc32f700000000	-0.4406106472015381
158	0x3fe0ab6260000000	0.5209209322929382
159	0x3fd0729980000000	0.2569946050643921
160	0x3fb17f8500000000	0.06835204362869263
161	0xbfe316c820000000	-0.5965309739112854
162	0xbfe5eb3760000000	-0.6849629282951355
163	0x3fcb288c00000000	0.2121748924255371
164	0xbfe34d4860000000	-0.603183925151825
165	0x3fdbda5040000000	0.4351997971534729
166	0x3fe3f44860000000	0.623569667339325
167	0xbfe535faa0000000	-0.6628392338752747
168	0xbfe10fd1e0000000	-0.5331811308860779
169	0xbf8f734800000000	-0.015356600284576416
170	0x3fe5718f20000000	0.6701121926307678
171	0x3fc7749380000000	0.18324512243270874
172	0xbfe01d07c0000000	-0.5035437345504761
173	0x3fe40fcd60000000	0.626928985118866
174	0x3fbb1dc400000000	0.10592293739318848
175	0x3fe1bb2920000000	0.5540967583656311
176	0x3fe259dee0000000	0.5734705328941345
177	0x3fd80c39c0000000	0.3757461905479431
178	0xbfd6a671a0000000	-0.3539089262485504
179	0x3fe250bae0000000	0.5723547339439392
180	0x3fe2551e60000000	0.5728904604911804
181	0x3fe5d41520000000	0.682138979434967
182	0x3fe5ed25e0000000	0.6851987242698669
183	0x3fc6e0f380000000	0.17873996496200562
184	0xbfd8eab200000000	-0.3893246650695801
185	0xbfb1121200000000	-0.06668198108673096
186	0x3fd82cdd40000000	0.3777382969856262
187	0xbfde68a300000000	-0.47513651847839355
188	0xbfe1a12300000000	-0.5509200096130371
189	0x3fae790e00000000	0.05951732397079468
190	0xbfe5250700000000	-0.6607699394226074
191	0xbfbcd56f00000000	-0.11263173818588257
192	0xbfb8a9d100000000	-0.09634119272232056
193	0x3fcea18400000000	0.2393040657043457
194	0x3fe6446ca0000000	0.6958525776863098
195	0xbfc6e58500000000	-0.17887938022613525
196	0xbfb5c62600000000	-0.08505475521087646
197	0x3f90199c00000000	0.015722692012786865
198	0x3fe1595960000000	0.5421568751335144
199	0x3fe41ff8a0000000	0.6289027333259583
200	0xbfe3d5bda0000000	-0.6198413968086243
201	0xbfda54d620000000	-0.4114280045032501
202	0x3fdb7f63c0000000	0.4296502470970154
203	0x3fda008340000000	0.4062812924385071
204	0x3fd5bbe9c0000000	0.339594304561615
205	0xbfb04b8400000000	-0.06365227699279785
206	0x3fcc851b80000000	0.22281211614608765
207	0x3fd7619840000000	0.3653317093849182
208	0xbfdedaf780000000	-0.48211467266082764
209	0x3fe61e4fe0000000	0.6912001967430115
210	0xbf82be2000000000	-0.009151697158813477
211	0xbfe01c59a0000000	-0.503460705280304
212	0x3fc7f3cb80000000	0.18712753057479858
213	0xbfa34dd600000000	-0.03770321607589722
214	0x3fb1fe0000000000	0.070281982421875
215	0x3fdd770b40000000	0.4603908658027649
216	0xbfc7058180000000	-0.17985552549362183
217	0xbfd155da00000000	-0.27086496353149414
218	0xbfe5c5fd20000000	-0.6804185509681702
219	0x3f93c4b400000000	0.019305050373077393
220	0xbf79fd4000000000	-0.006345033645629883
221	0x3fc8309b00000000	0.18898332118988037
222	0x3fc4f7c280000000	0.16381102800369263
223	0x3fdf5267c0000000	0.4894046187400818
224	0x3fce647c80000000	0.23744159936904907
225	0xbfda08a160000000	-0.4067767560482025
226	0xbfe0adec40000000	-0.5212308168411255
227	0x3fdc4cb940000000	0.44218283891677856
228	0xbfc1aa1080000000	-0.1380024552345276
229	0xbfd5c06040000000	-0.3398666977882385
230	0xbfb179b100000000	-0.06826311349868774
231	0xbf9bc2a400000000	-0.02710968255996704
232	0xbfcc1f6700000000	-0.21970832347869873
233	0xbfc2919680000000	-0.1450679898262024
234	0x3fd6b9d6c0000000	0.35509270429611206
235	0x3fdc3955c0000000	0.44099944829940796
236	0xbfb76e4c00000000	-0.09152674674987793
237	0xbfdc6d5700000000	-0.44417357444763184
238	0xbfba076600000000	-0.10167539119720459
239	0x3fe332b6a0000000	0.5999405980110168
240	0xbfdfac2300000000	-0.49488139152526855
241	0xbfb0638300000000	-0.06401842832565308
242	0xbfae1a2000000000	-0.058793067932128906
243	0x3fb8e0e100000000	0.09718137979507446
244	0x3fe38d4ee0000000	0.6109995245933533
245	0x3fe4ef7f20000000	0.6542354226112366
246	0x3fd4af2bc0000000	0.3231915831565857
247	0xbfd0759d60000000	-0.2571786344051361
248	0xbfe512bda0000000	-0.6585376858711243
249	0xbfd3a33ce0000000	-0.3068382441997528
250	0x3fe5af0de0000000	0.6776189208030701
251	0x3fde6172c0000000	0.4746977686882019
252	0xbfc3a24880000000	-0.15338999032974243
253	0xbfd0217920000000	-0.2520430386066437
254	0x3fe46f4560000000	0.6385828852653503
255	0x3fc86fed80000000	0.1909157633781433
