Transformer-Time-Series-Forecasting-main/save_model/best_train_1387.pth (torch, 518471 bytes, 74 tensors)

encoder_layer.self_attn.in_proj_weight f8 [6, 2]
0	0xbfd0684bc0000000	-0.25636571645736694
1	0x3fe32fece0000000	0.5996002554893494
2	0x3fe77467a0000000	0.7329595685005188
3	0xbfe4635ae0000000	-0.6371282935142517
4	0xbfd27c9a80000000	-0.2888551950454712
5	0xbfca3f3980000000	-0.20505446195602417
6	0x3facafde00000000	0.05602926015853882
7	0x3fe9450560000000	0.7896754145622253
8	0x3fe343e5a0000000	0.6020382046699524
9	0xbfe6219a00000000	-0.6916017532348633
10	0xbfda9e1740000000	-0.4158990979194641
11	0x3fe585cd20000000	0.6725831627845764

encoder_layer.self_attn.in_proj_bias f8 [6]
0	0x0000000000000000	0.0
1	0x0000000000000000	0.0
2	0x0000000000000000	0.0
3	0x0000000000000000	0.0
4	0x0000000000000000	0.0
5	0x0000000000000000	0.0

encoder_layer.self_attn.out_proj.weight f8 [2, 2]
0	0x3f8e4fb000000000	0.014800429344177246
1	0x3fc453bc80000000	0.15880542993545532
2	0x3fd5251c40000000	0.3303900361061096
3	0xbfdd441b60000000	-0.4572819173336029

encoder_layer.self_attn.out_proj.bias f8 [2]
0	0x0000000000000000	0.0
1	0x0000000000000000	0.0

encoder_layer.linear1.weight f8 [2048, 2]
0	0xbfdc6e09e0000000	-0.44421622157096863
1	0x3fe09df220000000	0.5192804932594299
2	0xbfd33f4ba0000000	-0.30073824524879456
3	0xbfdd70e2a0000000	-0.4600149691104889
4	0xbfe5ed9e20000000	-0.6852560639381409
5	0xbfb1177600000000	-0.066764235496521
6	0x3fe50fbe60000000	0.6581718325614929
7	0xbfc801f580000000	-0.18755978345870972
8	0xbfe07c7700000000	-0.5151934623718262
9	0xbfd3c11da0000000	-0.3086618483066559
10	0x3fd255f280000000	0.28649580478668213
11	0xbfe4a797a0000000	-0.6454580426216125
12	0xbfd03895e0000000	-0.25345370173454285
13	0xbfc2976c00000000	-0.14524602890014648
14	0xbfd60d69e0000000	-0.3445686995983124
15	0x3fdbb25640000000	0.4327598214149475
16	0x3fe4e24ae0000000	0.6526235938072205
17	0xbf80d2e800000000	-0.008214771747589111
18	0x3fddfcb140000000	0.46854811906814575
19	0x3fd724c340000000	0.3616188168525696
20	0xbfc6b6cb00000000	-0.1774533987045288
21	0x3fb705bc00000000	0.08993124961853027
22	0xbfd535a4c0000000	-0.331399142742157
23	0x3fd1a37340000000	0.27560120820999146
24	0x3fe18f5fa0000000	0.5487516522407532
25	0x3fbdb63100000000	0.116061270236969
26	0x3fe477b060000000	0.6396104693412781
27	0xbfe2b7d580000000	-0.5849406719207764
28	0x3fbdaf4300000000	0.11595553159713745
29	0xbfd7778180000000	-0.36666905879974365
30	0x3fd932b540000000	0.39371997117996216
31	0xbfd5649820000000	-0.3342647850513458
32	0xbfe0d296c0000000	-0.5257066488265991
33	0xbfc5218180000000	-0.16508501768112183
34	0xbf6237e000000000	-0.0022239089012145996
35	0xbfc1c50a00000000	-0.1388256549835205
36	0xbfc88c7280000000	-0.19178611040115356
37	0x3fe54db3a0000000	0.6657350659370422
38	0x3fe0856e60000000	0.5162879824638367
39	0x3fe1dfe9a0000000	0.5585830807685852
40	0xbfe16b6c00000000	-0.5443630218505859
41	0x3fe05476e0000000	0.5103105902671814
42	0xbfe5fc0bc0000000	-0.6870173215866089
43	0x3fd5330240000000	0.331238329410553
44	0x3fdd895fc0000000	0.461509644985199
45	0x3fb4fa5800000000	0.08194494247436523
46	0x3fd53ba0c0000000	0.3317644000053406
47	0xbfdb18b920000000	-0.4233839809894562
48	0x3fdfc43c40000000	0.49635225534439087
49	0xbfdbc6dda0000000	-0.4340128004550934
50	0x3fd364bcc0000000	0.3030235171318054
51	0xbfc372f700000000	-0.15194594860076904
52	0xbfe1978040000000	-0.5497437715530396
53	0xbfdfb7c640000000	-0.4955917000770569
54	0xbfd0e1fc60000000	-0.26379308104515076
55	0xbfe08bff40000000	-0.5170894861221313
56	0xbfe03f8d60000000	-0.507757842540741
57	0x3fe0b9c3e0000000	0.522676408290863
58	0x3fd09a7400000000	0.2594270706176758
59	0xbfe65ae460000000	-0.6985952258110046
60	0x3fe2febde0000000	0.5935963988304138
61	0xbfd92d6c00000000	-0.39339733123779297
62	0x3fda84bcc0000000	0.4143516421318054
63	0x3fc1b28900000000	0.13826096057891846
64	0xbfb26f9600000000	-0.07201516628265381
65	0xbfd51d0d60000000	-0.3298982083797455
66	0x3fd9772bc0000000	0.3978986144065857
67	0xbfc2685200000000	-0.14380860328674316
68	0xbfd88a8ee0000000	-0.38345691561698914
69	0xbfe5a0fe80000000	-0.6759026050567627
70	0x3fe2d76720000000	0.5887942910194397
71	0xbfe0fca600000000	-0.5308408737182617
72	0xbfb6c03f00000000	-0.08887094259262085
73	0x3fe234af20000000	0.5689311623573303
74	0x3fdf8153c0000000	0.49226850271224976
75	0xbfcb34bc80000000	-0.21254688501358032
76	0x3fe3ab8c20000000	0.6146908402442932
77	0xbfe369dd00000000	-0.6066727638244629
78	0x3fa783bc00000000	0.04592692852020264
79	0x3fe2893760000000	0.5792500376701355
80	0x3fb2c4d400000000	0.07331585884094238
81	0x3fd9707940000000	0.39748984575271606
82	0xbfe20a75e0000000	-0.5637769103050232
83	0x3fd6a385c0000000	0.35373061895370483
84	0x3fbee1eb00000000	0.12063473463058472
85	0x3fdbebb7c0000000	0.4362620711326599
86	0xbfe3e9f580000000	-0.6223094463348389
87	0x3fe679f8e0000000	0.7023891806602478
88	0x3fe6694020000000	0.7003479599952698
89	0x3fd433ae40000000	0.31565433740615845
90	0xbfc95c0380000000	-0.19812053442001343
91	0x3fd55cd840000000	0.3337917923927307
92	0xbfe363b500000000	-0.6059212684631348
93	0x3fe67692e0000000	0.7019743323326111
94	0x3fda31b7c0000000	0.4092845320701599
95	0xbfc42d8980000000	-0.15763968229293823
96	0x3fe5c23620000000	0.6799574494361877
97	0x3f9c402400000000	0.02758842706680298
98	0xbfcf6af1c0000000	-0.2454511821269989
99	0xbfe0a97e80000000	-0.5206902027130127
100	0x3fa3afc000000000	0.03845024108886719
101	0x3fc6d33a00000000	0.17832112312316895
102	0xbfa7c7f800000000	-0.0464475154876709
103	0x3fc0a36a80000000	0.12998706102371216
104	0x3fe656d560000000	0.6980997920036316
105	0x3fe2f322e0000000	0.5921797156333923
106	0xbfd3ea3e80000000	-0.31117212772369385
107	0x3fc5bbba80000000	0.16979151964187622
108	0xbfe0562700000000	-0.5105166435241699
109	0x3fe235a760000000	0.5690495371818542
110	0xbfd003bc00000000	-0.2502279281616211
111	0xbfc5da3200000000	-0.17072129249572754
112	0xbfc44a0300000000	-0.15850865840911865
113	0xbfd3e6ec80000000	-0.3109694719314575
114	0x3fd27df440000000	0.28893762826919556
115	0x3fc15adc00000000	0.13558530807495117
116	0x3fc5934c00000000	0.16855764389038086
117	0xbfe1679740000000	-0.5438953638076782
118	0xbfe1c8a7e0000000	-0.5557441115379333
119	0xbfe0f90220000000	-0.5303965210914612
120	0x3fc25fb880000000	0.14354616403579712
121	0x3fce1cce80000000	0.23525410890579224
122	0x3fa2899400000000	0.03620588779449463
123	0xbfe19e4900000000	-0.5505719184875488
124	0xbfa2745600000000	-0.03604382276535034
125	0x3fc920f700000000	0.19631850719451904
126	0xbfd25007e0000000	-0.2861346900463104
127	0x3fd658f640000000	0.34917980432510376
128	0x3fd78080c0000000	0.3672181963920593
129	0x3fc7878380000000	0.18382304906845093
130	0xbfe0d2be80000000	-0.5257256031036377
131	0xbfd44e8a80000000	-0.31729376316070557
132	0x3fe010d160000000	0.5020529627799988
133	0x3fc37c0d00000000	0.15222322940826416
134	0x3fd342adc0000000	0.3009447455406189
135	0x3fcf533080000000	0.2447262406349182
136	0xbfe391c4a0000000	-0.6115439534187317
137	0x3fc17cf900000000	0.13662636280059814
138	0xbfe3c5ef60000000	-0.6179119944572449
139	0xbfe0323bc0000000	-0.5061320066452026
140	0x3fd90f9240000000	0.3915753960609436
141	0xbfdfc8e060000000	-0.4966355264186859
142	0x3fd79afdc0000000	0.368834912776947
143	0x3fb0282d00000000	0.06311303377151489
144	0xbfc73a7900000000	-0.18147194385528564
145	0x3fd66498c0000000	0.34988993406295776
146	0xbfc73c4600000000	-0.18152689933776855
147	0xbfcc3fb740000000	-0.22069445252418518
148	0xbfe63709c0000000	-0.6942185163497925
149	0x3fdc4938c0000000	0.441969096660614
150	0x3fdce3b840000000	0.45139890909194946
151	0xbfd6b914e0000000	-0.35504648089408875
152	0x3fdadcc0c0000000	0.4197236895561218
153	0x3fad811e00000000	0.05762571096420288
154	0xbfb66a7800000000	-0.08756208419799805
155	0xbfe1996f00000000	-0.5499796867370605
156	0xbfd024f300000000	-0.2522552013397217
157	0x3fdbe848c0000000	0.43605250120162964
158	0xbfe3828100000000	-0.6096806526184082
159	0x3fdf8f1b40000000	0.4931095242500305
160	0xbfc49ba000000000	-0.16099929809570312
161	0xbfddf79de0000000	-0.46823832392692566
162	0x3fd4c25cc0000000	0.32436293363571167
163	0x3fe250b220000000	0.5723505616188049
164	0x3fd2131500000000	0.28241467475891113
165	0xbfc86d5000000000	-0.19083595275878906
166	0x3f95946000000000	0.02107381820678711
167	0xbfcdcdbf80000000	-0.23284143209457397
168	0xbfe0bcd940000000	-0.5230528116226196
169	0xbfd56cfd60000000	-0.33477720618247986
170	0xbf731bb000000000	-0.004665076732635498
171	0xbfc6d73300000000	-0.1784423589706421
172	0xbfe1794ba0000000	-0.5460565686225891
173	0xbfd158cce0000000	-0.27104493975639343
174	0x3fe695c620000000	0.705782949924469
175	0xbfe580b140000000	-0.6719595193862915
176	0xbfd6778aa0000000	-0.35104623436927795
177	0x3fdfc47c40000000	0.49636751413345337
178	0x3fce112580000000	0.23489826917648315
179	0x3fe4208760000000	0.6289708018302917
180	0xbfe1019540000000	-0.5314432382583618
181	0xbfe45d5360000000	-0.6363922953605652
182	0x3fe17037a0000000	0.544948399066925
183	0x3fc8651380000000	0.19058459997177124
184	0xbfe676a720000000	-0.7019839882850647
185	0xbfe49e0560000000	-0.6442896723747253
186	0x3fe3b52960000000	0.6158644556999207
187	0xbfd91410c0000000	-0.39184969663619995
188	0x3fe1664e60000000	0.5437385439872742
189	0xbfd3ede540000000	-0.31139498949050903
190	0xbfe4dbcf20000000	-0.6518321633338928
191	0x3fe45fbf60000000	0.6366879343986511
192	0xbfe15260c0000000	-0.5413058996200562
193	0xbfb5617800000000	-0.08351850509643555
194	0x3fd4b98e40000000	0.3238254189491272
195	0xbfddb9d000000000	-0.4644660949707031
196	0x3fbc8faf00000000	0.1115674376487732
197	0x3fd26b1a00000000	0.28778696060180664
198	0x3fe6483ae0000000	0.6963171362876892
199	0xbfcc2419c0000000	-0.21985170245170593
200	0xbfa6ecd200000000	-0.044775545597076416
201	0xbfd8a06760000000	-0.3847902715206146
202	0xbfd0383780000000	-0.25343120098114014
203	0x3f976d3c00000000	0.022877633571624756
204	0xbfb7465200000000	-0.09091675281524658
205	0x3fcf4b4b00000000	0.2444852590560913
206	0xbfe5681260000000	-0.668954074382782
207	0x3fde287c40000000	0.47122102975845337
208	0xbf7bb12000000000	-0.006760716438293457
209	0xbfd2ebcd40000000	-0.2956421971321106
210	0x3fd0ac2d40000000	0.26050883531570435
211	0x3fe5a1ec20000000	0.6760159134864807
212	0x3fe1fbd160000000	0.5619894862174988
213	0x3fc219b000000000	0.14140892028808594
214	0x3fd6888840000000	0.3520832657814026
215	0x3fbfaeb100000000	0.12375932931900024
216	0xbfc6a09480000000	-0.1767755150794983
217	0xbf7f191000000000	-0.007592260837554932
218	0xbfb61e1700000000	-0.08639663457870483
219	0xbf9f4a7000000000	-0.03055739402770996
220	0xbfe58416c0000000	-0.6723741292953491
221	0xbfc32b9200000000	-0.14976716041564941
222	0xbfd6438c00000000	-0.3478727340698242
223	0x3fb6c19c00000000	0.08889174461364746
224	0x3f9bc30c00000000	0.0271112322807312
225	0xbfd78176a0000000	-0.3672768175601959
226	0x3fd1fefb00000000	0.2811877727508545
227	0xbfb3fdc000000000	-0.07809066772460938
228	0x3fa655e800000000	0.043624162673950195
229	0xbfda26cd20000000	-0.4086182415485382
230	0xbfdcd35700000000	-0.45039916038513184
231	0x3fd7a837c0000000	0.3696421980857849
232	0xbfccee3e80000000	-0.22602063417434692
233	0xbfd94d7e80000000	-0.39535486698150635
234	0xbfcbf63180000000	-0.21845072507858276
235	0x3fd6827ac0000000	0.3517138361930847
236	0xbfe1446600000000	-0.5395994186401367
237	0xbf9164f400000000	-0.0169866681098938
238	0xbfd4fae8e0000000	-0.3278143107891083
239	0x3fe5b6c2e0000000	0.6785597205162048
240	0xbf9079c800000000	-0.016089558601379395
241	0xbfb1953600000000	-0.06868302822113037
242	0x3fe604f220000000	0.6881037354469299
243	0x3fcf92c680000000	0.24666672945022583
244	0x3fe2e870a0000000	0.5908740162849426
245	0x3fe27be260000000	0.5776225924491882
246	0x3fe30fa120000000	0.5956578850746155
247	0xbfd9f7fd20000000	-0.4057610332965851
248	0xbfc04e1c00000000	-0.12738370895385742
249	0x3fb640d700000000	0.08692687749862671
250	0x3fe468e220000000	0.6378031373023987
251	0xbfd9619060000000	-0.3965798318386078
252	0xbfe503f480000000	-0.6567327976226807
253	0xbfd84dc5e0000000	-0.3797468841075897
254	0xbfc7ea7c00000000	-0.1868433952331543
255	0xbfe5efb380000000	-0.6855103969573975

encoder_layer.linear1.bias f8 [2048]
0	0xbfdb24eb00000000	-0.42412829399108887
1	0xbfc97cff80000000	-0.19912713766098022
2	0x3fe0f85760000000	0.530315101146698
3	0xbf6f872000000000	-0.0038486123085021973
4	0xbfd047f320000000	-0.25439146161079407
5	0xbfe46f6500000000	-0.6385979652404785
6	0xbfe20759a0000000	-0.563397228717804
7	0x3fe4860ce0000000	0.6413635611534119
8	0xbfd71b33c0000000	-0.3610352873802185
9	0x3fe24be2a0000000	0.5717633366584778
10	0xbfd4d73420000000	-0.32563498616218567
11	0x3fc8fe7100000000	0.19526493549346924
12	0xbfe608c300000000	-0.6885695457458496
13	0xbfd09e1da0000000	-0.2596506178379059
14	0xbfd1fde780000000	-0.281122088432312
15	0x3fc48fc700000000	0.1606377363204956
16	0xbfd4672520000000	-0.31879547238349915
17	0xbfd21adc20000000	-0.28288939595222473
18	0x3fde23bd40000000	0.47093135118484497
19	0xbfd3cb0600000000	-0.3092665672302246
20	0xbfd3ec9620000000	-0.3113150894641876
21	0x3fc944ba00000000	0.19740986824035645
22	0x3fb58f5800000000	0.08421850204467773
23	0xbfa51a3a00000000	-0.041215717792510986
24	0x3fa7b7dc00000000	0.04632461071014404
25	0x3fd65f3940000000	0.34956198930740356
26	0x3f70c6e000000000	0.004095911979675293
27	0xbfbff64100000000	-0.1248512864112854
28	0x3fd8d12740000000	0.38776570558547974
29	0x3f9f326400000000	0.030465662479400635
30	0xbfe3ff7f00000000	-0.6249384880065918
31	0x3fe5efa920000000	0.6855054497718811
32	0xbfc796a100000000	-0.18428432941436768
33	0xbfe3826200000000	-0.6096658706665039
34	0x3fd8763140000000	0.38221389055252075
35	0xbfb4346300000000	-0.07892435789108276
36	0x3fe0178f20000000	0.5028758645057678
37	0xbfe4e051c0000000	-0.6523827314376831
38	0xbfcbfca780000000	-0.21864789724349976
39	0x3f63902000000000	0.0023880600929260254
40	0x3fca4f1880000000	0.205538809299469
41	0x3fda72a9c0000000	0.4132484793663025
42	0xbfdb79a9c0000000	-0.4293007254600525
43	0xbfd46961e0000000	-0.31893202662467957
44	0xbf54344000000000	-0.0012331604957580566
45	0x3fa3b4d400000000	0.03848898410797119
46	0x3fe5b2b9a0000000	0.6780670285224915
47	0x3fbf3cff00000000	0.12202447652816772
48	0x3fe3d69720000000	0.6199451088905334
49	0x3fb1b79200000000	0.06920731067657471
50	0x3fa2a4c200000000	0.03641325235366821
51	0xbfdca84460000000	-0.44777020812034607
52	0xbfd882e220000000	-0.38298848271369934
53	0xbfacccae00000000	-0.05624908208847046
54	0x3fe14d9ce0000000	0.5407242178916931
55	0x3fe5d41320000000	0.6821380257606506
56	0xbfe2668220000000	-0.5750132203102112
57	0x3fe3017b60000000	0.5939309000968933
58	0xbfde8f2780000000	-0.4774874448776245
59	0x3fe3da58e0000000	0.6204037070274353
60	0x3fcfc57580000000	0.24821346998214722
61	0x3fe18fa460000000	0.5487844347953796
62	0xbfc7a4f680000000	-0.18472176790237427
63	0xbfe24c79c0000000	-0.5718353986740112
64	0xbfca612580000000	-0.20608967542648315
65	0xbfe0844400000000	-0.5161457061767578
66	0x3fe492a0e0000000	0.6428989768028259
67	0xbfb4364100000000	-0.0789528489112854
68	0x3fe655f4a0000000	0.6979926228523254
69	0x3fcf820d80000000	0.24615639448165894
70	0x3fd0298dc0000000	0.25253623723983765
71	0x3fae4eaa00000000	0.05919390916824341
72	0x3fd328e4c0000000	0.2993709444999695
73	0xbf92a92000000000	-0.018223285675048828
74	0x3fae06bc00000000	0.05864512920379639
75	0xbfe0dc9ce0000000	-0.5269302725791931
76	0x3fb0b55f00000000	0.06526750326156616
77	0xbfe04c0720000000	-0.5092807412147522
78	0x3fe1932d20000000	0.5492158532142639
79	0xbfdece6140000000	-0.4813464283943176
80	0xbf97bd2400000000	-0.023182451725006104
81	0x3fb4f64600000000	0.08188283443450928
82	0xbfe19bcde0000000	-0.5502690672874451
83	0xbfe2787e20000000	-0.5772085785865784
84	0x3fd12402c0000000	0.26782292127609253
85	0x3fe4634620000000	0.637118399143219
86	0xbfd3f004a0000000	-0.31152454018592834
87	0x3fd34dfe40000000	0.3016353249549866
88	0x3fd30a1940000000	0.2974913716316223
89	0x3fd88139c0000000	0.3828873038291931
90	0x3fce48e600000000	0.23659968376159668
91	0x3fccc9f200000000	0.2249128818511963
92	0x3fe1da7b20000000	0.5579200387001038
93	0x3fe3ad3f60000000	0.6148983836174011
94	0x3fe07da8e0000000	0.5153393149375916
95	0x3fc053d600000000	0.12755846977233887
96	0xbfd391c020000000	-0.3057709038257599
97	0xbfdf700460000000	-0.49121198058128357
98	0xbfbc9b4e00000000	-0.11174476146697998
99	0xbfd796ee40000000	-0.36858707666397095
100	0x3fdb1636c0000000	0.4232308268547058
101	0xbfcb6cc700000000	-0.2142571210861206
102	0xbfcc254140000000	-0.2198869287967682
103	0x3fdf23ed40000000	0.48656779527664185
104	0x3fe17b9fa0000000	0.5463407635688782
105	0xbfd3b1ef00000000	-0.3077352046966553
106	0x3fc01a2b00000000	0.12579858303070068
107	0x3fe4c06020000000	0.6484833359718323
108	0x3fe0786960000000	0.5146986842155457
109	0xbfe0a32dc0000000	-0.5199192762374878
110	0x3fe1af0f60000000	0.5526196360588074
111	0x3fe5297220000000	0.6613093018531799
112	0x3fc506d280000000	0.16427069902420044
113	0x3f978e3400000000	0.02300339937210083
114	0x3fe63ba7e0000000	0.6947821974754333
115	0xbfdafb5020000000	-0.4215889275074005
116	0x3fcf609480000000	0.2451348900794983
117	0xbfc76b6100000000	-0.18296444416046143
118	0xbfe2e1a6a0000000	-0.5900452733039856
119	0x3fce568080000000	0.23701483011245728
120	0xbfcc5bbd00000000	-0.2215496301651001
121	0x3fc9f74b80000000	0.20285934209823608
122	0x3fa8de8a00000000	0.048572838306427
123	0xbfd9654000000000	-0.3968048095703125
124	0x3fe119d220000000	0.5344019532203674
125	0x3fde8067c0000000	0.4765872359275818
126	0xbfe19afa80000000	-0.5501682758331299
127	0xbfdf830000000000	-0.49237060546875
128	0x3fddf3c840000000	0.4680042862892151
129	0xbfd365e560000000	-0.3030942380428314
130	0xbfd7e32620000000	-0.37323907017707825
131	0xbfd1653ec0000000	-0.2718045115470886
132	0xbfbb955e00000000	-0.10774791240692139
133	0x3fe303af60000000	0.5941998362541199
134	0xbfb683b000000000	-0.08794689178466797
135	0xbfc990cf00000000	-0.199731707572937
136	0xbfe6013980000000	-0.6876494884490967
137	0xbfc03ea580000000	-0.12691181898117065
138	0x3fe4aaac20000000	0.6458340287208557
139	0x3fc696ad00000000	0.17647325992584229
140	0xbfb38dde00000000	-0.07638347148895264
141	0x3fb93e3d00000000	0.0986059308052063
142	0x3fd774f440000000	0.36651331186294556
143	0xbfe23e5520000000	-0.570108950138092
144	0xbfdae4f6a0000000	-0.4202248156070709
145	0xbfbfa0e900000000	-0.12354904413223267
146	0xbf91aac400000000	-0.017252981662750244
147	0x3fe64febe0000000	0.6972560286521912
148	0xbfb4ae7200000000	-0.0807868242263794
149	0x3fd87b4e40000000	0.3825259804725647
150	0x3fd3b4f4c0000000	0.3079196810722351
151	0x3fd2e487c0000000	0.29519838094711304
152	0xbfc0a3f880000000	-0.13000398874282837
153	0xbfdcb38140000000	-0.4484561085700989
154	0x3fe5838f20000000	0.6723094582557678
155	0xbfdaeb1140000000	-0.4205973744392395
156	0x3fd7f56f40000000	0.37435513734817505
157	0x3fe612a7e0000000	0.6897773146629333
158	0xbfe311bee0000000	-0.595916211605072
159	0xbfd74e9560000000	-0.3641713559627533
160	0xbfa3973800000000	-0.03826308250427246
161	0xbfe322f380000000	-0.5980165004730225
162	0xbfd6751340000000	-0.3508957028388977
163	0xbfe285e140000000	-0.5788427591323853
164	0x3fd700aec0000000	0.359416663646698
165	0xbfa0120c00000000	-0.03138768672943115
166	0x3fe4e2a560000000	0.6526667475700378
167	0xbfd99c7cc0000000	-0.4001762270927429
168	0xbfe15e6940000000	-0.5427747964859009
169	0xbfd046a720000000	-0.25431230664253235
170	0xbfe2dd1260000000	-0.589486300945282
171	0x3f7b854000000000	0.006718873977661133
172	0x3fd7941cc0000000	0.36841505765914917
173	0xbfdef1a4e0000000	-0.48349878191947937
174	0x3fd263b700000000	0.2873361110687256
175	0xbf88ac8000000000	-0.012047767639160156
176	0xbfd6808ea0000000	-0.35159650444984436
177	0x3fe12f8c60000000	0.5370542407035828
178	0x3fe53259a0000000	0.662396252155304
179	0x3fc8372200000000	0.18918251991271973
180	0x3fd596f740000000	0.33733922243118286
181	0xbfe1dc74c0000000	-0.5581611394882202
182	0xbfe4f5efe0000000	-0.655021607875824
183	0xbfd65cb740000000	-0.34940892457962036
184	0x3f9f906400000000	0.030824244022369385
185	0x3fcf461c80000000	0.2443271279335022
186	0x3fb3b6c400000000	0.07700753211975098
187	0xbf902ba000000000	-0.01579141616821289
188	0xbfb0fc3000000000	-0.06634807586669922
189	0xbfcd562b80000000	-0.22919219732284546
190	0xbfd14f3da0000000	-0.27046146988868713
191	0xbfcccd5080000000	-0.22501569986343384
192	0x3fddc5b8c0000000	0.465192973613739
193	0x3fbc57f700000000	0.11071723699569702
194	0x3fd9a7f140000000	0.40087538957595825
195	0x3fd0789400000000	0.25735950469970703
196	0x3fc711b480000000	0.18022781610488892
197	0x3fda685c40000000	0.4126196503639221
198	0xbfdd579900000000	-0.45847153663635254
199	0x3fe365c260000000	0.6061717867851257
200	0x3fd9faf2c0000000	0.4059416651725769
201	0x3fe28114a0000000	0.5782569050788879
202	0x3fda015e40000000	0.4063335061073303
203	0x3fe569d9e0000000	0.6691712737083435
204	0xbfd2858ea0000000	-0.28940168023109436
205	0x3fb75da200000000	0.09127247333526611
206	0x3fc9c9cb80000000	0.20147079229354858
207	0x3fc88d9180000000	0.19182032346725464
208	0xbfe54ff2c0000000	-0.6660093069076538
209	0xbfe0d03bc0000000	-0.5254191160202026
210	0xbfe14216e0000000	-0.5393175482749939
211	0x3fd9ffc140000000	0.4062350392341614
212	0xbfc0daf900000000	-0.13168251514434814
213	0x3fad033400000000	0.05666506290435791
214	0xbfdbead600000000	-0.43620824813842773
215	0xbfbcb40b00000000	-0.11212223768234253
216	0xbfc223ee00000000	-0.14172148704528809
217	0xbfe2bcafc0000000	-0.5855330228805542
218	0x3fe156a3e0000000	0.5418261885643005
219	0x3fe264d260000000	0.574807345867157
220	0xbfc69abd80000000	-0.17659729719161987
221	0x3fe5f9fc60000000	0.6867658495903015
222	0xbfb9598600000000	-0.0990222692489624
223	0xbfd1939420000000	-0.2746324837207794
224	0xbfe60db120000000	-0.6891713738441467
225	0x3fe3359460000000	0.6002904772758484
226	0x3fac11fe00000000	0.054824769496917725
227	0x3fce05ba80000000	0.23454982042312622
228	0x3fcd9a2f80000000	0.23126786947250366
229	0x3fb90f2f00000000	0.09788793325424194
230	0x3fdc5fb8c0000000	0.443342387676239
231	0xbfd46f5fa0000000	-0.3192977011203766
232	0xbfe21e2860000000	-0.5661813616752625
233	0x3fca496880000000	0.20536524057388306
234	0xbfd6cb1460000000	-0.3561449944972992
235	0x3fe5556460000000	0.6666738390922546
236	0xbfe02414a0000000	-0.5044043660163879
237	0xbfd70dc460000000	-0.36021527647972107
238	0x3fcf47c280000000	0.24437743425369263
239	0x3fc481e680000000	0.16021424531936646
240	0xbfce6cc240000000	-0.23769405484199524
241	0x3fbe2f3800000000	0.11790800094604492
242	0x3fb42f2d00000000	0.07884484529495239
243	0x3fb697da00000000	0.08825457096099854
244	0x3fe6870520000000	0.7039819359779358
245	0x3fda9afec0000000	0.4157101511955261
246	0x3fd8528d40000000	0.3800385594367981
247	0x3fc4ebb880000000	0.16344362497329712
248	0xbfd52c18a0000000	-0.3308164179325104
249	0xbfd3ec7a80000000	-0.31130850315093994
250	0x3fdf9fc940000000	0.4941275715827942
251	0x3f985b4400000000	0.023785650730133057
252	0xbfbed9e400000000	-0.12051224708557129
253	0x3fc68e6f80000000	0.1762217879295349
254	0xbfd1c7afc0000000	-0.2778128981590271
255	0x3fd7f29240000000	0.3741803765296936

encoder_layer.linear2.weight f8 [2, 2048]
0	0xbf92ee94c0000000	-0.018488239496946335
1	0x3f95cabb20000000	0.02128116972744465
2	0xbf5bc8e600000000	-0.001695847138762474
3	0xbf8de6ac80000000	-0.014600131660699844
4	0xbf88cdd200000000	-0.012111321091651917
5	0xbf925899e0000000	-0.017916111275553703
6	0xbf84da15a0000000	-0.010181588120758533
7	0xbf91b73140000000	-0.017300385981798172
8	0x3f8aaf6fc0000000	0.013029931113123894
9	0xbf8c8387e0000000	-0.013922750018537045
10	0xbf8f00c3e0000000	-0.015138178132474422
11	0x3f92cfbee0000000	0.01837061159312725
12	0x3f9144e860000000	0.01686442457139492
13	0x3f95b23760000000	0.02118765376508236
14	0xbf8dd1ed00000000	-0.014560557901859283
15	0x3f8556de40000000	0.010419594123959541
16	0xbf94648a00000000	-0.01991477608680725
17	0x3f67f57000000000	0.0029246509075164795
18	0xbf8aea0380000000	-0.013141658157110214
19	0x3f8723b9c0000000	0.011298609897494316
20	0x3f91892120000000	0.01712466962635517
21	0x3f8030e1c0000000	0.007905734702944756
22	0xbf86de2640000000	-0.011165903881192207
23	0xbf5738e400000000	-0.0014173723757266998
24	0xbf940c2a60000000	-0.01957765780389309
25	0x3f84237640000000	0.009833263233304024
26	0xbf94234540000000	-0.01966579630970955
27	0xbf8cb32d80000000	-0.014013629406690598
28	0xbf870103c0000000	-0.011232404038310051
29	0x3f5e343e00000000	0.0018435101956129074
30	0xbf84c1d320000000	-0.010135316289961338
31	0xbf946f8460000000	-0.01995665393769741
32	0x3f899d9340000000	0.01250758208334446
33	0x3f73f8e600000000	0.004876039922237396
34	0xbf90a8f900000000	-0.016269579529762268
35	0x3f77968b00000000	0.005758803337812424
36	0xbf7da49640000000	-0.007237040437757969
37	0x3f5b306200000000	0.0016594845801591873
38	0x3f6b9e9c00000000	0.0033715292811393738
39	0xbf8decbb80000000	-0.014611687511205673
40	0x3f56732800000000	0.0013702288269996643
41	0x3f90b3b960000000	0.016310593113303185
42	0x3f93f597e0000000	0.01949155144393444
43	0x3f91e8dc60000000	0.017489856109023094
44	0x3f94dbede0000000	0.02037021331489086
45	0x3f935a64a0000000	0.01889950968325138
46	0xbf8d76db00000000	-0.014386855065822601
47	0xbf93347600000000	-0.018754810094833374
48	0x3f929011e0000000	0.01812770776450634
49	0x3f90aa1160000000	0.016273757442831993
50	0x3f6dff1300000000	0.0036616679280996323
51	0x3f4cc8d400000000	0.0008784327656030655
52	0x3f84e41240000000	0.010200636461377144
53	0x3f8284a740000000	0.009042078629136086
54	0x3f8063a8c0000000	0.008002584800124168
55	0x3f784e7300000000	0.005934190005064011
56	0x3f95d393a0000000	0.021314913406968117
57	0xbf83bfcb40000000	-0.009643161669373512
58	0x3f925f0120000000	0.017940538004040718
59	0x3f4ae72800000000	0.0008210130035877228
60	0x3f684c8000000000	0.002966165542602539
61	0x3f851186c0000000	0.010287335142493248
62	0x3f96132360000000	0.021557381376624107
63	0x3f8fbc4ac0000000	0.01549585722386837
64	0x3f60af1d00000000	0.0020366255193948746
65	0x3f8274fd00000000	0.009012199938297272
66	0x3f80dc9100000000	0.008233197033405304
67	0xbf80354760000000	-0.007914121262729168
68	0xbf63c87a00000000	-0.002414930611848831
69	0xbf88bc1820000000	-0.01207751128822565
70	0x3f71063400000000	0.0041563063859939575
71	0xbf82f7c140000000	-0.009261617437005043
72	0x3f399d9000000000	0.0003908611834049225
73	0x3f64408900000000	0.0024721790105104446
74	0xbf735b9200000000	-0.004726000130176544
75	0x3f8ace75c0000000	0.013089103624224663
76	0xbf90ddad80000000	-0.016470633447170258
77	0xbf86d12200000000	-0.011141076683998108
78	0x3f90578ae0000000	0.01595894806087017
79	0x3f880e79c0000000	0.01174635998904705
80	0x3f8f99b1c0000000	0.015429867431521416
81	0xbf8cec82e0000000	-0.014122984372079372
82	0x3f853e2c40000000	0.010372491553425789
83	0xbf8d2296a0000000	-0.014226128347218037
84	0xbf4f914400000000	-0.0009633619338274002
85	0x3f8d6d2ac0000000	0.014368375763297081
86	0x3f834ec540000000	0.009427586570382118
87	0xbf9178ee20000000	-0.017062874510884285
88	0x3f786e3180000000	0.005964463576674461
89	0x3f8e04d040000000	0.01465761847794056
90	0x3f7de73180000000	0.007300561293959618
91	0xbf7928c980000000	-0.00614241324365139
92	0xbf91385840000000	-0.016816500574350357
93	0x3f90cd8ce0000000	0.01640911214053631
94	0xbf8c59d4c0000000	-0.013843214139342308
95	0xbf6a4d3e00000000	-0.003210660070180893
96	0xbf8d50c3c0000000	-0.014314202591776848
97	0xbf8bd51d40000000	-0.013590076938271523
98	0xbf8a1050a0000000	-0.012726430781185627
99	0xbf6776d300000000	-0.0028642769902944565
100	0x3f865a2e40000000	0.010914193466305733
101	0x3f5d111200000000	0.0017740894109010696
102	0xbf833c3300000000	-0.009392164647579193
103	0x3f95ce0260000000	0.021293675526976585
104	0x3f7e012480000000	0.0073253083974123
105	0x3f776ded80000000	0.005720069631934166
106	0x3f8d533840000000	0.014318885281682014
107	0xbf8f7299e0000000	-0.015355302952229977
108	0x3f8d7700c0000000	0.014387136325240135
109	0x3f75b94b80000000	0.00530366413295269
110	0xbf8ecf7660000000	-0.015044140629470348
111	0x3f9202ae20000000	0.01758834905922413
112	0x3f603c1600000000	0.0019817762076854706
113	0xbf87bcda80000000	-0.011590678244829178
114	0xbf92e6c4e0000000	-0.01845843903720379
115	0xbf8dd2eb00000000	-0.014562450349330902
116	0xbf7ac90ec0000000	-0.0065393997356295586
117	0xbf714aee00000000	-0.0042218491435050964
118	0x3f948a02a0000000	0.020057717338204384
119	0xbf90983040000000	-0.016205552965402603
120	0xbf8e84c4c0000000	-0.014901673421263695
121	0x3f6622ba00000000	0.002702105790376663
122	0xbf7cf55740000000	-0.007069912739098072
123	0x3f62a6cd00000000	0.002276802435517311
124	0x3f926c4c60000000	0.01799125038087368
125	0x3f05c00000000000	4.1484832763671875e-05
126	0x3f6e68d300000000	0.0037120934575796127
127	0xbf8127b460000000	-0.008376511745154858
128	0x3f92dfd120000000	0.01843191869556904
129	0xbf740b5400000000	-0.0048936158418655396
130	0xbf7d751e00000000	-0.007191769778728485
131	0xbf8953ee80000000	-0.012367118149995804
132	0x3f4677a000000000	0.0006856471300125122
133	0xbf8f464200000000	-0.015270724892616272
134	0x3f82a441c0000000	0.009102357551455498
135	0x3f75456e00000000	0.005193166434764862
136	0x3f81ba2900000000	0.008655853569507599
137	0x3f6b1ffe00000000	0.0033111535012722015
138	0x3f73b81c00000000	0.004814252257347107
139	0xbf920c8380000000	-0.01762586086988449
140	0xbf817f6220000000	-0.00854374561458826
141	0xbf91b73e00000000	-0.017300575971603394
142	0xbf8e3feec0000000	-0.014770379289984703
143	0xbf899d6180000000	-0.012507211416959763
144	0x3f81532c80000000	0.00845942273736
145	0xbf950b8ba0000000	-0.020551854744553566
146	0xbf89e648e0000000	-0.012646264396607876
147	0xbf4c59d000000000	-0.0008651986718177795
148	0x3f60d6d600000000	0.002055566757917404
149	0xbf6fa2ad00000000	-0.003861749544739723
150	0xbf62674700000000	-0.0022465121001005173
151	0xbf365ce800000000	-0.00034123100340366364
152	0xbf9266bc80000000	-0.01797003298997879
153	0x3f95915ea0000000	0.021062353625893593
154	0x3f8cdcf440000000	0.014093311503529549
155	0x3f626cfe00000000	0.002249237149953842
156	0x3f92631120000000	0.01795603521168232
157	0xbf7f588c80000000	-0.007652806118130684
158	0x3f8d8f47c0000000	0.014433441683650017
159	0x3f779d7500000000	0.005765397101640701
160	0xbf8c7641e0000000	-0.013897432945668697
161	0x3f8e36b240000000	0.014752762392163277
162	0x3f9658c1a0000000	0.02182295359671116
163	0x3f6e499900000000	0.0036972034722566605
164	0xbf726ca500000000	-0.004498142749071121
165	0xbf921b0a40000000	-0.017681274563074112
166	0x3f93381c60000000	0.018768733367323875
167	0x3f969feb60000000	0.022094419226050377
168	0x3f78417100000000	0.0059217847883701324
169	0xbf83da48c0000000	-0.009693687781691551
170	0x3f8bb5b6c0000000	0.01353018544614315
171	0xbf89962ec0000000	-0.012493481859564781
172	0xbf9095da60000000	-0.01619664393365383
173	0x3f71f87400000000	0.004387333989143372
174	0xbf82676980000000	-0.008986305445432663
175	0xbf86361220000000	-0.010845319367945194
176	0x3f91ab64e0000000	0.017255378887057304
177	0x3f7e451c80000000	0.007390128448605537
178	0xbf816ef9e0000000	-0.008512451313436031
179	0x3f82f81940000000	0.009262273088097572
180	0xbf90967200000000	-0.01619890332221985
181	0x3f736bde80000000	0.0047415439039468765
182	0x3f5ec18000000000	0.0018771886825561523
183	0xbf63b16e00000000	-0.0024039410054683685
184	0xbf90cd8200000000	-0.016408950090408325
185	0xbf882ca040000000	-0.011803867295384407
186	0xbf79ea4a00000000	-0.006326951086521149
187	0x3f81646700000000	0.008492283523082733
188	0xbf8d928b00000000	-0.014439664781093597
189	0xbf93bbef20000000	-0.019271599128842354
190	0xbf91170780000000	-0.01668941229581833
191	0xbf7e90a500000000	-0.007462162524461746
192	0x3f6cf1ac00000000	0.003533206880092621
193	0x3f84e071c0000000	0.0101937185972929
194	0xbf8dc8fa00000000	-0.014543488621711731
195	0xbf8e59d580000000	-0.014819782227277756
196	0x3f8cca6e40000000	0.014057980850338936
197	0x3f909cbee0000000	0.016222937032580376
198	0xbf769f1600000000	-0.00552280992269516
199	0xbf76278780000000	-0.005408791825175285
200	0xbf938de2e0000000	-0.01909594051539898
201	0xbf6fe58e00000000	-0.0038936398923397064
202	0xbf920cc880000000	-0.017626889050006866
203	0xbf94c96c80000000	-0.020299620926380157
204	0x3f90e38060000000	0.016492849215865135
205	0xbf92eb8c40000000	-0.018476668745279312
206	0x3f57293a00000000	0.0014136377722024918
207	0xbf6da6e300000000	-0.003619616851210594
208	0xbf90b72580000000	-0.016323648393154144
209	0x3f84f6e1c0000000	0.01023651473224163
210	0xbf84b3dec0000000	-0.010108700022101402
211	0x3f87f7cf40000000	0.0117031279951334
212	0xbf8efd3480000000	-0.015131387859582901
213	0xbf6a7b9d00000000	-0.0032327715307474136
214	0x3f93d397a0000000	0.019361848011612892
215	0xbf7fd917c0000000	-0.007775395177304745
216	0xbf63093400000000	-0.002323724329471588
217	0xbf9607bf80000000	-0.021513931453227997
218	0x3f4f8afc00000000	0.0009626131504774094
219	0xbf3cce4800000000	-0.00043954141438007355
220	0xbf83a95ac0000000	-0.009600361809134483
221	0xbf8a0b0e40000000	-0.012716399505734444
222	0xbf7bbf9e80000000	-0.0067745391279459
223	0x3f80ae1340000000	0.008144522085785866
224	0x3f8eb72540000000	0.014997759833931923
225	0xbf92491a40000000	-0.017856989055871964
226	0xbf7aea1440000000	-0.006570891477167606
227	0x3f61e35100000000	0.002183588221669197
228	0x3f89834340000000	0.01245739497244358
229	0x3f65a65900000000	0.0026427973061800003
230	0xbf89fdfea0000000	-0.012691487558186054
231	0xbf8e123640000000	-0.014683173969388008
232	0xbf928c83c0000000	-0.01811414584517479
233	0xbf80721220000000	-0.008030072785913944
234	0x3f5cc13c00000000	0.0017550550401210785
235	0x3f90c8f360000000	0.016391566023230553
236	0x3f94b6a820000000	0.020228030160069466
237	0xbf8fe26940000000	-0.015568563714623451
238	0xbf9608f7e0000000	-0.021518586203455925
239	0xbf72c60100000000	-0.004583362489938736
240	0x3f913a5ce0000000	0.01682419888675213
241	0x3f7b7f8080000000	0.006713392212986946
242	0xbf8c29b1a0000000	-0.013751399703323841
243	0x3f7c235a00000000	0.00686965137720108
244	0x3f79292a80000000	0.006142774596810341
245	0xbf7bfc6fc0000000	-0.006832539103925228
246	0x3f8c905a40000000	0.013947205618023872
247	0xbf84ef9560000000	-0.010222594253718853
248	0xbf857d2d60000000	-0.010492662899196148
249	0xbf8eff82e0000000	-0.01513578649610281
250	0xbf755b1f80000000	-0.00521385483443737
251	0x3f841ecf40000000	0.009824389591813087
252	0x3f901d6b60000000	0.015737226232886314
253	0x3f82e1d340000000	0.009219789877533913
254	0x3f90721c20000000	0.016060294583439827
255	0x3f88897440000000	0.011980922892689705

encoder_layer.linear2.bias f8 [2]
0	0x3f8b72d140000000	0.013402590528130531
1	0x3f8612b0c0000000	0.010777836665511131

encoder_layer.norm1.weight f8 [2]
0	0x3ff0000000000000	1.0
1	0x3ff0000000000000	1.0

encoder_layer.norm1.bias f8 [2]
0	0x0000000000000000	0.0
1	0x0000000000000000	0.0

encoder_layer.norm2.weight f8 [2]
0	0x3ff0000000000000	1.0
1	0x3ff0000000000000	1.0

encoder_layer.norm2.bias f8 [2]
0	0x0000000000000000	0.0
1	0x0000000000000000	0.0

transformer_encoder.layers.0.self_attn.in_proj_weight f8 [6, 2]
0	0xbfd0684bc0000000	-0.25636571645736694
1	0x3fe32fece0000000	0.5996002554893494
2	0x3fe77467a0000000	0.7329595685005188
3	0xbfe4635ae0000000	-0.6371282935142517
4	0xbfd27c9a80000000	-0.2888551950454712
5	0xbfca3f3980000000	-0.20505446195602417
6	0x3facafde00000000	0.05602926015853882
7	0x3fe9450560000000	0.7896754145622253
8	0x3fe343e5a0000000	0.6020382046699524
9	0xbfe6219a00000000	-0.6916017532348633
10	0xbfda9e1740000000	-0.4158990979194641
11	0x3fe585cd20000000	0.6725831627845764

transformer_encoder.layers.0.self_attn.in_proj_bias f8 [6]
0	0xb9bf7aa85c9a530d	-1.5520410104750932e-30
1	0xb9c82ce593fe34b6	-2.3838763299023853e-30
2	0xb4ecb58b13658c89	-9.366798340434464e-54
3	0xb4e6f92bb9a9d8f0	-7.495396505804608e-54
4	0x3a27d864c0173ba9	1.5048491957714075e-28
5	0xba37466f1516ce44	-2.9377347326972105e-28

transformer_encoder.layers.0.self_attn.out_proj.weight f8 [2, 2]
0	0x3f8e4fb000000000	0.014800429344177246
1	0x3fc453bc80000000	0.15880542993545532
2	0x3fd5251c40000000	0.3303900361061096
3	0xbfdd441b60000000	-0.4572819173336029

transformer_encoder.layers.0.self_attn.out_proj.bias f8 [2]
0	0xba42e3b499f4f88f	-4.7683737471957035e-28
1	0x3a42e3b499f4f88f	4.7683737471957035e-28

transformer_encoder.layers.0.linear1.weight f8 [2048, 2]
0	0xbfdc6e09e0000000	-0.44421622157096863
1	0x3fe09df220000000	0.5192804932594299
2	0xbfd33f4ba0000000	-0.30073824524879456
3	0xbfdd70e2a0000000	-0.4600149691104889
4	0xbfe5ed9e20000000	-0.6852560639381409
5	0xbfb1177600000000	-0.066764235496521
6	0x3fe50fbe60000000	0.6581718325614929
7	0xbfc801f580000000	-0.18755978345870972
8	0xbfe07c7700000000	-0.5151934623718262
9	0xbfd3c11da0000000	-0.3086618483066559
10	0x3fd255f280000000	0.28649580478668213
11	0xbfe4a797a0000000	-0.6454580426216125
12	0xbfd03895e0000000	-0.25345370173454285
13	0xbfc2976c00000000	-0.14524602890014648
14	0xbfd60d69e0000000	-0.3445686995983124
15	0x3fdbb25640000000	0.4327598214149475
16	0x3fe4e24ae0000000	0.6526235938072205
17	0xbf80d2e800000000	-0.008214771747589111
18	0x3fddfcb140000000	0.46854811906814575
19	0x3fd724c340000000	0.3616188168525696
20	0xbfc6b6cb00000000	-0.1774533987045288
21	0x3fb705bc00000000	0.08993124961853027
22	0xbfd535a4c0000000	-0.331399142742157
23	0x3fd1a37340000000	0.27560120820999146
24	0x3fe18f5fa0000000	0.5487516522407532
25	0x3fbdb63100000000	0.116061270236969
26	0x3fe477b060000000	0.6396104693412781
27	0xbfe2b7d580000000	-0.5849406719207764
28	0x3fbdaf4300000000	0.11595553159713745
29	0xbfd7778180000000	-0.36666905879974365
30	0x3fd932b540000000	0.39371997117996216
31	0xbfd5649820000000	-0.3342647850513458
32	0xbfe0d296c0000000	-0.5257066488265991
33	0xbfc5218180000000	-0.16508501768112183
34	0xbf6237e000000000	-0.0022239089012145996
35	0xbfc1c50a00000000	-0.1388256549835205
36	0xbfc88c7280000000	-0.19178611040115356
37	0x3fe54db3a0000000	0.6657350659370422
38	0x3fe0856e60000000	0.5162879824638367
39	0x3fe1dfe9a0000000	0.5585830807685852
40	0xbfe16b6c00000000	-0.5443630218505859
41	0x3fe05476e0000000	0.5103105902671814
42	0xbfe5fc0bc0000000	-0.6870173215866089
43	0x3fd5330240000000	0.331238329410553
44	0x3fdd895fc0000000	0.461509644985199
45	0x3fb4fa5800000000	0.08194494247436523
46	0x3fd53ba0c0000000	0.3317644000053406
47	0xbfdb18b920000000	-0.4233839809894562
48	0x3fdfc43c40000000	0.49635225534439087
49	0xbfdbc6dda0000000	-0.4340128004550934
50	0x3fd364bcc0000000	0.3030235171318054
51	0xbfc372f700000000	-0.15194594860076904
52	0xbfe1978040000000	-0.5497437715530396
53	0xbfdfb7c640000000	-0.4955917000770569
54	0xbfd0e1fc60000000	-0.26379308104515076
55	0xbfe08bff40000000	-0.5170894861221313
56	0xbfe03f8d60000000	-0.507757842540741
57	0x3fe0b9c3e0000000	0.522676408290863
58	0x3fd09a7400000000	0.2594270706176758
59	0xbfe65ae460000000	-0.6985952258110046
60	0x3fe2febde0000000	0.5935963988304138
61	0xbfd92d6c00000000	-0.39339733123779297
62	0x3fda84bcc0000000	0.4143516421318054
63	0x3fc1b28900000000	0.13826096057891846
64	0xbfb26f9600000000	-0.07201516628265381
65	0xbfd51d0d60000000	-0.3298982083797455
66	0x3fd9772bc0000000	0.3978986144065857
67	0xbfc2685200000000	-0.14380860328674316
68	0xbfd88a8ee0000000	-0.38345691561698914
69	0xbfe5a0fe80000000	-0.6759026050567627
70	0x3fe2d76720000000	0.5887942910194397
71	0xbfe0fca600000000	-0.5308408737182617
72	0xbfb6c03f00000000	-0.08887094259262085
73	0x3fe234af20000000	0.5689311623573303
74	0x3fdf8153c0000000	0.49226850271224976
75	0xbfcb34bc80000000	-0.21254688501358032
76	0x3fe3ab8c20000000	0.6146908402442932
77	0xbfe369dd00000000	-0.6066727638244629
78	0x3fa783bc00000000	0.04592692852020264
79	0x3fe2893760000000	0.5792500376701355
80	0x3fb2c4d400000000	0.07331585884094238
81	0x3fd9707940000000	0.39748984575271606
82	0xbfe20a75e0000000	-0.5637769103050232
83	0x3fd6a385c0000000	0.35373061895370483
84	0x3fbee1eb00000000	0.12063473463058472
85	0x3fdbebb7c0000000	0.4362620711326599
86	0xbfe3e9f580000000	-0.6223094463348389
87	0x3fe679f8e0000000	0.7023891806602478
88	0x3fe6694020000000	0.7003479599952698
89	0x3fd433ae40000000	0.31565433740615845
90	0xbfc95c0380000000	-0.19812053442001343
91	0x3fd55cd840000000	0.3337917923927307
92	0xbfe363b500000000	-0.6059212684631348
93	0x3fe67692e0000000	0.7019743323326111
94	0x3fda31b7c0000000	0.4092845320701599
95	0xbfc42d8980000000	-0.15763968229293823
96	0x3fe5c23620000000	0.6799574494361877
97	0x3f9c402400000000	0.02758842706680298
98	0xbfcf6af1c0000000	-0.2454511821269989
99	0xbfe0a97e80000000	-0.5206902027130127
100	0x3fa3afc000000000	0.03845024108886719
101	0x3fc6d33a00000000	0.17832112312316895
102	0xbfa7c7f800000000	-0.0464475154876709
103	0x3fc0a36a80000000	0.12998706102371216
104	0x3fe656d560000000	0.6980997920036316
105	0x3fe2f322e0000000	0.5921797156333923
106	0xbfd3ea3e80000000	-0.31117212772369385
107	0x3fc5bbba80000000	0.16979151964187622
108	0xbfe0562700000000	-0.5105166435241699
109	0x3fe235a760000000	0.5690495371818542
110	0xbfd003bc00000000	-0.2502279281616211
111	0xbfc5da3200000000	-0.17072129249572754
112	0xbfc44a0300000000	-0.15850865840911865
113	0xbfd3e6ec80000000	-0.3109694719314575
114	0x3fd27df440000000	0.28893762826919556
115	0x3fc15adc00000000	0.13558530807495117
116	0x3fc5934c00000000	0.16855764389038086
117	0xbfe1679740000000	-0.5438953638076782
118	0xbfe1c8a7e0000000	-0.5557441115379333
119	0xbfe0f90220000000	-0.5303965210914612
120	0x3fc25fb880000000	0.14354616403579712
121	0x3fce1cce80000000	0.23525410890579224
122	0x3fa2899400000000	0.03620588779449463
123	0xbfe19e4900000000	-0.5505719184875488
124	0xbfa2745600000000	-0.03604382276535034
125	0x3fc920f700000000	0.19631850719451904
126	0xbfd25007e0000000	-0.2861346900463104
127	0x3fd658f640000000	0.34917980432510376
128	0x3fd78080c0000000	0.3672181963920593
129	0x3fc7878380000000	0.18382304906845093
130	0xbfe0d2be80000000	-0.5257256031036377
131	0xbfd44e8a80000000	-0.31729376316070557
132	0x3fe010d160000000	0.5020529627799988
133	0x3fc37c0d00000000	0.15222322940826416
134	0x3fd342adc0000000	0.3009447455406189
135	0x3fcf533080000000	0.2447262406349182
136	0xbfe391c4a0000000	-0.6115439534187317
137	0x3fc17cf900000000	0.13662636280059814
138	0xbfe3c5ef60000000	-0.6179119944572449
139	0xbfe0323bc0000000	-0.5061320066452026
140	0x3fd90f9240000000	0.3915753960609436
141	0xbfdfc8e060000000	-0.4966355264186859
142	0x3fd79afdc0000000	0.368834912776947
143	0x3fb0282d00000000	0.06311303377151489
144	0xbfc73a7900000000	-0.18147194385528564
145	0x3fd66498c0000000	0.34988993406295776
146	0xbfc73c4600000000	-0.18152689933776855
147	0xbfcc3fb740000000	-0.22069445252418518
148	0xbfe63709c0000000	-0.6942185163497925
149	0x3fdc4938c0000000	0.441969096660614
150	0x3fdce3b840000000	0.45139890909194946
151	0xbfd6b914e0000000	-0.35504648089408875
152	0x3fdadcc0c0000000	0.4197236895561218
153	0x3fad811e00000000	0.05762571096420288
154	0xbfb66a7800000000	-0.08756208419799805
155	0xbfe1996f00000000	-0.5499796867370605
156	0xbfd024f300000000	-0.2522552013397217
157	0x3fdbe848c0000000	0.43605250120162964
158	0xbfe3828100000000	-0.6096806526184082
159	0x3fdf8f1b40000000	0.4931095242500305
160	0xbfc49ba000000000	-0.16099929809570312
161	0xbfddf79de0000000	-0.46823832392692566
162	0x3fd4c25cc0000000	0.32436293363571167
163	0x3fe250b220000000	0.5723505616188049
164	0x3fd2131500000000	0.28241467475891113
165	0xbfc86d5000000000	-0.19083595275878906
166	0x3f95946000000000	0.02107381820678711
167	0xbfcdcdbf80000000	-0.23284143209457397
168	0xbfe0bcd940000000	-0.5230528116226196
169	0xbfd56cfd60000000	-0.33477720618247986
170	0xbf731bb000000000	-0.004665076732635498
171	0xbfc6d73300000000	-0.1784423589706421
172	0xbfe1794ba0000000	-0.5460565686225891
173	0xbfd158cce0000000	-0.27104493975639343
174	0x3fe695c620000000	0.705782949924469
175	0xbfe580b140000000	-0.6719595193862915
176	0xbfd6778aa0000000	-0.35104623436927795
177	0x3fdfc47c40000000	0.49636751413345337
178	0x3fce112580000000	0.23489826917648315
179	0x3fe4208760000000	0.6289708018302917
180	0xbfe1019540000000	-0.5314432382583618
181	0xbfe45d5360000000	-0.6363922953605652
182	0x3fe17037a0000000	0.544948399066925
183	0x3fc8651380000000	0.19058459997177124
184	0xbfe676a720000000	-0.7019839882850647
185	0xbfe49e0560000000	-0.6442896723747253
186	0x3fe3b52960000000	0.6158644556999207
187	0xbfd91410c0000000	-0.39184969663619995
188	0x3fe1664e60000000	0.5437385439872742
189	0xbfd3ede540000000	-0.31139498949050903
190	0xbfe4dbcf20000000	-0.6518321633338928
191	0x3fe45fbf60000000	0.6366879343986511
192	0xbfe15260c0000000	-0.5413058996200562
193	0xbfb5617800000000	-0.08351850509643555
194	0x3fd4b98e40000000	0.3238254189491272
195	0xbfddb9d000000000	-0.4644660949707031
196	0x3fbc8faf00000000	0.1115674376487732
197	0x3fd26b1a00000000	0.28778696060180664
198	0x3fe6483ae0000000	0.6963171362876892
199	0xbfcc2419c0000000	-0.21985170245170593
200	0xbfa6ecd200000000	-0.044775545597076416
201	0xbfd8a06760000000	-0.3847902715206146
202	0xbfd0383780000000	-0.25343120098114014
203	0x3f976d3c00000000	0.022877633571624756
204	0xbfb7465200000000	-0.09091675281524658
205	0x3fcf4b4b00000000	0.2444852590560913
206	0xbfe5681260000000	-0.668954074382782
207	0x3fde287c40000000	0.47122102975845337
208	0xbf7bb12000000000	-0.006760716438293457
209	0xbfd2ebcd40000000	-0.2956421971321106
210	0x3fd0ac2d40000000	0.26050883531570435
211	0x3fe5a1ec20000000	0.6760159134864807
212	0x3fe1fbd160000000	0.5619894862174988
213	0x3fc219b000000000	0.14140892028808594
214	0x3fd6888840000000	0.3520832657814026
215	0x3fbfaeb100000000	0.12375932931900024
216	0xbfc6a09480000000	-0.1767755150794983
217	0xbf7f191000000000	-0.007592260837554932
218	0xbfb61e1700000000	-0.08639663457870483
219	0xbf9f4a7000000000	-0.03055739402770996
220	0xbfe58416c0000000	-0.6723741292953491
221	0xbfc32b9200000000	-0.14976716041564941
222	0xbfd6438c00000000	-0.3478727340698242
223	0x3fb6c19c00000000	0.08889174461364746
224	0x3f9bc30c00000000	0.0271112322807312
225	0xbfd78176a0000000	-0.3672768175601959
226	0x3fd1fefb00000000	0.2811877727508545
227	0xbfb3fdc000000000	-0.07809066772460938
228	0x3fa655e800000000	0.043624162673950195
229	0xbfda26cd20000000	-0.4086182415485382
230	0xbfdcd35700000000	-0.45039916038513184
231	0x3fd7a837c0000000	0.3696421980857849
232	0xbfccee3e80000000	-0.22602063417434692
233	0xbfd94d7e80000000	-0.39535486698150635
234	0xbfcbf63180000000	-0.21845072507858276
235	0x3fd6827ac0000000	0.3517138361930847
236	0xbfe1446600000000	-0.5395994186401367
237	0xbf9164f400000000	-0.0169866681098938
238	0xbfd4fae8e0000000	-0.3278143107891083
239	0x3fe5b6c2e0000000	0.6785597205162048
240	0xbf9079c800000000	-0.016089558601379395
241	0xbfb1953600000000	-0.06868302822113037
242	0x3fe604f220000000	0.6881037354469299
243	0x3fcf92c680000000	0.24666672945022583
244	0x3fe2e870a0000000	0.5908740162849426
245	0x3fe27be260000000	0.5776225924491882
246	0x3fe30fa120000000	0.5956578850746155
247	0xbfd9f7fd20000000	-0.4057610332965851
248	0xbfc04e1c00000000	-0.12738370895385742
249	0x3fb640d700000000	0.08692687749862671
250	0x3fe468e220000000	0.6378031373023987
251	0xbfd9619060000000	-0.3965798318386078
252	0xbfe503f480000000	-0.6567327976226807
253	0xbfd84dc5e0000000	-0.3797468841075897
254	0xbfc7ea7c00000000	-0.1868433952331543
255	0xbfe5efb380000000	-0.6855103969573975
