Transformer-Time-Series-Forecasting-main/save_model/best_train_5.pth (torch, 172695 bytes, 26 tensors)

encoder_layer.self_attn.in_proj_weight f8 [6, 2]
0	0xbfd4eed480000000	-0.3270770311355591
1	0x3fe221ce20000000	0.5666266083717346
2	0x3f8dd1d800000000	0.014560401439666748
3	0xbfe19ac780000000	-0.5501439571380615
4	0x3fd1e9f4c0000000	0.2799045443534851
5	0x3fe39c6fe0000000	0.612846314907074
6	0x3fde95b7c0000000	0.4778880476951599
7	0x3fdf7ee040000000	0.4921188950538635
8	0x3fcf985380000000	0.2468361258506775
9	0xbfcac2a800000000	-0.20906543731689453
10	0xbfdcb17940000000	-0.44833213090896606
11	0x3fe913c9e0000000	0.7836655974388123

encoder_layer.self_attn.in_proj_bias f8 [6]
0	0x0000000000000000	0.0
1	0x0000000000000000	0.0
2	0x0000000000000000	0.0
3	0x0000000000000000	0.0
4	0x0000000000000000	0.0
5	0x0000000000000000	0.0

encoder_layer.self_attn.out_proj.weight f8 [2, 2]
0	0x3fb420dd00000000	0.07862645387649536
1	0x3fb20b4600000000	0.07048451900482178
2	0xbfe4267d00000000	-0.6296982765197754
3	0x3fe634fd20000000	0.6939683556556702

encoder_layer.self_attn.out_proj.bias f8 [2]
0	0x0000000000000000	0.0
1	0x0000000000000000	0.0

encoder_layer.linear1.weight f8 [2048, 2]
0	0x3fb5e08c00000000	0.08545756340026855
1	0x3fd9301240000000	0.3935590386390686
2	0x3fbed54700000000	0.12044185400009155
3	0xbfd3fbbac0000000	-0.3122393488883972
4	0x3fe60e52e0000000	0.6892485022544861
5	0x3f99beb400000000	0.025141537189483643
6	0x3fdfb808c0000000	0.49560755491256714
7	0xbfd015d940000000	-0.2513335347175598
8	0x3fe5617da0000000	0.6681507229804993
9	0x3fdd0e2fc0000000	0.4539908766746521
10	0x3fe49640a0000000	0.6433413624763489
11	0xbfc54e8a80000000	-0.16645938158035278
12	0x3fdfa888c0000000	0.49466150999069214
13	0xbfd154c860000000	-0.2707997262477875
14	0x3fe3cd4de0000000	0.6188115477561951
15	0xbfe43ce6a0000000	-0.6324341893196106
16	0xbfb66cc600000000	-0.08759725093841553
17	0xbfd3b1c540000000	-0.3077252507209778
18	0xbfb88c3200000000	-0.09588921070098877
19	0xbfe3ebe080000000	-0.6225435733795166
20	0xbfdbc26860000000	-0.4337407052516937
21	0xbfcd2e4900000000	-0.2279750108718872
22	0x3fdb722240000000	0.42884117364883423
23	0xbfb51d0f00000000	-0.08247464895248413
24	0x3fd80a6f40000000	0.37563687562942505
25	0xbfd744e1a0000000	-0.3635791838169098
26	0xbfd91cc140000000	-0.3923800587654114
27	0xbfd1141740000000	-0.2668512463569641
28	0xbfcb34ccc0000000	-0.21254882216453552
29	0x3fdfe05540000000	0.4980672001838684
30	0xbfdb0e96c0000000	-0.42276543378829956
31	0x3fe5b23a60000000	0.6780063509941101
32	0x3fd94c6340000000	0.39528733491897583
33	0x3fcefd5080000000	0.24210554361343384
34	0x3fc1b6bc00000000	0.13838911056518555
35	0x3fd1a31bc0000000	0.27558034658432007
36	0x3fbba65100000000	0.1080065369606018
37	0xbfc9482500000000	-0.19751417636871338
38	0x3fe1fcf3e0000000	0.5621280074119568
39	0x3fbfa81b00000000	0.12365883588790894
40	0xbfe33887c0000000	-0.6006506681442261
41	0x3fce232c80000000	0.23544842004776
42	0xbfa200ee00000000	-0.03516334295272827
43	0x3fdba285c0000000	0.43179458379745483
44	0xbfb802bb00000000	-0.093791663646698
45	0xbfd80cd080000000	-0.3757821321487427
46	0x3fb3ebd500000000	0.07781726121902466
47	0x3fe05d9d60000000	0.5114275813102722
48	0x3fddca8040000000	0.4654846787452698
49	0x3fb404bd00000000	0.07819730043411255
50	0x3fc9560d00000000	0.19793856143951416
51	0x3fe5c5bd60000000	0.6803881525993347
52	0xbfb8be3f00000000	-0.09665292501449585
53	0xbfe3cca520000000	-0.6187310814857483
54	0x3fd76a59c0000000	0.36586612462997437
55	0x3fd64fb440000000	0.34861475229263306
56	0x3fd99f45c0000000	0.40034621953964233
57	0x3fdc4316c0000000	0.44159477949142456
58	0xbfe64a3420000000	-0.6965580582618713
59	0xbfc8df4800000000	-0.19431400299072266
60	0x3fbf5fc800000000	0.12255525588989258
61	0x3fd9227340000000	0.39272767305374146
62	0xbfb65e9100000000	-0.08738046884536743
63	0x3f61c64000000000	0.0021697282791137695
64	0x3fdddd43c0000000	0.46662992238998413
65	0x3fb6bf9200000000	0.08886063098907471
66	0x3fa8c37a00000000	0.04836636781692505
67	0xbfe0a26580000000	-0.5198237895965576
68	0xbfe006f5c0000000	-0.5008496046066284
69	0x3fc629cf80000000	0.1731509566307068
70	0x3fd7457840000000	0.36361509561538696
71	0xbfbe3f3c00000000	-0.11815237998962402
72	0x3fc903ff00000000	0.19543445110321045
73	0xbfc41acb00000000	-0.1570676565170288
74	0x3fe44f5620000000	0.6346846222877502
75	0xbfd461e4e0000000	-0.31847497820854187
76	0x3fc467c100000000	0.1594163179397583
77	0xbfcb8fa640000000	-0.21532133221626282
78	0xbfd61d49e0000000	-0.34553763270378113
79	0xbfc95b4b80000000	-0.19809859991073608
80	0x3fc2c58d80000000	0.14665383100509644
81	0x3fe4d045a0000000	0.6504238247871399
82	0xbfe2d914c0000000	-0.5889991521835327
83	0xbfd97e74c0000000	-0.3983432650566101
84	0xbfc3b35a80000000	-0.15391093492507935
85	0x3fe5563f60000000	0.6667782664299011
86	0x3fb0791700000000	0.06434768438339233
87	0xbfd05fb440000000	-0.25584131479263306
88	0x3fd3f6a4c0000000	0.311928927898407
89	0x3f8ddc4800000000	0.014580309391021729
90	0x3fe52b61e0000000	0.6615456938743591
91	0x3fe3a5fce0000000	0.6140121817588806
92	0xbfe1eed7a0000000	-0.5604055523872375
93	0xbfc5c89000000000	-0.1701831817626953
94	0xbfcc5c7900000000	-0.22157204151153564
95	0x3fc8b3f480000000	0.19299179315567017
96	0x3fd8137cc0000000	0.3761894106864929
97	0xbfd976da60000000	-0.3978792130947113
98	0x3fbda82100000000	0.11584669351577759
99	0xbfe5a27020000000	-0.6760788559913635
100	0xbfe19dcee0000000	-0.5505136847496033
101	0xbfe3182480000000	-0.5966970920562744
102	0x3fdf8ac340000000	0.4928444027900696
103	0x3fdbf77240000000	0.43697792291641235
104	0x3fe05e8960000000	0.5115401148796082
105	0xbfc3e72600000000	-0.15549159049987793
106	0x3fe16642a0000000	0.5437329411506653
107	0x3fbc940b00000000	0.11163395643234253
108	0x3fe37f6320000000	0.6093001961708069
109	0xbfe39b2a80000000	-0.6126911640167236
110	0x3fe2234d20000000	0.5668092370033264
111	0xbfc5fbfe00000000	-0.1717526912689209
112	0xbfd10f5b40000000	-0.266562283039093
113	0xbfdd6e7f00000000	-0.4598691463470459
114	0x3fe40fd2a0000000	0.6269314885139465
115	0xbfd58c7fc0000000	-0.3367003798484802
116	0xbfe1916b80000000	-0.5490014553070068
117	0x3fca9ca600000000	0.20790553092956543
118	0xbfe1f63240000000	-0.5613032579421997
119	0xbfd7511ee0000000	-0.36432620882987976
120	0xbfcb9d5c40000000	-0.21573975682258606
121	0x3fbb263000000000	0.10605144500732422
122	0xbfc0de1680000000	-0.1317775845527649
123	0xbfde45ab40000000	-0.47300225496292114
124	0x3fd6a653c0000000	0.35390180349349976
125	0x3fdc302c40000000	0.44044023752212524
126	0xbfcb1a8840000000	-0.2117471992969513
127	0xbfd9b61900000000	-0.40173935890197754
128	0xbfa456e200000000	-0.03972536325454712
129	0xbfd1593320000000	-0.27106931805610657
130	0x3fe29cd860000000	0.5816461443901062
131	0x3fd4576dc0000000	0.3178362250328064
132	0xbfd3215660000000	-0.2989097535610199
133	0x3fe560d8e0000000	0.6680721640586853
134	0xbfe04a28c0000000	-0.5090526342391968
135	0x3fe36bb5a0000000	0.6068981289863586
136	0xbfaa6aec00000000	-0.051596999168395996
137	0x3fdfe6e340000000	0.49846726655960083
138	0x3f9639f000000000	0.02170538902282715
139	0x3fe42450e0000000	0.6294330954551697
140	0x3fce18cb00000000	0.2351316213607788
141	0xbfca4e7e00000000	-0.2055203914642334
142	0xbfe61c7980000000	-0.6909759044647217
143	0xbfe51a8080000000	-0.6594851016998291
144	0xbfe0ecdb20000000	-0.5289130806922913
145	0xbfe5762100000000	-0.6706700325012207
146	0xbfd82c4180000000	-0.37770116329193115
147	0xbf9dce8c00000000	-0.02910822629928589
148	0xbfd446e660000000	-0.3168273866176605
149	0xbfc85d2800000000	-0.19034290313720703
150	0x3fbdc41d00000000	0.11627370119094849
151	0x3fc0526780000000	0.1275147795677185
152	0x3fe0ba5c60000000	0.522749125957489
153	0x3fdd0afac0000000	0.4537951350212097
154	0x3fd218ff40000000	0.2827757000923157
155	0x3fe0c6a660000000	0.524249255657196
156	0xbfd1726b00000000	-0.27260851860046387
157	0x3fd4b32440000000	0.32343393564224243
158	0xbfdd21dc00000000	-0.45519161224365234
159	0x3fd246ed40000000	0.28557902574539185
160	0xbfe58cb9e0000000	-0.673428475856781
161	0x3fe5e7e220000000	0.6845560669898987
162	0x3fd24e0480000000	0.28601181507110596
163	0x3fe53c9ce0000000	0.6636490225791931
164	0xbfdc497600000000	-0.441983699798584
165	0x3fe27e3660000000	0.5779067873954773
166	0x3fd144a4c0000000	0.269814670085907
167	0x3fe3b5e960000000	0.6159560084342957
168	0xbfd8e538e0000000	-0.3889906108379364
169	0xbfe4349280000000	-0.6314175128936768
170	0xbfe2b87aa0000000	-0.5850194096565247
171	0x3faef96600000000	0.060496509075164795
172	0xbfe6466f80000000	-0.6960980892181396
173	0x3fd2c920c0000000	0.2935258746147156
174	0x3fccf92080000000	0.2263527512550354
175	0xbfc7019080000000	-0.1797352433204651
176	0x3fdee68640000000	0.4828200936317444
177	0x3fd8a2d340000000	0.3849380612373352
178	0x3fd889cec0000000	0.38341110944747925
179	0xbfaf1d5600000000	-0.06077069044113159
180	0x3fcf9a7d00000000	0.24690210819244385
181	0x3fd38df4c0000000	0.3055393099784851
182	0xbfd1caa560000000	-0.2779935300350189
183	0xbfb42bf500000000	-0.07879573106765747
184	0xbfcc4d0200000000	-0.2211000919342041
185	0x3fd70886c0000000	0.35989540815353394
186	0x3fc179c180000000	0.13652819395065308
187	0xbfd71a9a60000000	-0.3609987199306488
188	0x3fbd1f7e00000000	0.1137617826461792
189	0x3fe6735520000000	0.701578676700592
190	0x3fe0fe8da0000000	0.5310733914375305
191	0x3fe6346d20000000	0.6938996911048889
192	0x3fd2a825c0000000	0.2915129065513611
193	0xbfdfde0b00000000	-0.4979274272918701
194	0x3fe43fd8a0000000	0.6327937245368958
195	0xbfcf819b80000000	-0.24614280462265015
196	0xbfda7001a0000000	-0.41308632493019104
197	0x3fdb0021c0000000	0.4218830466270447
198	0xbfdf4a3800000000	-0.4889049530029297
199	0x3fe0d91760000000	0.526500403881073
200	0x3fd3e61b40000000	0.3109195828437805
201	0x3fb246fe00000000	0.07139575481414795
202	0x3fd18d6340000000	0.27425462007522583
203	0xbfe45a5140000000	-0.636025071144104
204	0x3f88a56000000000	0.012034177780151367
205	0x3fd57a3740000000	0.33558446168899536
206	0xbfb9746e00000000	-0.09943282604217529
207	0xbfc5ece680000000	-0.17129212617874146
208	0xbfe1178100000000	-0.5341191291809082
209	0x3fdd478d40000000	0.4574921727180481
210	0xbfd2974820000000	-0.2904835045337677
211	0xbfe3ebcb20000000	-0.62253338098526
212	0x3fab370400000000	0.0531541109085083
213	0xbfaa89e200000000	-0.05183321237564087
214	0x3fe0ac55a0000000	0.5210369229316711
215	0xbfe69ce400000000	-0.7066516876220703
216	0xbfe5ad0980000000	-0.6773726940155029
217	0x3fd0fb5940000000	0.2653411030769348
218	0xbfb0b72400000000	-0.06529450416564941
219	0x3fe10d4f60000000	0.5328747630119324
220	0x3fd28533c0000000	0.2893800139427185
221	0xbfda633ca0000000	-0.41230693459510803
222	0xbfe4b6a420000000	-0.6472950577735901
223	0x3fd26b2300000000	0.28778910636901855
224	0xbfb4848700000000	-0.08014720678329468
225	0x3f9aaf2400000000	0.026058733463287354
226	0xbfd742d180000000	-0.3634532690048218
227	0x3fcc720880000000	0.22223001718521118
228	0x3f869a9000000000	0.011036992073059082
229	0xbfe05604c0000000	-0.5105003118515015
230	0xbfdfd2ed40000000	-0.49724894762039185
231	0xbfc0fc6a00000000	-0.13270306587219238
232	0xbfd551e080000000	-0.3331223726272583
233	0xbfc67a9780000000	-0.17561620473861694
234	0xbfe604d800000000	-0.6880912780761719
235	0xbfe46a7a60000000	-0.6379978060722351
236	0xbfd7bf7f80000000	-0.37106311321258545
237	0x3fde8b53c0000000	0.47725385427474976
238	0x3fd83fe640000000	0.37890011072158813
239	0x3fdbdfc0c0000000	0.4355317950248718
240	0xbfe05a7e80000000	-0.5110466480255127
241	0x3fd59712c0000000	0.33734577894210815
242	0x3fc8d5d800000000	0.19402599334716797
243	0xbfc0c21180000000	-0.13092249631881714
244	0x3fe290ce60000000	0.5801765322685242
245	0xbfe57f32a0000000	-0.671777069568634
246	0x3fc0830300000000	0.12899816036224365
247	0x3fd940aec0000000	0.394572913646698
248	0x3fd238d180000000	0.2847179174423218
249	0xbf845be000000000	-0.009940862655639648
250	0x3fe0427a20000000	0.5081148743629456
251	0xbfdff41aa0000000	-0.4992739260196686
252	0x3fd7585240000000	0.3647657036781311
253	0xbfc567c080000000	-0.16722875833511353
254	0x3fe09ba6e0000000	0.5190004706382751
255	0xbfe283ec80000000	-0.578603982925415

encoder_layer.linear1.bias f8 [2048]
0	0x3fc8eeff80000000	0.19479364156723022
1	0xbfc7ef2e80000000	-0.1869867444038391
2	0xbfdf137040000000	-0.48556143045425415
3	0x3fdb4c76c0000000	0.4265419840812683
4	0x3fc553c500000000	0.1666189432144165
5	0x3fda926ec0000000	0.4151875376701355
6	0xbfdbc61160000000	-0.4339641034603119
7	0x3fb8846100000000	0.09576994180679321
8	0x3f9b3d5400000000	0.026601135730743408
9	0x3fa94a6600000000	0.049395740032196045
10	0xbfb2a35e00000000	-0.07280528545379639
11	0x3fbc39d000000000	0.11025714874267578
12	0xbfe35ee9e0000000	-0.6053361296653748
13	0xbfc2059f80000000	-0.14079660177230835
14	0x3fdc765c40000000	0.4447241425514221
15	0x3fc2a28980000000	0.14558523893356323
16	0xbfb2c57a00000000	-0.0733257532119751
17	0xbfe4c7a360000000	-0.6493698954582214
18	0x3fbc306400000000	0.11011338233947754
19	0xbfd5bc84c0000000	-0.33963125944137573
20	0xbfc06ffd80000000	-0.12841767072677612
21	0xbfe5874f80000000	-0.6727674007415771
22	0x3fc3fd1600000000	0.15616106986999512
23	0xbfc29d5280000000	-0.14542609453201294
24	0x3fe65a40e0000000	0.6985172629356384
25	0x3fd014cf80000000	0.2512701749801636
26	0x3fd5896640000000	0.33651119470596313
27	0xbfce9fb440000000	-0.23924878239631653
28	0xbfdf6faba0000000	-0.4911908209323883
29	0xbfb618d900000000	-0.08631664514541626
30	0x3fbeb8e600000000	0.12000882625579834
31	0xbfd31d62e0000000	-0.29866859316825867
32	0x3fd5c32dc0000000	0.3400377631187439
33	0xbfc0658480000000	-0.12809807062149048
34	0x3fc0b8c580000000	0.13063877820968628
35	0x3fd3aef6c0000000	0.3075539469718933
36	0x3fe5f2e3a0000000	0.685899555683136
37	0x3fd3d0e7c0000000	0.3096255660057068
38	0xbfdc91b9c0000000	-0.4463943839073181
39	0x3fe4ddf820000000	0.6520958542823792
40	0xbfe0b5f140000000	-0.5222097635269165
41	0xbfc3397000000000	-0.1501903533935547
42	0x3fd5376540000000	0.33150607347488403
43	0x3fd480a4c0000000	0.320351779460907
44	0x3fcd8ded00000000	0.23089373111724854
45	0x3fc531b180000000	0.16557902097702026
46	0x3fe314d2a0000000	0.5962918400764465
47	0xbfe08e9480000000	-0.5174047946929932
48	0xbfd0fe4ce0000000	-0.26552125811576843
49	0x3fe1593c60000000	0.5421430468559265
50	0x3fd9f11040000000	0.4053383469581604
51	0xbfdb6ca520000000	-0.42850616574287415
52	0xbfd720fd80000000	-0.36138856410980225
53	0xbfb2c04700000000	-0.07324641942977905
54	0x3fd52ba1c0000000	0.3307880759239197
55	0xbfb4fcd900000000	-0.08198314905166626
56	0x3f97423000000000	0.022713422775268555
57	0xbfe3fc1e80000000	-0.6245262622833252
58	0x3fe14daa60000000	0.5407306551933289
59	0xbfd18335e0000000	-0.2736334502696991
60	0x3fc44efe80000000	0.15866070985794067
61	0x3fdca21a40000000	0.4473939538002014
62	0x3f80707800000000	0.00802701711654663
63	0x3f71e83000000000	0.004371821880340576
64	0xbfce70b9c0000000	-0.23781511187553406
65	0x3fbbb6d400000000	0.10825848579406738
66	0x3fe3c7dba0000000	0.6181467175483704
67	0x3fc08d7380000000	0.12931674718856812
68	0x3fdd53f440000000	0.45824915170669556
69	0x3fe18eb6a0000000	0.5486710667610168
70	0x3fcb150680000000	0.21157914400100708
71	0x3fcfbaf080000000	0.24789243936538696
72	0x3f88250800000000	0.011789381504058838
73	0x3fbf3b4a00000000	0.12199842929840088
74	0xbfa8969a00000000	-0.048023998737335205
75	0x3fc1f3f280000000	0.14025717973709106
76	0x3fadcd3400000000	0.05820620059967041
77	0xbfe2aefa60000000	-0.5838596224784851
78	0x3fde45b040000000	0.47300344705581665
79	0xbfe00f7700000000	-0.5018877983093262
80	0xbfe4ebf0e0000000	-0.6538013815879822
81	0x3fe233bb20000000	0.5688148140907288
82	0x3fdbc7a240000000	0.43405967950820923
83	0xbfdbe368e0000000	-0.4357549846172333
84	0x3fc6b4f500000000	0.17739737033843994
85	0x3f92a29400000000	0.01819831132888794
86	0x3fb4473200000000	0.07921135425567627
87	0xbfd989ae00000000	-0.39902830123901367
88	0xbfe4198fe0000000	-0.6281203627586365
89	0xbfdac6eb00000000	-0.41839098930358887
90	0xbfd9b65e00000000	-0.40175580978393555
91	0xbfd03715e0000000	-0.25336214900016785
92	0xbfe2943ce0000000	-0.5805954337120056
93	0xbfbcf2bc00000000	-0.11307883262634277
94	0xbfa3340200000000	-0.037506163120269775
95	0xbfd0b784a0000000	-0.26120105385780334
96	0x3fe5c5e8a0000000	0.680408775806427
97	0x3fa50bc800000000	0.04110550880432129
98	0x3fe1bef8e0000000	0.5545620322227478
99	0x3fd98efac0000000	0.3993517756462097
100	0x3fe3fb3de0000000	0.6244191527366638
101	0x3fc2595f00000000	0.14335238933563232
102	0xbfd29ee1a0000000	-0.2909473478794098
103	0x3fe614fb20000000	0.6900611519813538
104	0x3fe1f32b20000000	0.5609336495399475
105	0xbfe3ca3780000000	-0.6184346675872803
106	0x3fe4bb3020000000	0.6478500962257385
107	0xbfe14e0380000000	-0.5407731533050537
108	0x3fd8562fc0000000	0.3802604079246521
109	0xbfce569cc0000000	-0.23701819777488708
110	0x3fd5475040000000	0.3324776291847229
111	0x3fe0c3e920000000	0.5239148736000061
112	0xbfe0ad34c0000000	-0.5211433172225952
113	0x3fd6f0edc0000000	0.3584551215171814
114	0xbfc166e400000000	-0.13595247268676758
115	0xbfbeb57700000000	-0.11995643377304077
116	0x3fe59dbea0000000	0.6755059361457825
117	0xbf95bb9c00000000	-0.021223485469818115
118	0x3f83f08000000000	0.009736061096191406
119	0xbf9f767000000000	-0.03072524070739746
120	0xbfc8974180000000	-0.19211596250534058
121	0xbfddd5e260000000	-0.4661794602870941
122	0xbfe1a824c0000000	-0.551775336265564
123	0x3fda3a6140000000	0.4098132252693176
124	0xbfd689b980000000	-0.35215604305267334
125	0x3fd503c9c0000000	0.32835620641708374
126	0x3fd261c340000000	0.2872169613838196
127	0x3fe50012e0000000	0.6562590003013611
128	0xbfe13db7e0000000	-0.5387839674949646
129	0xbfb8c3d500000000	-0.09673815965652466
130	0xbf6b1b6000000000	-0.0033089518547058105
131	0x3fe03630e0000000	0.5066151022911072
132	0x3fd6939740000000	0.3527582287788391
133	0x3fd7a2fec0000000	0.3693234324455261
134	0x3fde4d2c40000000	0.47346025705337524
135	0x3fe3fccee0000000	0.6246103644371033
136	0xbfd7a9cd40000000	-0.3697388768196106
137	0x3fdd430cc0000000	0.45721739530563354
138	0x3fc0788900000000	0.12867844104766846
139	0x3fa09d7a00000000	0.03245145082473755
140	0x3fd80bd7c0000000	0.37572282552719116
141	0x3fe53603e0000000	0.662843644618988
142	0x3fbbbb0b00000000	0.10832279920578003
143	0xbfd5245d20000000	-0.33034446835517883
144	0x3fd1e68840000000	0.2796955704689026
145	0x3fd7b46ec0000000	0.3703877329826355
146	0xbfb315c100000000	-0.07455068826675415
147	0xbfc0f3bf80000000	-0.13243860006332397
148	0x3fe38dfb20000000	0.6110816597938538
149	0xbfb68b7200000000	-0.0880652666091919
150	0xbfd01959e0000000	-0.25154730677604675
151	0x3fcc07e780000000	0.218991219997406
152	0x3fcfa65400000000	0.24726343154907227
153	0xbfcab5bf40000000	-0.2086714804172516
154	0x3fe5ffef60000000	0.6874920725822449
155	0xbfcab2b400000000	-0.20857858657836914
156	0xbfa1516e00000000	-0.033824384212493896
157	0x3fc7ccc000000000	0.18593597412109375
158	0xbfda977f60000000	-0.41549667716026306
159	0xbfe4161200000000	-0.6276941299438477
160	0x3fe4094920000000	0.6261335015296936
161	0xbfc82a3e00000000	-0.18878912925720215
162	0x3fd103eac0000000	0.2658640742301941
163	0x3fc78fce80000000	0.18407613039016724
164	0xbf9599ec00000000	-0.021094977855682373
165	0xbfe0004f80000000	-0.5000379085540771
166	0x3fdcab60c0000000	0.4479600787162781
167	0x3fddb68d40000000	0.4642670750617981
168	0x3fdefcbf40000000	0.4841764569282532
169	0x3fd2468500000000	0.2855541706085205
170	0xbfb83a5c00000000	-0.09464049339294434
171	0x3fe3648660000000	0.6060211062431335
172	0x3fcef06300000000	0.24171102046966553
173	0x3fd0c8d740000000	0.2622583508491516
174	0x3fdd7d88c0000000	0.46078699827194214
175	0x3fd61af1c0000000	0.3453945517539978
176	0xbfe52c3e40000000	-0.6616507768630981
177	0x3fd02b6b80000000	0.2526501417160034
178	0x3fe0a08260000000	0.5195934176445007
179	0x3fe343cd60000000	0.602026641368866
180	0xbfb118ce00000000	-0.06678473949432373
181	0x3fdbc315c0000000	0.43378204107284546
182	0xbfdfa1eee0000000	-0.4942586123943329
183	0x3fd42eb840000000	0.31535154581069946
184	0x3fe192a0a0000000	0.5491488575935364
185	0xbfe20d1620000000	-0.5640974640846252
186	0x3fb89cff00000000	0.09614557027816772
187	0xbfde6b0980000000	-0.47528302669525146
188	0xbfbc3ba000000000	-0.11028480529785156
189	0xbfc68a8080000000	-0.17610174417495728
190	0xbfa110ae00000000	-0.03333038091659546
191	0xbf98467000000000	-0.02370619773864746
192	0xbfd3d50e40000000	-0.3098788857460022
193	0xbfc6884d80000000	-0.17603462934494019
194	0xbfda51f4a0000000	-0.4112521708011627
195	0xbfd8c6e860000000	-0.3871403634548187
196	0x3fdcae0740000000	0.4481218457221985
197	0xbfc079b500000000	-0.1287142038345337
198	0xbfb50dec00000000	-0.08224368095397949
199	0x3fe2cc4520000000	0.5874353051185608
200	0x3f9a576000000000	0.025723934173583984
201	0x3fd8f73e40000000	0.3900905251502991
202	0x3fdb090bc0000000	0.42242711782455444
203	0xbfd4602f40000000	-0.31837064027786255
204	0x3fc1a2f580000000	0.13778561353683472
205	0xbfbb771400000000	-0.10728573799133301
206	0x3fe3134120000000	0.596100389957428
207	0xbfe24de300000000	-0.5720076560974121
208	0x3fe5044e60000000	0.6567756533622742
209	0xbfe10d62c0000000	-0.5328840017318726
210	0xbfe65430c0000000	-0.6977771520614624
211	0xbfd9795f00000000	-0.39803290367126465
212	0xbfe52feb00000000	-0.6620993614196777
213	0x3fe1527220000000	0.5413141846656799
214	0xbfb4fd6c00000000	-0.08199191093444824
215	0xbfe0529900000000	-0.5100827217102051
216	0xbf9de48800000000	-0.029192090034484863
217	0xbfd35adb20000000	-0.30242040753364563
218	0x3fd9ff9240000000	0.4062238335609436
219	0x3fc5088e80000000	0.164323627948761
220	0x3f7b2cb000000000	0.006634414196014404
221	0x3fd147a400000000	0.26999759674072266
222	0x3fced68c80000000	0.24092251062393188
223	0x3fac8ab600000000	0.05574578046798706
224	0xbfd8126e60000000	-0.37612494826316833
225	0xbfe3ab0440000000	-0.6146260499954224
226	0x3fd9904ac0000000	0.39943188428878784
227	0x3fdb33aac0000000	0.4250285029411316
228	0x3fe49e6420000000	0.6443348526954651
229	0xbfce8a9b40000000	-0.23860493302345276
230	0xbfc5dc5f00000000	-0.17078769207000732
231	0xbfdef81080000000	-0.4838906526565552
232	0x3fe0774c60000000	0.5145627856254578
233	0x3fd584bfc0000000	0.3362273573875427
234	0xbfb89e6600000000	-0.09616696834564209
235	0x3fd919c040000000	0.3921967148780823
236	0x3f9fd06000000000	0.03106832504272461
237	0x3fdb30a040000000	0.424842894077301
238	0x3fc0abc100000000	0.1302415132522583
239	0xbf8e57a800000000	-0.01481562852859497
240	0xbf81171800000000	-0.008344829082489014
241	0x3fe1f516e0000000	0.5611681342124939
242	0x3fa71af800000000	0.04512763023376465
243	0xbfd53a3380000000	-0.33167731761932373
244	0xbfbcb81f00000000	-0.11218446493148804
245	0xbfd6b5b240000000	-0.35483986139297485
246	0xbfbeb53700000000	-0.11995261907577515
247	0xbfc12ce800000000	-0.13418292999267578
248	0xbfd79155a0000000	-0.36824551224708557
249	0x3fe06f75e0000000	0.5136060118675232
250	0xbfd5fdaaa0000000	-0.3436075747013092
251	0x3fd63cc440000000	0.3474588990211487
252	0x3fe57b2b60000000	0.6712853312492371
253	0x3fcdf33780000000	0.23398488759994507
254	0xbfc211a200000000	-0.14116311073303223
255	0xbfdf8f7de0000000	-0.4931330382823944

encoder_layer.linear2.weight f8 [2, 2048]
0	0x3f89b16f40000000	0.01254546083509922
1	0xbf71c75e80000000	-0.004340523853898048
2	0x3f4b110800000000	0.0008260048925876617
3	0x3f5b036e00000000	0.0016487669199705124
4	0xbf9478f740000000	-0.01999269798398018
5	0xbf90e13b80000000	-0.01648419350385666
6	0xbf859c1c00000000	-0.010551661252975464
7	0xbf6fbcaf00000000	-0.003874151036143303
8	0x3f9129e020000000	0.016761304810643196
9	0x3f7a69e600000000	0.0064486488699913025
10	0xbf800a7c40000000	-0.007832499220967293
11	0xbf707f9700000000	-0.0040279291570186615
12	0x3f967d06e0000000	0.021961314603686333
13	0x3f53fe3a00000000	0.0012202803045511246
14	0xbf8a0b2d00000000	-0.012716628611087799
15	0xbf9661bb60000000	-0.021857192739844322
16	0x3f8e20c040000000	0.014710905030369759
17	0xbf62260300000000	-0.0022153910249471664
18	0xbf8d0f5780000000	-0.014189418405294418
19	0x3f949fcd60000000	0.02014084719121456
20	0x3f897fdf40000000	0.01245092786848545
21	0x3f62eb4300000000	0.002309447154402733
22	0xbf65aa9b00000000	-0.002644827589392662
23	0x3f8b528b40000000	0.013341033831238747
24	0x3f86f099c0000000	0.011201096698641777
25	0xbf91a2cc00000000	-0.017222583293914795
26	0x3f8798c240000000	0.011521833017468452
27	0x3f7b88cb00000000	0.006722252815961838
28	0xbf947c0de0000000	-0.020004479214549065
29	0x3f871c85c0000000	0.011284871026873589
30	0x3f910d34a0000000	0.01665193773806095
31	0xbf7744cb80000000	-0.005680842325091362
32	0x3f84382340000000	0.009872699156403542
33	0xbf874cb420000000	-0.011376769281923771
34	0x3f95888c60000000	0.021028703078627586
35	0xbf8879aae0000000	-0.011950812302529812
36	0xbf801dc380000000	-0.007869269698858261
37	0x3f93022f20000000	0.01856301911175251
38	0x3f92fae6e0000000	0.01853523962199688
39	0xbf8b3d43c0000000	-0.013300446793437004
40	0x3f82428040000000	0.00891590304672718
41	0xbf92f101c0000000	-0.018497493118047714
42	0xbf8fe08f20000000	-0.015565031208097935
43	0xbf87d17520000000	-0.011629977263510227
44	0x3f7db91880000000	0.007256599143147469
45	0x3f9042b460000000	0.01587945781648159
46	0x3f95cf67e0000000	0.021299002692103386
47	0x3f8be63ac0000000	0.013622721657156944
48	0x3f911f3e20000000	0.016720743849873543
49	0xbf90bb8be0000000	-0.016340432688593864
50	0x3f6345c100000000	0.002352597191929817
51	0xbf94d77040000000	-0.020353082567453384
52	0x3f94ec9060000000	0.020433669909834862
53	0x3f841da1c0000000	0.009822143241763115
54	0xbf717ad600000000	-0.004267536103725433
55	0xbf920c3920000000	-0.0176247525960207
56	0xbf78e85d80000000	-0.006080975756049156
57	0xbf8dc60580000000	-0.014537852257490158
58	0xbf92a12c40000000	-0.018192950636148453
59	0x3f7f279000000000	0.007606089115142822
60	0x3f6b03f200000000	0.0032977797091007233
61	0xbf90e736c0000000	-0.016507010906934738
62	0x3f9498b860000000	0.020113831385970116
63	0x3f5df8ac00000000	0.0018293075263500214
64	0x3f706f0800000000	0.0040121376514434814
65	0x3f84ad0040000000	0.010095598176121712
66	0x3f8b19bbc0000000	0.013232676312327385
67	0xbf871cbfc0000000	-0.01128530316054821
68	0xbf6e0e7700000000	-0.0036690067499876022
69	0x3f9191d260000000	0.01715782843530178
70	0xbf7ebe1880000000	-0.0075055081397295
71	0x3f735e2200000000	0.004728443920612335
72	0xbf82323980000000	-0.008884858340024948
73	0x3f7057d700000000	0.003990020602941513
74	0x3f8772d4c0000000	0.01144949160516262
75	0x3f86e389c0000000	0.011176181957125664
76	0xbf8e676300000000	-0.014845632016658783
77	0x3f86896440000000	0.011004241183400154
78	0xbf94361340000000	-0.01973753049969673
79	0xbf78028000000000	-0.005861759185791016
80	0x3f894734c0000000	0.012342846021056175
81	0x3f80b09280000000	0.00814928486943245
82	0xbf77020500000000	-0.005617160350084305
83	0xbf80db81e0000000	-0.008231176994740963
84	0xbf93349ee0000000	-0.018755419179797173
85	0xbf6db0d700000000	-0.0036243628710508347
86	0xbf8f867600000000	-0.015393182635307312
87	0x3f84ae29c0000000	0.010097814723849297
88	0x3f80284180000000	0.007889281958341599
89	0xbf941219a0000000	-0.019600296393036842
90	0x3f6d944500000000	0.0036107394844293594
91	0xbf7da77a80000000	-0.007239798083901405
92	0xbf95199bc0000000	-0.020605500787496567
93	0xbf8b65d720000000	-0.013377838768064976
94	0xbf836a35a0000000	-0.009479922242462635
95	0x3f601c2400000000	0.00196654349565506
96	0xbf882884c0000000	-0.011796033009886742
97	0x3f85177e40000000	0.01029871590435505
98	0x3f920716e0000000	0.017605168744921684
99	0xbf638b0c00000000	-0.002385638654232025
100	0xbf70ff2280000000	-0.004149565473198891
101	0xbf814327a0000000	-0.00842886883765459
102	0xbf86632400000000	-0.010931283235549927
103	0xbf828036a0000000	-0.009033610112965107
104	0x3f94a97f20000000	0.020177828148007393
105	0xbf8c9df040000000	-0.013973118737339973
106	0x3f87cde140000000	0.01162315346300602
107	0x3f8d686740000000	0.014359289780259132
108	0x3f7355d980000000	0.004720544442534447
109	0xbf880f0300000000	-0.011747382581233978
110	0xbf96067220000000	-0.021508963778614998
111	0xbf7ab59140000000	-0.006520812399685383
112	0x3f92d34160000000	0.018384000286459923
113	0x3f803465c0000000	0.007912440225481987
114	0x3f80428a00000000	0.007939413189888
115	0x3f866ca7c0000000	0.010949430987238884
116	0xbf7b992f40000000	-0.006737885065376759
117	0x3f7a078380000000	0.0063548218458890915
118	0xbf914541a0000000	-0.01686575450003147
119	0xbf8281e600000000	-0.009036824107170105
120	0x3f4b8a7400000000	0.0008404795080423355
121	0x3f8589d4c0000000	0.010516798123717308
122	0xbf6dd24600000000	-0.0036403052508831024
123	0x3f91de1620000000	0.017448754981160164
124	0x3f6cedd800000000	0.0035313814878463745
125	0x3f95acdca0000000	0.021167227998375893
126	0x3f870fffc0000000	0.01126098446547985
127	0x3f827b5f00000000	0.009024374186992645
128	0xbf50f7c200000000	-0.0010356325656175613
129	0x3f90c44560000000	0.016373714432120323
130	0xbf95109560000000	-0.02057107351720333
131	0xbf8360dc00000000	-0.009462088346481323
132	0xbf64c24e00000000	-0.0025340579450130463
133	0xbf856dca80000000	-0.01046331599354744
134	0xbf94c8ba20000000	-0.020296962931752205
135	0x3f89a49340000000	0.012520933523774147
136	0x3f9342aa20000000	0.018808992579579353
137	0xbf568a9a00000000	-0.0013758186250925064
138	0x3f8ba56c40000000	0.01349911279976368
139	0xbf8ea22540000000	-0.01495770551264286
140	0xbf763b2f80000000	-0.005427537485957146
141	0xbf86f63640000000	-0.011211799457669258
142	0x3f78c99200000000	0.006051607429981232
143	0x3f63978400000000	0.0023915842175483704
144	0xbf93d91980000000	-0.019382856786251068
145	0xbf908d2040000000	-0.016163352876901627
146	0x3f783f6500000000	0.005919832736253738
147	0xbf660a4800000000	-0.002690449357032776
148	0xbf933a8880000000	-0.01877797394990921
149	0x3f90fe34a0000000	0.016594717279076576
150	0xbf92566fc0000000	-0.017907854169607162
151	0x3f684ca800000000	0.0029662400484085083
152	0x3f9414bba0000000	0.019610339775681496
153	0x3f8935a640000000	0.012309359386563301
154	0xbf8d819740000000	-0.014407331123948097
155	0x3f94830f60000000	0.02003120444715023
156	0x3f8d0b1bc0000000	0.014181343838572502
157	0xbf8ad91820000000	-0.013109386898577213
158	0x3f87386f40000000	0.011338109150528908
159	0x3f825d69c0000000	0.008967233821749687
160	0x3f94719b60000000	0.01996462605893612
161	0x3f6cf74200000000	0.003535870462656021
162	0xbf8dba85c0000000	-0.014515919610857964
163	0x3f00fec000000000	3.2415613532066345e-05
164	0x3f4ba1e400000000	0.000843273475766182
165	0x3f95a703a0000000	0.021144920960068703
166	0x3f537b7000000000	0.0011890977621078491
167	0x3f8c2e3140000000	0.013759979978203773
168	0xbf921ff740000000	-0.017700064927339554
169	0xbf8bd16640000000	-0.013582991436123848
170	0xbf8fae3e80000000	-0.015469063073396683
171	0x3f8b84a7c0000000	0.013436613604426384
172	0x3f6ae4a200000000	0.003282848745584488
173	0x3f94964f60000000	0.02010463736951351
174	0x3f7d8c4500000000	0.007213849574327469
175	0x3f7b0b5480000000	0.006602602079510689
176	0xbf63111d00000000	-0.002327496185898781
177	0x3f95398060000000	0.020727163180708885
178	0xbf95f4c500000000	-0.021441534161567688
179	0x3f20825000000000	0.00012595392763614655
180	0xbf8a5f7320000000	-0.012877368368208408
181	0xbf84c42ea0000000	-0.010139812715351582
182	0xbf8be17560000000	-0.013613621704280376
183	0x3f8583b640000000	0.010505126789212227
184	0x3f914b31a0000000	0.01688840426504612
185	0x3f914147a0000000	0.016850585117936134
186	0xbf7c83d100000000	-0.006961647421121597
187	0x3f3e5e1800000000	0.0004633720964193344
188	0xbf69b05a00000000	-0.003135848790407181
189	0xbf8c949a80000000	-0.013955313712358475
190	0x3f93a03ee0000000	0.019165975973010063
191	0xbf7e221d80000000	-0.007356753572821617
192	0xbf8201f200000000	-0.008792772889137268
193	0xbf827b7840000000	-0.009024562314152718
194	0xbf92840d40000000	-0.01808186247944832
195	0xbf90a5e8c0000000	-0.016257893294095993
196	0x3f9324cce0000000	0.01869506947696209
197	0x3f92f1ba60000000	0.01850024424493313
198	0xbf70fdd980000000	-0.004148339852690697
199	0xbf6c24ef00000000	-0.0034355800598859787
200	0xbf8789cae0000000	-0.011493287049233913
201	0xbf8918fc80000000	-0.012254688888788223
202	0xbf62867d00000000	-0.0022613946348428726
203	0x3f67eb8000000000	0.002919912338256836
204	0x3f93629860000000	0.018930798396468163
205	0xbf658b5f00000000	-0.0026299338787794113
206	0xbf8e769f00000000	-0.014874689280986786
207	0x3f7e880880000000	0.007453950121998787
208	0x3f70cb5b80000000	0.004100186750292778
209	0x3f908ca0e0000000	0.01616145484149456
210	0xbf904da540000000	-0.01592119410634041
211	0x3f62cdef00000000	0.002295462414622307
212	0xbf84bc3200000000	-0.010124579071998596
213	0xbf85cce7c0000000	-0.010644732043147087
214	0xbf6a939800000000	-0.0032442063093185425
215	0x3f70a14600000000	0.004060052335262299
216	0x3f948060a0000000	0.020020971074700356
217	0xbf84dc1ca0000000	-0.010185454972088337
218	0x3f91437aa0000000	0.01685897447168827
219	0x3f704caf00000000	0.003979381173849106
220	0xbf8b2eb220000000	-0.013272658921778202
221	0x3f8cf865c0000000	0.014145655557513237
222	0x3f8c72ce40000000	0.01389084942638874
223	0x3f62068900000000	0.0022003818303346634
224	0xbf91a19ec0000000	-0.01721809431910515
225	0x3f70612b00000000	0.00399891659617424
226	0xbf8bde6420000000	-0.013607771135866642
227	0xbf8fb94380000000	-0.015490081161260605
228	0x3f8c39b540000000	0.013781944289803505
229	0xbf9360e400000000	-0.018924295902252197
230	0x3f874efbc0000000	0.01138111762702465
231	0x3f846b1c40000000	0.0099699217826128
232	0x3f8acf2a40000000	0.013090448454022408
233	0x3f7a22ac00000000	0.006380721926689148
234	0xbf84bf6900000000	-0.010130710899829865
235	0xbf57e8ac00000000	-0.0014592818915843964
236	0xbf8c923f00000000	-0.013950817286968231
237	0xbf854afda0000000	-0.01039693970233202
238	0x3f921805a0000000	0.017669761553406715
239	0x3f841fe840000000	0.009826483204960823
240	0x3f86f38fc0000000	0.011206744238734245
241	0x3f824ff740000000	0.008941585198044777
242	0xbf0e1ec000000000	-5.744956433773041e-05
243	0xbf966d9900000000	-0.021902456879615784
244	0x3f7d5bcb00000000	0.0071676187217235565
245	0x3f9550dbe0000000	0.020816264674067497
246	0xbf894d0d60000000	-0.012353996746242046
247	0xbf77962b80000000	-0.005758447572588921
248	0xbf90bb6f80000000	-0.01634000986814499
249	0xbf81f0d520000000	-0.00876013282686472
250	0x3f2f9b0000000000	0.00024113059043884277
251	0xbf8f8d2860000000	-0.015405955724418163
252	0x3f90ed93e0000000	0.016531286761164665
253	0xbf8551d680000000	-0.010409999638795853
254	0x3f9418f760000000	0.019626488909125328
255	0x3f71adcd00000000	0.004316139966249466

encoder_layer.linear2.bias f8 [2]
0	0xbf96621880000000	-0.0218585804104805
1	0x3f8d338340000000	0.014258408918976784

encoder_layer.norm1.weight f8 [2]
0	0x3ff0000000000000	1.0
1	0x3ff0000000000000	1.0

encoder_layer.norm1.bias f8 [2]
0	0x0000000000000000	0.0
1	0x0000000000000000	0.0

encoder_layer.norm2.weight f8 [2]
0	0x3ff0000000000000	1.0
1	0x3ff0000000000000	1.0

encoder_layer.norm2.bias f8 [2]
0	0x0000000000000000	0.0
1	0x0000000000000000	0.0

transformer_encoder.layers.0.self_attn.in_proj_weight f8 [6, 2]
0	0xbfd4ef5a6debcda5	-0.3271089623878772
1	0x3fe221a9bae6b324	0.5666092539227958
2	0x3f8db5363366edf2	0.014505790179888376
3	0xbfe19b4abebf6741	-0.5502065396824279
4	0x3fd2070b2ece8d9b	0.2816799122903945
5	0x3fe3a7b8ec309e24	0.6142239201626052
6	0x3fdeb0b99ac5239d	0.4795364390779982
7	0x3fdf93b49e6e4b1f	0.4933902308632003
8	0x3fceca39317eca9b	0.24054636875878974
9	0xbfcb90bbfd9ecf45	-0.21535444148832475
10	0xbfdc4a6e6728c403	-0.442042923680731
11	0x3fe9474d287a4e10	0.7899537840443731

transformer_encoder.layers.0.self_attn.in_proj_bias f8 [6]
0	0xbf78f62aa663c4fc	-0.006094137765317639
1	0x3f7929168abf1178	0.006142700247384496
2	0x3c29dd19656ddd5e	7.010361465966416e-19
3	0x3c15c85e427b1b60	2.9521047456535107e-19
4	0xbf79c879e11b7d97	-0.006294704524150949
5	0x3f79cbbcc0702478	0.006297814666148864

transformer_encoder.layers.0.self_attn.out_proj.weight f8 [2, 2]
0	0x3fb286ebdad2d0b3	0.07237123577471287
1	0x3fb0703466f8b18d	0.06421210779143945
2	0xbfe3f33edb5a5a15	-0.6234430584179927
3	0x3fe6685f5320e9cd	0.7002407668690523

transformer_encoder.layers.0.self_attn.out_proj.bias f8 [2]
0	0xbf79ca019ee4fc89	-0.006296163874423341
1	0x3f79ca019ee4fc89	0.006296163874423341

transformer_encoder.layers.0.linear1.weight f8 [2048, 2]
0	0x3fb5b5255616461d	0.08479531623586252
1	0x3fd93aebef05c58f	0.39422129003568157
2	0x3fc0583431be2983	0.12769176892136266
3	0xbfd472832733f826	-0.31948927715700604
4	0x3fe5d68bcc6f443d	0.6824397080291714
5	0x3fa05bcb7a752d76	0.03195033902974391
6	0x3fdf45b6a5a2f008	0.4886299722236349
7	0xbfcf470e3a71378a	-0.2443559441912238
8	0x3fe59dc092373051	0.6755068641446177
9	0x3fdc95a9ce743e2c	0.4466347232964576
10	0x3fe4cb6469ab0e5b	0.6498281539756577
11	0xbfc62319d9fde46d	-0.1729461969769405
12	0x3fdfe3fadd0b37c4	0.4982897909766246
13	0xbfd1903ab5fecfd9	-0.2744280602739742
14	0x3fe397c8e3a78c46	0.6122784086586612
15	0xbfe40761a03ee555	-0.625901043872697
16	0xbfb82ae37a5ba58c	-0.0944044278836797
17	0xbfd3423dd96f3305	-0.30091806634736457
18	0xbfb6e7c6ef100c80	-0.08947413765422318
19	0xbfe4206deee8210d	-0.6289586702487512
20	0xbfdbc64f6cfffe4f	-0.4339788975193856
21	0xbfcd267ae505652e	-0.22773681814832386
22	0x3fdbe815a7ca91e3	0.436040319307976
23	0xbfb6f4dcd895ac9a	-0.08967380798064753
24	0x3fd797060d06ff06	0.36859275123787005
25	0xbfd6d17864096656	-0.35653505105219574
26	0xbfd91cc140000000	-0.3923800587654114
27	0xbfd1141740000000	-0.2668512463569641
28	0xbfcae4fffa7daaaa	-0.2101135228252436
29	0x3fdfb86ed15662dc	0.4956318897543903
30	0xbfdb116934375502	-0.4229376802371264
31	0x3fe5b3a3998da838	0.678178596409686
32	0x3fd8e79919ac1c62	0.3891356230455526
33	0x3fcfc6e4d7210c88	0.24825726036406004
34	0x3fc1b6bc00000000	0.13838911056518555
35	0x3fd1a31bc0000000	0.27558034658432007
36	0x3fbd540accc5504b	0.11456363200460477
37	0xbfca1f0216407de0	-0.20407129370231214
38	0x3fe22c009eb0c8d2	0.5678713893342098
39	0x3fbe2fb47310f125	0.11791541871292972
40	0xbfe337e41ab1cfeb	-0.6005726357820981
41	0x3fce209deb33d54c	0.23537038788314602
42	0xbfa200ee00000000	-0.03516334295272827
43	0x3fdba285c0000000	0.43179458379745483
44	0xbfb63c42fca11785	-0.08685702007013958
45	0xbfd87e6e929a97d2	-0.3827167922667033
46	0x3fb3e7d5be3e5520	0.07775627035728805
47	0x3fe05e1d484bb5ee	0.5114885723139062
48	0x3fdd562fd93c0770	0.4583854314261009
49	0x3fb5d5febe602460	0.08529655597534846
50	0x3fc9c042980c184b	0.2011798136156265
51	0x3fe5ab2ff429d029	0.6771468895735825
52	0xbfb78b5357314a34	-0.09196968916629872
53	0xbfe3f302b08f6427	-0.6234143684806711
54	0x3fd76a59c0000000	0.36586612462997437
55	0x3fd64fb440000000	0.34861475229263306
56	0x3fd99f45c0000000	0.40034621953964233
57	0x3fdc4316c0000000	0.44159477949142456
58	0xbfe649adc7abac3e	-0.696493997556338
59	0xbfc8e16160f83bce	-0.19437806353422932
60	0x3fbf6b5ceb2a570d	0.12273197881071614
61	0x3fd91f8e033b621f	0.3925509482919853
62	0xbfb65e9100000000	-0.08738046884536743
63	0x3f61c64000000000	0.0021697282791137695
64	0x3fde3073d141fbba	0.47170730052306065
65	0x3fb572d0ed52c74d	0.08378320497538745
66	0x3fa5cefbe9f3c795	0.04259478789198493
67	0xbfe0731d9d3357c8	-0.514052207023945
68	0xbfe005e590e11805	-0.5007198171304031
69	0x3fc6258ec496e961	0.1730211696538602
70	0x3fd7bb02026c5a6e	0.37078905331274015
71	0xbfc00ab1a2894513	-0.12532635151232138
72	0x3fc9e6466ca75d5f	0.20233993821487226
73	0xbfc4fd12916ed1f7	-0.1639731607553043
74	0x3fe42360b72a4eea	0.6293185784765829
75	0xbfd409fa0f312791	-0.31310893519968724
76	0x3fc467c100000000	0.1594163179397583
77	0xbfcb8fa640000000	-0.21532133221626282
78	0xbfd5aceff3956fe9	-0.3386802557704401
79	0xbfca3bff7fb959aa	-0.20495599495434408
80	0x3fc2c58d80000000	0.14665383100509644
81	0x3fe4d045a0000000	0.6504238247871399
82	0xbfe2d95873eed504	-0.5890314354243462
83	0xbfd97ded579e2ede	-0.39831098133502774
84	0xbfc3b2807cd2f162	-0.15388494582101503
85	0x3fe55608def00867	0.6667522768259574
86	0x3fb24ca0a4fa27b4	0.07148174312365435
87	0xbfd0d496b872ff08	-0.26297538769357276
88	0x3fd386791eb3e6e5	0.30508258817972794
89	0x3f95f0de936a79c5	0.02142665648227095
90	0x3fe4f059b94be17a	0.6543396586485379
91	0x3fe3e1050b4a3a02	0.6212182255274572
92	0xbfe215138dac5e64	-0.5650728003556194
93	0xbfc52fa055a74c46	-0.16551593954372573
94	0xbfcc5c7900000000	-0.22157204151153564
95	0x3fc8b3f480000000	0.19299179315567017
96	0x3fd8637bbe5abaee	0.3810719832353432
97	0xbfd9c6d98f691026	-0.40276183133051047
98	0x3fbf5fdf15928347	0.12255663181941855
99	0xbfe5d967ed651c8e	-0.6827888142223786
100	0xbfe1cbc3d8b115ac	-0.5561236603031623
101	0xbfe2ea2f874c20e2	-0.5910871164824381
102	0x3fdf8ac340000000	0.4928444027900696
103	0x3fdbf77240000000	0.43697792291641235
104	0x3fe03f72146bcc8c	0.5077448271607792
105	0xbfc36ac8e927b5f7	-0.15169631371047362
106	0x3fe19d37a846fc62	0.5504415785470764
107	0x3fbadc626d81971f	0.10492530034533985
108	0x3fe3b99394a2d8a5	0.6164033797311005
109	0xbfe3d55afc538e20	-0.6197943619012598
110	0x3fe25ede39810fc4	0.5740805743339412
111	0xbfc6ea4280f4afbd	-0.17902404114408724
112	0xbfd09becc4ae2f4a	-0.2595168991763229
113	0xbfdde1ed8b1f1f5a	-0.4669145449265578
114	0x3fe44b30abf7a955	0.6341784819353885
115	0xbfd6033be64d4601	-0.34394738665022834
116	0xbfe178f1b94b0afc	-0.5460137003904886
117	0x3fca3abecbdf8489	0.20491776423208233
118	0xbfe1f63240000000	-0.5613032579421997
119	0xbfd7511ee0000000	-0.36432620882987976
120	0xbfcb721d32def179	-0.21441998466424275
121	0x3fbacfb1c1c92ba8	0.1047316644773405
122	0xbfbfdcfb45051913	-0.12446566042953959
123	0xbfdebd77bc3cbe2d	-0.4803141916517884
124	0x3fd6aa886286e562	0.354158493249619
125	0x3fdc2bf79e36153c	0.4401835484535075
126	0xbfcbfcce518d6a22	-0.21865252477694336
127	0xbfd944f5eec0207e	-0.3948340255306063
128	0xbfa456e200000000	-0.03972536325454712
129	0xbfd1593320000000	-0.27106931805610657
130	0x3fe2c7f410d8d591	0.5869083718341007
131	0x3fd401362ea29c9f	0.3125739531919382
132	0xbfd311c4d350d9e4	-0.29795952450095187
133	0x3fe5591015deef08	0.6671219279446357
134	0xbfe04c162c655073	-0.5092879168610253
135	0x3fe36da30baaf7f4	0.6071334102523438
136	0xbfab15708b56fcbc	-0.052897946366550624
137	0x3fdffc33d9726cf8	0.499768221235811
138	0x3f9193a19cccde67	0.01716473121197595
139	0x3fe4498355909902	0.6339737578571489
140	0x3fcf071f0301f17f	0.24240481993536986
141	0xbfcb3cd21eaa3bdb	-0.21279360291779778
142	0xbfe64dc5622d856b	-0.6969935338531007
143	0xbfe4e9349c5cb14d	-0.6534674695917971
144	0xbfe0b1efa036467c	-0.5217207078114394
145	0xbfe5b10c86ea0644	-0.6778624186556006
146	0xbfd82aefbb0b9d07	-0.377620632802476
147	0xbf9de3a84b079b33	-0.02918875654168147
148	0xbfd443cf01663a1e	-0.31663870941784633
149	0xbfc86356bded87f1	-0.19053158067532608
150	0x3fbbf1108cc27dd4	0.10914710461155802
151	0x3fc13bedcb64237c	0.13464138442239093
152	0x3fe08ef09239a149	0.5174486976584741
153	0x3fdd61d259c5bb8e	0.4590955616649176
154	0x3fd218ff40000000	0.2827757000923157
155	0x3fe0c6a660000000	0.524249255657196
156	0xbfd13a0c096c0a35	-0.26916790886039915
157	0x3fd47ac53d5deb37	0.3199933146749347
158	0xbfdd221911f89809	-0.4552061725138406
159	0x3fd2472a5225fa4c	0.28559358618068553
160	0xbfe58bcb7141f797	-0.6733147823394913
161	0x3fe5e6f3b12c3589	0.6844423733142985
162	0x3fd1dda9164a6aa3	0.27915408303094064
163	0x3fe574ca98e5cf8f	0.6705067621501132
164	0xbfdc1c23c9637cf7	-0.4392175165830418
165	0x3fe2678d3ead04aa	0.5751405929696791
166	0x3fd144a4c0000000	0.269814670085907
167	0x3fe3b5e960000000	0.6159560084342957
168	0xbfd86fe86219fdd4	-0.38183030681827046
169	0xbfe46f3ac66360d9	-0.6385778307694877
170	0xbfe2b85271932d6a	-0.585000249696731
171	0x3faef6e3192de481	0.06047734911312209
172	0xbfe647055ac82e3e	-0.6961695454678603
173	0x3fd2ca4c75485693	0.2935973306024177
174	0x3fcc09eb859a6504	0.21905273459996277
175	0xbfc6125b7efcdc58	-0.1724352235848723
176	0x3fdee68640000000	0.4828200936317444
177	0x3fd8a2d340000000	0.3849380612373352
178	0x3fd8d0b0c369ebd2	0.3877374561631629
179	0xbfb0aa33e52fed22	-0.06509708733931466
180	0x3fcf9a7d00000000	0.24690210819244385
181	0x3fd38df4c0000000	0.3055393099784851
182	0xbfd1caa560000000	-0.2779935300350189
183	0xbfb42bf500000000	-0.07879573106765747
184	0xbfcc4d037c6b1eca	-0.22110026908034391
185	0x3fd708877e377dd7	0.35989558530670024
186	0x3fc25c1392930880	0.14343495041800125
187	0xbfd78bc37a8833c9	-0.36790549245852994
188	0x3fbd215dd0933a61	0.11379038183370362
189	0x3fe6731925f572eb	0.7015500775702014
190	0x3fe0fe8da0000000	0.5310733914375305
191	0x3fe6346d20000000	0.6938996911048889
192	0x3fd31fdb400e2157	0.2988193631686235
193	0xbfe02ae046cacec6	-0.5052338965092182
194	0x3fe407dc1577e38d	0.6259594363501592
195	0xbfcea1a9458d3b93	-0.2393085088355887
196	0xbfda9c339fbf3c3b	-0.4157837924985334
197	0x3fdb2c53cb87df6e	0.42458052516985034
198	0xbfdf40369b691e9b	-0.48829426934069325
199	0x3fe0d416ab4222c5	0.5258897156610024
200	0x3fd382e9bab54537	0.3048652957268873
201	0x3fb3d3c4222ed7cf	0.07745004496140882
202	0x3fd1f74bb21a5f26	0.2807187308585405
203	0xbfe48f45858a3b16	-0.6424892051889823
204	0x3f88a3ec639e6339	0.01203140906345511
205	0x3fd57a42dcf5db83	0.3355872304741114
206	0xbfb7a2189bd310f1	-0.09231714062031295
207	0xbfc6d61151496b28	-0.17840782612878425
208	0xbfe131d8edb36904	-0.5373348848909534
209	0x3fdd7c3d26a0dcde	0.46070793888379835
210	0xbfd2974820000000	-0.2904835045337677
211	0xbfe3ebcb20000000	-0.62253338098526
212	0x3fa7e0e35bbde9eb	0.046637635182339064
213	0xbfa733c12b4cb11a	-0.04531673101004881
214	0x3fe071d31b818149	0.5138946091865729
215	0xbfe6626176d696fc	-0.6995093651828195
216	0xbfe5c2aa918d676b	-0.6800129740542905
217	0x3fd1269b6e433b2d	0.26798139350732947
218	0xbfb0b6c94583deee	-0.06528909632822508
219	0x3fe10d4408b3e4ab	0.5328693551993146
220	0x3fd2faa5d4597f4d	0.29654832589402674
221	0xbfdad8aec32e0e27	-0.41947526035821386
222	0xbfe4a110b7d9b104	-0.6446612921550074
223	0x3fd23ffc23abc532	0.2851553295468704
224	0xbfb4848700000000	-0.08014720678329468
225	0x3f9aaf2400000000	0.026058733463287354
226	0xbfd7341230836111	-0.36255316484086203
227	0x3fcc5489d32e2bdd	0.22132990657368526
228	0x3f901c66be180b5f	0.015733342506801914
229	0xbfe07c7dcf5caabb	-0.5151967096365618
230	0xbfdfd1709485de11	-0.49715818885985735
231	0xbfc0ff6357407918	-0.13279382477134827
232	0xbfd4e62d3b6142cd	-0.3265488700754247
233	0xbfc751fe3b6e72d4	-0.1821897306625916
234	0xbfe604e1494d1ce5	-0.6880957061447616
235	0xbfe46a7116b154db	-0.6379933779923265
236	0xbfd7c32444890c1f	-0.3712855023661081
237	0x3fde8ef883ca23cb	0.47747624273375483
238	0x3fd83dd8081036c6	0.3787746504539026
239	0x3fdbe1cef840821f	0.4356572555862232
240	0xbfe05b9a6e489909	-0.5111820367790482
241	0x3fd5994a9cc34733	0.3374811678778428
242	0x3fc8d5d800000000	0.19402599334716797
243	0xbfc0c21180000000	-0.13092249631881714
244	0x3fe2593eb873eea7	0.5733941652865341
245	0xbfe547a2f4684f1b	-0.6649946950514932
246	0x3fbf71633b0e3cb8	0.12282390777385188
247	0x3fd9a5d775cc32b1	0.4007471704833661
248	0x3fd238d180000000	0.2847179174423218
249	0xbf845be000000000	-0.009940862655639648
250	0x3fe06823cd1dd025	0.5127123838597113
251	0xbfe01fb7185f6265	-0.5038714862849473
252	0x3fd6e88656846b70	0.357942184915081
253	0xbfc488289d74e2e9	-0.1604052323180192
254	0x3fe067e6c3eeeb13	0.5126832796880499
255	0xbfe2502c615bc964	-0.5722867871793764
