Transformer-Time-Series-Forecasting-main/save_model/best_train_6.pth (torch, 259059 bytes, 38 tensors)

encoder_layer.self_attn.in_proj_weight f8 [6, 2]
00000000: 0000 0000 07be b4bf 0000 0040 0664 d63f
00000010: 0000 0040 bea8 d53f 0000 00a0 d4d6 e03f
00000020: 0000 0000 1e64 a43f 0000 0000 0285 a5bf
00000030: 0000 0040 de6c e4bf 0000 0040 ebdc eabf
00000040: 0000 0000 1273 a7bf 0000 0000 d709 e2bf
00000050: 0000 0080 5f02 cebf 0000 0020 931c e93f
-0.08102458715438843 0.3498550057411194 0.3384242653846741 0.5262244343757629 0.03982633352279663 -0.042030394077301025 -0.6382895708084106 -0.8394676446914673
-0.04579979181289673 -0.5637011528015137 -0.2344474196434021 0.7847381234169006

encoder_layer.self_attn.in_proj_bias f8 [6]
00000000: 0000 0000 0000 0000 0000 0000 0000 0000
00000010: 0000 0000 0000 0000 0000 0000 0000 0000
00000020: 0000 0000 0000 0000 0000 0000 0000 0000
0.0 0.0 0.0 0.0 0.0 0.0

encoder_layer.self_attn.out_proj.weight f8 [2, 2]
00000000: 0000 0040 e656 db3f 0000 0060 9bde e43f
00000010: 0000 0040 4a64 db3f 0000 0080 cae2 c73f
0.42717891931533813 0.6521736979484558 0.4279962182044983 0.18660861253738403

encoder_layer.self_attn.out_proj.bias f8 [2]
00000000: 0000 0000 0000 0000 0000 0000 0000 0000
0.0 0.0

encoder_layer.linear1.weight f8 [2048, 2]
00000000: 0000 0000 209a 7b3f 0000 0000 bab2 b43f
00000010: 0000 0080 d1bb d9bf 0000 0080 bc99 c8bf
00000020: 0000 00c0 7347 db3f 0000 0000 befe cbbf
00000030: 0000 00c0 50bd dd3f 0000 0060 a17b e23f
00000040: 0000 0000 4479 913f 0000 0040 7df6 dd3f
00000050: 0000 00a0 0f64 e1bf 0000 0000 60b3 933f
00000060: 0000 0040 2b5d d43f 0000 0000 d31e c8bf
00000070: 0000 0080 3946 e1bf 0000 0080 2502 c9bf
00000080: 0000 0020 fb2f e33f 0000 0060 80ca e1bf
00000090: 0000 0000 b8d5 9a3f 0000 00c0 bcc4 d03f
000000a0: 0000 0040 ed7f d33f 0000 0040 a339 df3f
000000b0: 0000 0000 a035 88bf 0000 00c0 d218 d93f
000000c0: 0000 0020 00f0 e53f 0000 0000 4024 65bf
000000d0: 0000 0000 1e55 a73f 0000 0000 fc65 c9bf
000000e0: 0000 0080 90df c2bf 0000 0040 f38d d73f
000000f0: 0000 0040 6cf9 cdbf 0000 0080 feb1 e4bf
00000100: 0000 0000 dbc6 c63f 0000 0000 b7ac bc3f
00000110: 0000 00a0 2fc0 e13f 0000 00c0 5cdc d33f
00000120: 0000 0000 b0af cb3f 0000 0080 3350 c43f
00000130: 0000 0040 1365 cfbf 0000 0080 fb03 d13f
00000140: 0000 0000 f6be d03f 0000 0000 e505 debf
00000150: 0000 0040 645f db3f 0000 0000 726f a73f
00000160: 0000 0060 3b1f e33f 0000 0000 ed4a cd3f
00000170: 0000 0020 373d e43f 0000 0020 7b23 debf
00000180: 0000 0000 fdf9 b2bf 0000 00c0 63eb d83f
00000190: 0000 0000 90a6 973f 0000 0040 e83c e4bf
000001a0: 0000 0040 1b48 e2bf 0000 0080 9247 c6bf
000001b0: 0000 0040 ceb6 d43f 0000 0000 82b0 b93f
000001c0: 0000 0000 6a61 aa3f 0000 0040 bd57 d33f
000001d0: 0000 0000 6cb0 c0bf 0000 00c0 a396 debf
000001e0: 0000 00a0 9023 e63f 0000 0060 7e7a e23f
000001f0: 0000 0040 a607 e4bf 0000 00a0 81ff dbbf
00000200: 0000 0060 ed92 e43f 0000 0040 425b d43f
00000210: 0000 00c0 9ad6 cebf 0000 00e0 d63b e53f
00000220: 0000 0080 5570 d2bf 0000 0000 de83 bebf
00000230: 0000 00c0 b4ea dd3f 0000 0000 c32c bfbf
00000240: 0000 0080 f601 e6bf 0000 0040 be2b d73f
00000250: 0000 0080 27da c9bf 0000 0000 e445 a53f
00000260: 0000 0000 b15f c73f 0000 0000 2337 cc3f
00000270: 0000 0040 e09d d83f 0000 0040 2b6d dd3f
00000280: 0000 0000 c022 583f 0000 00a0 532a e43f
00000290: 0000 0000 207d c23f 0000 0040 c77e d6bf
000002a0: 0000 0000 b83f 9fbf 0000 0000 ba50 cd3f
000002b0: 0000 00a0 b692 debf 0000 0060 3418 e2bf
000002c0: 0000 00a0 38ef e5bf 0000 0000 cca4 dcbf
000002d0: 0000 00c0 daaa d73f 0000 0080 0662 c5bf
000002e0: 0000 0000 8010 7fbf 0000 0000 c36f dabf
000002f0: 0000 00c0 f524 d43f 0000 0040 64e0 ddbf
00000300: 0000 00c0 f5f6 dfbf 0000 0060 9d6f e3bf
00000310: 0000 0020 b862 e1bf 0000 00c0 a37e df3f
00000320: 0000 0020 0b90 e43f 0000 0080 1727 d7bf
00000330: 0000 0040 0cfc dfbf 0000 00a0 d78b e23f
00000340: 0000 0080 5bf0 e0bf 0000 0060 7712 e13f
00000350: 0000 00c0 721f d93f 0000 0000 0043 c93f
00000360: 0000 0060 6f8e e03f 0000 00c0 eba2 d53f
00000370: 0000 00a0 8787 dfbf 0000 0000 2bf5 ba3f
00000380: 0000 0000 6ad9 d13f 0000 0000 cfcb c2bf
00000390: 0000 0000 26da a6bf 0000 0080 8606 c83f
000003a0: 0000 0000 cc86 ca3f 0000 0080 c245 cbbf
000003b0: 0000 0060 16e9 e03f 0000 0040 d488 d33f
000003c0: 0000 0000 6fef e1bf 0000 0020 feb2 d2bf
000003d0: 0000 0060 2f2f e23f 0000 0020 df5b e43f
000003e0: 0000 0000 b801 b5bf 0000 00a0 546a e4bf
000003f0: 0000 00a0 87cf e5bf 0000 0000 1722 c4bf
00000400: 0000 0000 fa2b a53f 0000 00c0 5f9d d83f
00000410: 0000 0080 ba89 e0bf 0000 0080 d846 c03f
00000420: 0000 0000 27e7 e0bf 0000 0060 2f18 e53f
00000430: 0000 0060 8d4a e53f 0000 00c0 be48 d03f
00000440: 0000 00e0 c332 e3bf 0000 0060 f9db e5bf
00000450: 0000 00a0 3057 dabf 0000 00e0 21de e23f
00000460: 0000 0000 7841 cf3f 0000 0080 0665 c3bf
00000470: 0000 0000 9eb8 e2bf 0000 00e0 66ae e03f
00000480: 0000 0080 f9b8 c63f 0000 0000 2e30 a13f
00000490: 0000 00c0 50d4 d63f 0000 00e0 1583 e23f
000004a0: 0000 0060 e8dd e3bf 0000 0000 145c ce3f
000004b0: 0000 0020 f95e d9bf 0000 0000 9547 c73f
000004c0: 0000 0080 5d54 c63f 0000 0000 ea30 ad3f
000004d0: 0000 0000 7054 823f 0000 0080 2d33 c53f
000004e0: 0000 0000 543d cd3f 0000 0040 e743 d1bf
000004f0: 0000 0080 a5d2 dcbf 0000 00a0 c81e d4bf
00000500: 0000 0080 946a c83f 0000 00c0 b50a d83f
00000510: 0000 00c0 8330 d93f 0000 0000 eddb c23f
00000520: 0000 0000 59ac bbbf 0000 0000 a049 c63f
00000530: 0000 0040 be3e db3f 0000 00e0 2879 e4bf
00000540: 0000 0020 95d7 e1bf 0000 0000 0ee8 a33f
00000550: 0000 0000 413e ca3f 0000 0060 78ee d3bf
00000560: 0000 00e0 b531 e23f 0000 0000 261e b7bf
00000570: 0000 00c0 23e4 da3f 0000 0080 c863 e3bf
00000580: 0000 00a0 b976 e3bf 0000 0000 d98e c63f
00000590: 0000 00c0 5488 cfbf 0000 00c0 85e5 e5bf
000005a0: 0000 0000 dd7d c0bf 0000 0000 b624 c03f
000005b0: 0000 0000 0019 42bf 0000 00e0 fb09 e23f
000005c0: 0000 0020 68e8 d7bf 0000 0040 1030 e6bf
000005d0: 0000 0000 adca bb3f 0000 0020 dd59 e13f
000005e0: 0000 00c0 03ce d93f 0000 0000 92fb e3bf
000005f0: 0000 0040 1dab d93f 0000 0060 5047 e23f
00000600: 0000 0000 388a bbbf 0000 0000 9de8 cb3f
00000610: 0000 00c0 23b9 d83f 0000 00a0 a2a4 d2bf
00000620: 0000 0000 70f7 7b3f 0000 00c0 54ae e3bf
00000630: 0000 0000 fc3d d2bf 0000 0060 00d9 d3bf
00000640: 0000 0000 f88e ae3f 0000 00c0 ca30 e5bf
00000650: 0000 00a0 6a5c d7bf 0000 0000 b1fc dfbf
00000660: 0000 00c0 6e38 d33f 0000 0020 8186 e5bf
00000670: 0000 0000 b9f6 dabf 0000 0080 9e1f c73f
00000680: 0000 0020 b5c8 e33f 0000 0000 d0f1 89bf
00000690: 0000 0000 b11c bcbf 0000 0080 16f9 c23f
000006a0: 0000 0040 314f d23f 0000 00e0 27aa e4bf
000006b0: 0000 0000 365d abbf 0000 00c0 b53f d4bf
000006c0: 0000 0000 1aac c7bf 0000 0020 5daa d8bf
000006d0: 0000 0000 2ffb e1bf 0000 00a0 56b8 d6bf
000006e0: 0000 0040 2f64 e6bf 0000 0020 6598 e13f
000006f0: 0000 0000 5e1f c53f 0000 00e0 1e79 e0bf
00000700: 0000 0020 cc50 e4bf 0000 0000 6918 d03f
00000710: 0000 0080 2f96 c53f 0000 0080 3ec6 cf3f
00000720: 0000 00a0 9257 dbbf 0000 00c0 f927 d63f
00000730: 0000 0060 d0b9 e5bf 0000 0000 e068 8b3f
00000740: 0000 0000 de73 c83f 0000 0000 48ab bdbf
00000750: 0000 0080 592d c9bf 0000 0060 252a e13f
00000760: 0000 00e0 5873 dbbf 0000 00c0 7b0d dd3f
00000770: 0000 00e0 8e70 d3bf 0000 00c0 2870 de3f
00000780: 0000 0040 f850 d93f 0000 0040 e4f0 dd3f
00000790: 0000 0020 05ee e03f 0000 0000 fdf0 c73f
000007a0: 0000 0080 b3ed c6bf 0000 00e0 a731 e63f
000007b0: 0000 0000 d6ef b4bf 0000 0020 60d6 e4bf
000007c0: 0000 0080 1b9d e2bf 0000 0080 e894 dabf
000007d0: 0000 0000 f044 9b3f 0000 00a0 2613 e63f
000007e0: 0000 0040 39bb db3f 0000 00a0 7f44 d5bf
000007f0: 0000 00a0 37ed d7bf 0000 0000 dbbf c8bf
0.006738781929016113 0.08085215091705322 -0.4020885229110718 -0.19219166040420532 0.426236093044281 -0.21871161460876465 0.46467989683151245 0.577591598033905
0.017064154148101807 0.46816951036453247 -0.5434644818305969 0.019238948822021484 0.31818658113479614 -0.18844068050384521 -0.5398223400115967 -0.19537800550460815
0.5996070504188538 -0.5559694170951843 0.026205897331237793 0.2620078921318054 0.30468302965164185 0.48789292573928833 -0.01182103157043457 0.39214009046554565
0.6855469346046448 -0.0025807619094848633 0.04557126760482788 -0.1984248161315918 -0.1474476456642151 0.36803895235061646 -0.23417428135871887 -0.6467278003692627
0.17794358730316162 0.1120104193687439 0.5547102093696594 0.31032484769821167 0.21629905700683594 0.15869754552841187 -0.24527207016944885 0.26586806774139404
0.261655330657959 -0.46910977363586426 0.42769724130630493 0.04577213525772095 0.5975624918937683 0.22884905338287354 0.632472574710846 -0.4709155857563019
-0.07412701845169067 0.3893670439720154 0.023096323013305664 -0.6324349641799927 -0.571302056312561 -0.1740592122077942 0.3236575722694397 0.1003495454788208
0.051524460315704346 0.30223017930984497 -0.13038396835327148 -0.4779443144798279 0.6918414235115051 0.5774528384208679 -0.6259337663650513 -0.43746986985206604
0.6429354548454285 0.3180699944496155 -0.24092420935630798 0.6635546088218689 -0.2881063222885132 -0.11919963359832764 0.4674503207206726 -0.1217767596244812
-0.6877396106719971 0.3620448708534241 -0.20197004079818726 0.041548848152160645 0.1826077699661255 0.22043263912200928 0.3846359848976135 0.45978814363479614
0.0014731287956237793 0.6301668286323547 0.14444351196289062 -0.351487934589386 -0.030516505241394043 0.22902607917785645 -0.4777046740055084 -0.5654546618461609
-0.6854518055915833 -0.4475584030151367 0.36980313062667847 -0.16705399751663208 -0.007584095001220703 -0.4130713939666748 0.3147558569908142 -0.46682077646255493
-0.4994482398033142 -0.6073748469352722 -0.5433006882667542 0.4921044707298279 0.642583429813385 -0.3617609739303589 -0.499758780002594 0.5795705914497375
-0.5293405055999756 0.5335041880607605 0.3925444483757019 0.197357177734375 0.5173870921134949 0.3380689024925232 -0.49264708161354065 0.10530346632003784
0.27889490127563477 -0.146844744682312 -0.04463309049606323 0.18769913911819458 0.20723867416381836 -0.21306639909744263 0.5284530520439148 0.3052263855934143
-0.5604777336120605 -0.2921748459339142 0.5682598948478699 0.6362147927284241 -0.08205747604370117 -0.6379798054695129 -0.6815832257270813 -0.15729033946990967
0.041351139545440674 0.384605348110199 -0.5168125629425049 0.12716203927993774 -0.5282168388366699 0.6592022776603699 0.665350615978241 0.2544400095939636
-0.599946916103363 -0.6831023097038269 -0.4115716516971588 0.5896157622337341 0.2441854476928711 -0.15152055025100708 -0.5850362777709961 0.5212892889976501
0.17751997709274292 0.033570706844329834 0.35670870542526245 0.5785016417503357 -0.6208383440971375 0.23718500137329102 -0.3964217007160187 0.18187201023101807
0.174449622631073 0.05701380968093872 0.008950114250183105 0.16562432050704956 0.22843408584594727 -0.26976948976516724 -0.4503568410873413 -0.31437888741493225
0.1907525658607483 0.3756536841392517 0.39358609914779663 0.14733660221099854 -0.10809856653213501 0.17412185668945312 0.4257045388221741 -0.6397899985313416
-0.557566225528717 0.03887981176376343 0.2050248384475708 -0.31143006682395935 0.5685681700706482 -0.09030377864837646 0.4201745390892029 -0.6059305667877197
-0.6082428097724915 0.17623436450958252 -0.24634799361228943 -0.6842678785324097 -0.12884104251861572 0.12612032890319824 -0.0005522966384887695 0.5637187361717224
-0.37355998158454895 -0.6933671236038208 0.10856133699417114 0.5422196984291077 0.40319913625717163 -0.6244592666625977 0.4010689854621887 0.5712053179740906
-0.10757780075073242 0.21803629398345947 0.3863000273704529 -0.2912985384464264 0.0068277716636657715 -0.6150306463241577 -0.2850332260131836 -0.31011971831321716
0.05968451499938965 -0.6622060537338257 -0.3650156557559967 -0.499798059463501 0.3003193736076355 -0.672668993473053 -0.4213087558746338 0.1806524395942688
0.6182504296302795 -0.012668251991271973 -0.10981279611587524 0.1482265591621399 0.28608351945877075 -0.6457709670066833 -0.053445518016815186 -0.3163885474205017
-0.18493962287902832 -0.38539817929267883 -0.5619120597839355 -0.3550011217594147 -0.6997295618057251 0.5498529076576233 0.16501975059509277 -0.5147852301597595
-0.6348629593849182 0.25148987770080566 0.16864579916000366 0.24823743104934692 -0.42722001671791077 0.3461899161338806 -0.6789323687553406 0.013383626937866211
0.19103598594665527 -0.11589479446411133 -0.1966964602470398 0.5363947749137878 -0.42891523241996765 0.4539479613304138 -0.30374500155448914 0.4755956530570984
0.39556699991226196 0.46782785654067993 0.5290551781654358 0.18704187870025635 -0.17912906408309937 0.6935614943504333 -0.08178460597991943 -0.6511688828468323
-0.5816781520843506 -0.4153386354446411 0.026630163192749023 0.6898377537727356 0.43330222368240356 -0.33230581879615784 -0.3738535940647125 -0.19335496425628662

encoder_layer.linear1.bias f8 [2048]
00000000: 0000 0000 58ba 88bf 0000 0000 519c e6bf
00000010: 0000 00e0 ddfe e53f 0000 0040 df86 df3f
00000020: 0000 0040 9bec d93f 0000 0000 26df c53f
00000030: 0000 00c0 5a82 e6bf 0000 0020 7ee5 e23f
00000040: 0000 0000 7ca2 b33f 0000 0080 f74d ce3f
00000050: 0000 0040 1cb4 d83f 0000 0020 7434 d7bf
00000060: 0000 0060 6894 e03f 0000 0080 6db4 cdbf
00000070: 0000 0020 3d2f e4bf 0000 0040 0f10 e2bf
00000080: 0000 0000 336a cf3f 0000 00c0 75ef ccbf
00000090: 0000 0040 75a7 dc3f 0000 0080 f8fe c53f
000000a0: 0000 0000 97cc c7bf 0000 0000 436f e5bf
000000b0: 0000 0000 0ca7 be3f 0000 0080 c426 d23f
000000c0: 0000 0000 9dd0 cebf 0000 0040 3297 e1bf
000000d0: 0000 00c0 6962 dc3f 0000 0000 2528 c43f
000000e0: 0000 00c0 02e5 d2bf 0000 00a0 8106 e03f
000000f0: 0000 0020 f5f0 e53f 0000 0080 46af e1bf
00000100: 0000 00a0 5534 d5bf 0000 0000 6c1b ddbf
00000110: 0000 0000 1c95 e2bf 0000 00e0 cfe2 dbbf
00000120: 0000 0080 a7c9 d13f 0000 0040 eb32 d83f
00000130: 0000 0000 4a88 a63f 0000 0000 1983 cc3f
00000140: 0000 0000 b67c b0bf 0000 0060 9807 e03f
00000150: 0000 0060 529e d1bf 0000 0000 cdf7 c63f
00000160: 0000 00e0 1485 e43f 0000 0020 d5f7 e33f
00000170: 0000 0000 4844 d9bf 0000 0080 aaae cd3f
00000180: 0000 0000 0e7b c0bf 0000 0080 b06d debf
00000190: 0000 0040 62fd e1bf 0000 00a0 c425 d0bf
000001a0: 0000 0040 bba7 df3f 0000 0080 82d0 cd3f
000001b0: 0000 0060 4a30 e63f 0000 00e0 378e e03f
000001c0: 0000 0020 c694 e6bf 0000 00c0 9f5c d9bf
000001d0: 0000 0040 a0bf debf 0000 00c0 b2d9 e0bf
000001e0: 0000 00c0 b3ec d53f 0000 0000 85d1 b53f
000001f0: 0000 0020 9622 e5bf 0000 0000 3b36 b5bf
00000200: 0000 0000 b719 b83f 0000 00e0 b4ea e13f
00000210: 0000 0080 27d0 d8bf 0000 0000 7961 bc3f
00000220: 0000 0000 cf75 dcbf 0000 0020 49ce e33f
00000230: 0000 0080 e805 cebf 0000 0000 6dce c43f
00000240: 0000 0040 0825 d33f 0000 0060 b88c e13f
00000250: 0000 00c0 660b d63f 0000 0080 d426 d03f
00000260: 0000 0000 1e8d b73f 0000 0020 e68e e1bf
00000270: 0000 00a0 40be d2bf 0000 00a0 4806 e13f
00000280: 0000 0000 6050 70bf 0000 00c0 21a7 d83f
00000290: 0000 0000 c146 ca3f 0000 0000 0668 c2bf
000002a0: 0000 00c0 eedd d03f 0000 0080 58ce c73f
000002b0: 0000 0040 1a26 ccbf 0000 00a0 b39b e33f
000002c0: 0000 0060 2ba3 dbbf 0000 0020 5ed3 e5bf
000002d0: 0000 0080 c0c5 c4bf 0000 0080 717e ddbf
000002e0: 0000 0000 12e2 bc3f 0000 00c0 0724 d23f
000002f0: 0000 0040 50aa d0bf 0000 0000 f761 dabf
00000300: 0000 00e0 a491 e03f 0000 0000 493f dbbf
00000310: 0000 00a0 db4f e1bf 0000 00c0 9308 d43f
00000320: 0000 00c0 55e2 d4bf 0000 00c0 d2ae e0bf
00000330: 0000 00c0 2355 d7bf 0000 0060 c1ff e0bf
00000340: 0000 0000 4b84 d03f 0000 0000 5f1a c13f
00000350: 0000 0000 fe7e b33f 0000 0080 af89 c63f
00000360: 0000 0000 e0de a43f 0000 0020 72e5 e5bf
00000370: 0000 0000 b456 b73f 0000 0060 6523 d1bf
00000380: 0000 0040 03b8 e3bf 0000 0020 e075 e13f
00000390: 0000 0000 127c bd3f 0000 0000 67a7 e5bf
000003a0: 0000 0080 98e5 c2bf 0000 0000 0078 843f
000003b0: 0000 0000 c7f3 b93f 0000 0080 e197 d13f
000003c0: 0000 00a0 dc81 d4bf 0000 0000 ea22 cabf
000003d0: 0000 00c0 6109 d0bf 0000 0080 8299 ca3f
000003e0: 0000 00a0 b10a d5bf 0000 0000 3af9 a23f
000003f0: 0000 0060 7d84 d9bf 0000 0000 3a9a ac3f
00000400: 0000 0060 5a13 e0bf 0000 00e0 3eb0 e2bf
00000410: 0000 00c0 b853 e5bf 0000 00e0 ba96 e3bf
00000420: 0000 0020 eff5 d6bf 0000 00c0 44a9 d93f
00000430: 0000 0040 7455 d1bf 0000 0040 7495 d73f
00000440: 0000 0000 db8e d03f 0000 0080 596f cc3f
00000450: 0000 0000 6488 a63f 0000 0060 59ed e53f
00000460: 0000 0080 f27a ca3f 0000 00c0 c53d d5bf
00000470: 0000 0040 5993 de3f 0000 0080 a677 e2bf
00000480: 0000 0000 20a0 8abf 0000 0040 62b7 e1bf
00000490: 0000 0000 9a2d b1bf 0000 0000 7b6b bb3f
000004a0: 0000 0000 0066 b3bf 0000 0000 6c92 b43f
000004b0: 0000 00a0 2913 e0bf 0000 00e0 bc58 e43f
000004c0: 0000 00c0 32b7 d83f 0000 0040 b622 e5bf
000004d0: 0000 00c0 0e64 e6bf 0000 0000 7c1a afbf
000004e0: 0000 00c0 caba ddbf 0000 0000 07b8 bbbf
000004f0: 0000 0000 b453 b2bf 0000 0000 74e9 a8bf
00000500: 0000 00e0 3d40 e13f 0000 0060 0ac4 d1bf
00000510: 0000 0000 b0df b6bf 0000 0040 8e47 d33f
00000520: 0000 0020 1919 e33f 0000 00e0 3450 e63f
00000530: 0000 00a0 cef1 dabf 0000 0080 3b52 e5bf
00000540: 0000 0080 8fb5 cd3f 0000 00c0 a24c cebf
00000550: 0000 00c0 1a5b debf 0000 0000 cea0 d4bf
00000560: 0000 0000 1f1e dabf 0000 0040 f983 dfbf
00000570: 0000 00c0 180a d4bf 0000 00c0 2aa6 db3f
00000580: 0000 0000 95ee e2bf 0000 0000 e086 cdbf
00000590: 0000 0060 dcef e23f 0000 0000 00df 5f3f
000005a0: 0000 00a0 4aeb e53f 0000 0060 e530 e2bf
000005b0: 0000 00c0 cfda d63f 0000 00c0 8c9b d13f
000005c0: 0000 00e0 0767 e23f 0000 0040 80d5 dc3f
000005d0: 0000 0020 caf2 e33f 0000 00c0 813b d2bf
000005e0: 0000 0000 482b 8e3f 0000 0080 f5b9 d3bf
000005f0: 0000 00c0 b6e5 de3f 0000 0060 c16a e53f
00000600: 0000 0060 fbed e03f 0000 0000 5c6a b2bf
00000610: 0000 0020 747d e23f 0000 0020 77d7 d7bf
00000620: 0000 00c0 822d e3bf 0000 0040 cfb7 d1bf
00000630: 0000 0060 df16 e4bf 0000 0040 dbfc d43f
00000640: 0000 0000 615f cd3f 0000 00a0 8fcc e13f
00000650: 0000 00c0 7320 d43f 0000 0060 c528 dcbf
00000660: 0000 0000 a228 c83f 0000 00c0 a4b2 d83f
00000670: 0000 0000 167f e3bf 0000 0000 fedd ae3f
00000680: 0000 0080 77ef d6bf 0000 0000 cfea ce3f
00000690: 0000 00c0 03a5 e4bf 0000 00c0 bb2a dd3f
000006a0: 0000 00e0 de48 dabf 0000 00c0 330a d53f
000006b0: 0000 00c0 a644 e4bf 0000 0000 09a0 e4bf
000006c0: 0000 0000 cacc c03f 0000 0040 05e8 df3f
000006d0: 0000 0080 8a05 c63f 0000 00c0 3e83 dc3f
000006e0: 0000 00a0 4a14 e63f 0000 00c0 ef06 e4bf
000006f0: 0000 00c0 f4f1 dd3f 0000 00c0 6833 d33f
00000700: 0000 0080 fb4d cb3f 0000 00c0 1e51 d63f
00000710: 0000 0040 210a de3f 0000 0000 6cc9 b5bf
00000720: 0000 0040 152e d2bf 0000 0000 aed1 c43f
00000730: 0000 0040 4aa0 dcbf 0000 0060 a2d4 d2bf
00000740: 0000 00c0 77ba e0bf 0000 00c0 f819 e6bf
00000750: 0000 0020 3175 e33f 0000 00c0 0981 dcbf
00000760: 0000 0000 01a2 cb3f 0000 00a0 a08f e03f
00000770: 0000 0020 1f84 d1bf 0000 0000 c461 d23f
00000780: 0000 0080 8aeb c1bf 0000 00e0 876d d8bf
00000790: 0000 00c0 152f db3f 0000 0000 da3f b63f
000007a0: 0000 0000 805a af3f 0000 0000 72b7 b53f
000007b0: 0000 0020 fc94 d8bf 0000 00c0 6e3c d63f
000007c0: 0000 0020 b819 e23f 0000 0060 613d d0bf
000007d0: 0000 0000 5ddf cfbf 0000 0000 8088 8cbf
000007e0: 0000 0000 9144 dcbf 0000 0000 f34c cbbf
000007f0: 0000 0080 0050 e5bf 0000 00c0 381a d83f
-0.012074172496795654 -0.7065815925598145 0.6873616576194763 0.4926069378852844 0.4050663113594055 0.17087244987487793 -0.7034124135971069 0.5905142426490784
0.07669806480407715 0.23675435781478882 0.3859930634498596 -0.36257651448249817 0.5181161761283875 -0.2320687174797058 -0.6307664513587952 -0.5644603967666626
0.2454284429550171 -0.2260577380657196 0.44772082567214966 0.17184358835220337 -0.18593108654022217 -0.6698317527770996 0.1197364330291748 0.28361618518829346
-0.24074137210845947 -0.5497065782546997 0.44350665807724 0.15747511386871338 -0.29522770643234253 0.5007942318916321 0.6856637597084045 -0.5526459217071533
-0.33131924271583557 -0.45479869842529297 -0.5807018280029297 -0.43571850657463074 0.2779330015182495 0.37810784578323364 0.04400855302810669 0.22275078296661377
-0.06440293788909912 0.5009271502494812 -0.2752881944179535 0.1794372797012329 0.6412453055381775 0.624002993106842 -0.3947925567626953 0.2318928837776184
-0.1287553310394287 -0.4754449129104614 -0.5621806383132935 -0.25230517983436584 0.49461251497268677 0.23292571306228638 0.6933948397636414 0.5173606276512146
-0.705660879611969 -0.3962783217430115 -0.480445921421051 -0.5265744924545288 0.3425721526145935 0.08522826433181763 -0.6604719758033752 -0.08285874128341675
0.0941423773765564 0.55990070104599 -0.3877047300338745 0.11086231470108032 -0.444690465927124 0.6189313530921936 -0.23455530405044556 0.16254961490631104
0.2991352677345276 0.5484277606010437 0.3444458842277527 0.2523699998855591 0.09199702739715576 -0.5486937165260315 -0.29286208748817444 0.5320170521736145
-0.003982901573181152 0.3852009177207947 0.2052842378616333 -0.1437995433807373 0.2635456919670105 0.18598467111587524 -0.2199127972126007 0.6127565503120422
-0.43183407187461853 -0.6820517182350159 -0.16228491067886353 -0.460842490196228 0.11282455921173096 0.28344911336898804 -0.2603951096534729 -0.4122292995452881
0.5177788138389587 -0.4257376194000244 -0.5409982800483704 0.31302350759506226 -0.32631438970565796 -0.5213407278060913 -0.3645715117454529 -0.5312201380729675
0.2580745220184326 0.13361728191375732 0.07615649700164795 0.17607682943344116 0.040762901306152344 -0.6842585206031799 0.09116673469543457 -0.2677854001522064
-0.6162124872207642 0.5456390976905823 0.11517441272735596 -0.6766848564147949 -0.1476317048072815 0.0099945068359375 0.1013759970664978 0.2748950719833374
-0.3204261362552643 -0.20419049263000488 -0.2505726218223572 0.20780974626541138 -0.3287777006626129 0.037057697772979736 -0.39871153235435486 0.055864155292510986
-0.5023624300956726 -0.584014356136322 -0.666469931602478 -0.6121496558189392 -0.35876062512397766 0.40095633268356323 -0.27084070444107056 0.36849695444107056
0.25871920585632324 0.2221481204032898 0.04400932788848877 0.6852232813835144 0.20687705278396606 -0.33189529180526733 0.4777434468269348 -0.5771057605743408
-0.013000726699829102 -0.5536357164382935 -0.06710207462310791 0.10710877180099487 -0.075775146484375 0.08035922050476074 -0.5023391842842102 0.6358322501182556
0.3861815333366394 -0.6604872941970825 -0.6997140645980835 -0.060748934745788574 -0.46452587842941284 -0.10827678442001343 -0.07158970832824707 -0.04865610599517822
0.5390920042991638 -0.2775903642177582 -0.08935070037841797 0.3012424111366272 0.5968137383460999 0.69729083776474 -0.42100873589515686 -0.6662881374359131
0.23210328817367554 -0.2367137372493744 -0.47431057691574097 -0.3223147392272949 -0.40808844566345215 -0.49243003129959106 -0.31311625242233276 0.4320170283317566
-0.5916237831115723 -0.23067855834960938 0.591779887676239 0.0019452571868896484 0.6849721074104309 -0.5684687495231628 0.35710519552230835 0.27511900663375854
0.5750769972801208 0.4505310654640198 0.6233873963356018 -0.2848820090293884 0.014730989933013916 -0.30822503566741943 0.4827706217765808 0.6692816615104675
0.5290505290031433 -0.07193541526794434 0.5778141617774963 -0.3725259602069855 -0.5993055105209351 -0.2768438458442688 -0.6277920603752136 0.327933132648468
0.22947323322296143 0.5562208294868469 0.314480721950531 -0.43998846411705017 0.18874001502990723 0.385903537273407 -0.6092634201049805 0.060287415981292725
-0.35836589336395264 0.241540789604187 -0.6451433897018433 0.4557332396507263 -0.41069766879081726 0.3287476897239685 -0.6333802938461304 -0.6445355415344238
0.13124966621398926 0.4985364079475403 0.17204409837722778 0.4455105662345886 0.6899769902229309 -0.6258467435836792 0.4678928256034851 0.3000127673149109
0.21331733465194702 0.3487011790275574 0.4693682789802551 -0.08510470390319824 -0.2840626835823059 0.16264891624450684 -0.4472833275794983 -0.2942281663417816
-0.5227621793746948 -0.690670371055603 0.6080556511878967 -0.44537585973739624 0.21588146686553955 0.5175326466560364 -0.27368906140327454 0.2872171401977539
-0.14000064134597778 -0.3816852271556854 0.42474883794784546 0.08691179752349854 0.061237335205078125 0.0848304033279419 -0.384093314409256 0.3474385142326355
0.5656395554542542 -0.25374636054039 -0.24900400638580322 -0.013932228088378906 -0.4416849613189697 -0.21328580379486084 -0.6660158634185791 0.376600444316864

encoder_layer.linear2.weight f8 [2, 2048]
00000000: 0000 00e0 e59d 86bf 0000 0060 b91f 90bf
00000010: 0000 0000 d886 663f 0000 0060 670e 8cbf
00000020: 0000 0020 eb49 8dbf 0000 00c0 8b2c 823f
00000030: 0000 00c0 c8df 8fbf 0000 00a0 dfca 953f
00000040: 0000 0040 75df 873f 0000 00c0 b9df 893f
00000050: 0000 00c0 754e 8b3f 0000 0060 800d 953f
00000060: 0000 00a0 154d 923f 0000 00c0 199a 8b3f
00000070: 0000 0000 4851 6ebf 0000 0020 02d3 953f
00000080: 0000 0060 0096 943f 0000 0020 d144 953f
00000090: 0000 0040 66cf 853f 0000 0080 0360 803f
000000a0: 0000 00a0 1104 953f 0000 00a0 8133 8dbf
000000b0: 0000 00e0 46d6 89bf 0000 0080 d9d3 703f
000000c0: 0000 00c0 bac6 853f 0000 0000 4ff4 6b3f
000000d0: 0000 0080 4e6d 94bf 0000 0080 6e3e 7b3f
000000e0: 0000 00a0 60ed 903f 0000 0000 62e5 653f
000000f0: 0000 0000 9341 783f 0000 00c0 3e77 82bf
00000100: 0000 0000 202d 773f 0000 0020 c660 83bf
00000110: 0000 0040 75f0 93bf 0000 0020 620c 81bf
00000120: 0000 0020 5fbd 943f 0000 0020 b9ef 943f
00000130: 0000 0080 4c68 86bf 0000 0080 08ad 73bf
00000140: 0000 0000 502b 95bf 0000 0080 f591 83bf
00000150: 0000 0000 6ce1 76bf 0000 0080 3709 7f3f
00000160: 0000 0040 205d 8f3f 0000 00c0 00a1 8f3f
00000170: 0000 00e0 2907 933f 0000 0080 5b11 783f
00000180: 0000 0020 3317 94bf 0000 0000 0cf8 4f3f
00000190: 0000 00e0 0e14 933f 0000 0040 1926 883f
000001a0: 0000 0080 10ae 7d3f 0000 00e0 9acc 91bf
000001b0: 0000 0040 2469 8d3f 0000 0000 8cc0 503f
000001c0: 0000 0060 1f67 93bf 0000 0040 a99f 90bf
000001d0: 0000 00c0 255a 93bf 0000 00a0 46c9 903f
000001e0: 0000 00e0 456b 943f 0000 0000 8267 90bf
000001f0: 0000 00e0 d7af 923f 0000 00a0 51ff 87bf
00000200: 0000 0000 96c1 6ebf 0000 0000 3e58 813f
00000210: 0000 0000 2124 85bf 0000 0060 5852 96bf
00000220: 0000 0080 5d77 90bf 0000 00c0 9e6b 8fbf
00000230: 0000 0020 ea6d 92bf 0000 00a0 d64f 85bf
00000240: 0000 0040 23de 803f 0000 00c0 9bda 8a3f
00000250: 0000 0000 152e 89bf 0000 00a0 4a34 89bf
00000260: 0000 0000 82e3 91bf 0000 0040 d95b 91bf
00000270: 0000 00c0 d50e 7dbf 0000 0020 4c73 95bf
00000280: 0000 00c0 613c 893f 0000 00c0 e4f4 8ebf
00000290: 0000 0000 6d37 87bf 0000 0040 b4b5 883f
000002a0: 0000 00c0 5319 8c3f 0000 0000 499f 6ebf
000002b0: 0000 0000 e292 5dbf 0000 0080 6699 7ebf
000002c0: 0000 0000 6091 40bf 0000 0000 aa07 823f
000002d0: 0000 0040 aa94 8d3f 0000 0000 cd86 6fbf
000002e0: 0000 0040 a3b6 8b3f 0000 0000 5476 41bf
000002f0: 0000 00e0 b89a 89bf 0000 0080 9817 80bf
00000300: 0000 0080 2a56 7c3f 0000 0000 1c8e 6a3f
00000310: 0000 0080 b768 713f 0000 00c0 0359 86bf
00000320: 0000 00e0 3c42 96bf 0000 00e0 86f5 953f
00000330: 0000 0020 78c9 81bf 0000 0040 dad6 7fbf
00000340: 0000 0060 58fe 92bf 0000 0000 fe83 70bf
00000350: 0000 0000 86bb 7b3f 0000 0080 847b 803f
00000360: 0000 0040 a310 8e3f 0000 0020 aa06 90bf
00000370: 0000 00c0 e079 80bf 0000 0040 0600 96bf
00000380: 0000 0040 e71f 813f 0000 00c0 c55e 95bf
00000390: 0000 0080 2d6c 7abf 0000 0000 130e 633f
000003a0: 0000 00c0 03b2 93bf 0000 00e0 eca2 933f
000003b0: 0000 00c0 ddd0 833f 0000 0080 a596 723f
000003c0: 0000 00e0 b3a8 953f 0000 0000 e1fc 8dbf
000003d0: 0000 0000 3779 76bf 0000 0040 7f39 833f
000003e0: 0000 0000 8c31 403f 0000 00e0 d7cb 86bf
000003f0: 0000 00c0 639c 8e3f 0000 00e0 658a 96bf
00000400: 0000 00a0 8509 93bf 0000 0000 5770 713f
00000410: 0000 0000 44c6 7f3f 0000 0000 1724 763f
00000420: 0000 0000 e69e 613f 0000 00e0 a0d6 87bf
00000430: 0000 0080 376e 703f 0000 0060 b5f0 95bf
00000440: 0000 0040 3fdd 823f 0000 0060 f20a 953f
00000450: 0000 00c0 a0b7 8dbf 0000 0060 e737 963f
00000460: 0000 0000 5907 653f 0000 0000 1369 74bf
00000470: 0000 00c0 1714 8b3f 0000 00c0 d45b 893f
00000480: 0000 0040 98d4 90bf 0000 00c0 592c 893f
00000490: 0000 0080 8ce9 91bf 0000 0020 2a85 92bf
000004a0: 0000 0000 680c 8fbf 0000 0060 3c0b 913f
000004b0: 0000 0000 5407 4fbf 0000 0060 49ae 85bf
000004c0: 0000 00c0 1537 83bf 0000 00e0 fd53 81bf
000004d0: 0000 0060 aa01 8ebf 0000 0020 f849 933f
000004e0: 0000 0060 6148 903f 0000 0000 222b 553f
000004f0: 0000 0040 c4b4 92bf 0000 00c0 1836 813f
00000500: 0000 00e0 dc52 8fbf 0000 0080 3685 7fbf
00000510: 0000 0020 cca2 923f 0000 00e0 129c 91bf
00000520: 0000 0000 7249 94bf 0000 0080 3310 7c3f
00000530: 0000 0080 a537 783f 0000 0000 9836 333f
00000540: 0000 0000 6547 79bf 0000 0040 7337 8d3f
00000550: 0000 0000 c486 653f 0000 0000 8a0a 80bf
00000560: 0000 00a0 de15 963f 0000 0000 3062 3a3f
00000570: 0000 00e0 07c5 933f 0000 0040 dd25 8ebf
00000580: 0000 00e0 f39f 903f 0000 0000 126a 64bf
00000590: 0000 0000 6306 6a3f 0000 0000 9f34 823f
000005a0: 0000 0040 9506 8b3f 0000 0080 3cca 783f
000005b0: 0000 00c0 d4cc 8cbf 0000 0080 3adf 91bf
000005c0: 0000 0040 6a65 92bf 0000 00e0 d639 963f
000005d0: 0000 0000 880c 8cbf 0000 0060 a55f 84bf
000005e0: 0000 00a0 a090 943f 0000 00c0 c307 8f3f
000005f0: 0000 0000 d7e5 6d3f 0000 0020 16f8 903f
00000600: 0000 00e0 0eca 8dbf 0000 0000 69b1 793f
00000610: 0000 0080 3066 723f 0000 00c0 810e 8f3f
00000620: 0000 0080 c989 92bf 0000 0000 cbec 6c3f
00000630: 0000 00c0 9bb8 89bf 0000 0000 81f2 94bf
00000640: 0000 0000 0898 5f3f 0000 0080 09c4 723f
00000650: 0000 00c0 4050 8d3f 0000 0060 338b 933f
00000660: 0000 0060 cc98 963f 0000 0040 23ad 85bf
00000670: 0000 00c0 49fb 7dbf 0000 0080 bc80 89bf
00000680: 0000 00e0 8a72 8cbf 0000 0040 2da2 823f
00000690: 0000 0080 f818 7b3f 0000 00e0 66f4 953f
000006a0: 0000 0060 c98c 81bf 0000 0000 6a4a 87bf
000006b0: 0000 0060 3a2e 963f 0000 0000 685a 433f
000006c0: 0000 0080 221a 74bf 0000 0060 918c 85bf
000006d0: 0000 0080 2896 763f 0000 0000 2241 93bf
000006e0: 0000 0020 a276 943f 0000 0040 6ecb 8dbf
000006f0: 0000 00a0 ea55 8abf 0000 0040 0d10 82bf
00000700: 0000 0040 cf01 8d3f 0000 0080 263e 7e3f
00000710: 0000 0040 8707 813f 0000 0040 b16a 8f3f
00000720: 0000 0020 9da7 86bf 0000 00c0 12ed 8d3f
00000730: 0000 0000 fd56 79bf 0000 0040 ebad 93bf
00000740: 0000 0000 3c05 92bf 0000 0020 a9a2 91bf
00000750: 0000 00c0 4009 833f 0000 0000 b3ab 74bf
00000760: 0000 00c0 4da7 91bf 0000 0080 0680 783f
00000770: 0000 00e0 069b 8cbf 0000 00a0 01f4 923f
00000780: 0000 0000 b123 71bf 0000 0000 cbc5 7bbf
00000790: 0000 0040 5621 813f 0000 00c0 d215 8dbf
000007a0: 0000 0000 13bc 633f 0000 0000 1407 80bf
000007b0: 0000 0060 5ce4 83bf 0000 0000 a6c5 643f
000007c0: 0000 0080 7efb 773f 0000 0000 b63a 67bf
000007d0: 0000 0020 ac33 94bf 0000 00c0 cc88 92bf
000007e0: 0000 0020 4a6e 963f 0000 0000 2052 763f
000007f0: 0000 0060 97ed 913f 0000 00c0 5f4e 833f
-0.01104335393756628 -0.015746017917990685 0.0027498453855514526 -0.013699348084628582 -0.014301144517958164 0.00887402705848217 -0.01556355319917202 0.021281713619828224
0.011656681075692177 0.012633753940463066 0.013333244249224663 0.020559316501021385 0.017872178927063942 0.013477517291903496 -0.0037008672952651978 0.021312745288014412
0.020103460177779198 0.020770328119397163 0.010649489238858223 0.00799563154578209 0.02052333392202854 -0.014258396811783314 -0.012615731917321682 0.004108285531401634
0.01063295267522335 0.0034123938530683517 -0.019948221743106842 0.0066513363271951675 0.01653052307665348 0.0026728548109531403 0.00592191144824028 -0.009016504511237144
0.005658268928527832 -0.009461925365030766 -0.01947196200489998 -0.008324400521814823 0.02025364525616169 0.020445721223950386 -0.010941121727228165 -0.004803689196705818
-0.020673036575317383 -0.009555738419294357 -0.00558607280254364 0.007577149197459221 0.015314342454075813 0.01544380746781826 0.018582014366984367 0.0058759283274412155
-0.01961974985897541 0.0009756144136190414 0.01863120310008526 0.011791417375206947 0.007246078923344612 -0.017382068559527397 0.014360697939991951 0.0010224692523479462
-0.018948068842291832 -0.016234058886766434 -0.018898572772741318 0.01639280654489994 0.019940463826060295 -0.016019850969314575 0.018248913809657097 -0.011717450805008411
-0.0037544183433055878 0.00846908986568451 -0.010322816669940948 -0.021798497065901756 -0.016080342233181 -0.0153419878333807 -0.017997415736317635 -0.010406185872852802
0.008236194029450417 0.013112274929881096 -0.01229492574930191 -0.012306769378483295 -0.017469435930252075 -0.01695193722844124 -0.007094225846230984 -0.020947637036442757
0.0123222004622221 -0.015115534886717796 -0.011336185038089752 0.012065323069691658 0.013720182701945305 -0.0037380624562501907 -0.0018050391227006912 -0.007470512762665749
-0.0005056113004684448 0.008803680539131165 0.014443712309002876 -0.003848457708954811 0.013531947508454323 -0.000532904639840126 -0.012502140365540981 -0.007857505232095718
0.006918111816048622 0.003241591155529022 0.004250256344676018 -0.010911969467997551 -0.021737052127718925 0.021444423124194145 -0.008685053326189518 -0.007773258723318577
-0.018548374995589256 -0.004032127559185028 0.006770633161067963 0.00804809108376503 0.014680171385407448 -0.015650423243641853 -0.008044963702559471 -0.02148446813225746
0.008361632004380226 -0.020869340747594833 -0.006450822576880455 0.002326047047972679 -0.019233759492635727 0.019176198169589043 0.009675724431872368 0.004538198933005333
0.021151361986994743 -0.014642484486103058 -0.005486693233251572 0.009387010708451271 0.0004941876977682114 -0.011130987666547298 0.014946727082133293 -0.022012321278452873
-0.018591010943055153 0.004257526248693466 0.007757440209388733 0.00540551170706749 0.002150963991880417 -0.011639839969575405 0.004011360928416252 -0.021426042541861534
0.009211057797074318 0.02054957114160061 -0.014510398730635643 0.0216976311057806 0.0025669801980257034 -0.004983019083738327 0.013221917673945427 0.012382185086607933
-0.016435984522104263 0.012291623279452324 -0.01749248057603836 -0.018086107447743416 -0.01516038179397583 0.016644423827528954 -0.0009469185024499893 -0.010586331598460674
-0.00938240997493267 -0.008460982702672482 -0.014651614241302013 0.01883685775101185 0.01590110920369625 0.0012920219451189041 -0.018267694860696793 0.008403962478041649
-0.01529476698487997 -0.007695401087403297 0.018199147656559944 -0.017196936532855034 -0.019811421632766724 0.006851388141512871 0.005912443622946739 0.0002931710332632065
-0.006171602755784988 0.014265919104218483 0.002627737820148468 -0.0078326016664505 0.021567801013588905 0.00040258094668388367 0.019306300207972527 -0.014720657840371132
0.016235170885920525 -0.0024919845163822174 0.0031768735498189926 0.008889429271221161 0.013196149840950966 0.0060522425919771194 -0.014062559232115746 -0.017453111708164215
-0.01796499267220497 0.021705014631152153 -0.013695776462554932 -0.009948055259883404 0.020082959905266762 0.015151528641581535 0.0036496352404356003 0.016571374610066414
-0.014545551501214504 0.006272707134485245 0.004491986706852913 0.015164388343691826 -0.018103741109371185 0.0035308804363012314 -0.012559143826365471 -0.020456328988075256
0.0019283369183540344 0.00458148680627346 0.01431322656571865 0.01908569596707821 0.022067254409193993 -0.010584140196442604 -0.00731972511857748 -0.01245257630944252
-0.013890347443521023 0.009098390117287636 0.006615610793232918 0.021440131589770317 -0.008569310419261456 -0.011372402310371399 0.02166072092950344 0.0005906112492084503
-0.0049077365547418594 -0.010522018186748028 0.005514295771718025 -0.018803149461746216 0.019983800128102303 -0.014548169448971748 -0.012859185226261616 -0.00881967879831791
0.014163607731461525 0.007383489981293678 0.008315140381455421 0.01534021832048893 -0.01106188539415598 0.014612337574362755 -0.006186474114656448 -0.019218135625123978
-0.017598092555999756 -0.01722206361591816 0.009294992312788963 -0.005046557635068893 -0.017239775508642197 0.00598146952688694 -0.013967565260827541 0.01850893534719944
-0.0041844286024570465 -0.006780426949262619 0.008364366367459297 -0.014201780781149864 0.002409016713500023 -0.007826000452041626 -0.00971290748566389 0.002535652369260788
0.005855077877640724 -0.0028356127440929413 -0.019728364422917366 -0.01809997484087944 0.021905096247792244 0.005449414253234863 0.017507901415228844 0.00942683033645153

encoder_layer.linear2.bias f8 [2]
00000000: 0000 0000 d736 8bbf 0000 0000 6594 8fbf
-0.013288192451000214 -0.01541975885629654

encoder_layer.norm1.weight f8 [2]
00000000: 0000 0000 0000 f03f 0000 0000 0000 f03f
1.0 1.0

encoder_layer.norm1.bias f8 [2]
00000000: 0000 0000 0000 0000 0000 0000 0000 0000
0.0 0.0

encoder_layer.norm2.weight f8 [2]
00000000: 0000 0000 0000 f03f 0000 0000 0000 f03f
1.0 1.0

encoder_layer.norm2.bias f8 [2]
00000000: 0000 0000 0000 0000 0000 0000 0000 0000
0.0 0.0

transformer_encoder.layers.0.self_attn.in_proj_weight f8 [6, 2]
00000000: 0000 0000 07be b4bf 0000 0040 0664 d63f
00000010: 0000 0040 bea8 d53f 0000 00a0 d4d6 e03f
00000020: 0000 0000 1e64 a43f 0000 0000 0285 a5bf
00000030: 0000 0040 de6c e4bf 0000 0040 ebdc eabf
00000040: 0000 0000 1273 a7bf 0000 0000 d709 e2bf
00000050: 0000 0080 5f02 cebf 0000 0020 931c e93f
-0.08102458715438843 0.3498550057411194 0.3384242653846741 0.5262244343757629 0.03982633352279663 -0.042030394077301025 -0.6382895708084106 -0.8394676446914673
-0.04579979181289673 -0.5637011528015137 -0.2344474196434021 0.7847381234169006

transformer_encoder.layers.0.self_attn.in_proj_bias f8 [6]
00000000: 9968 cf89 1edb 873c f496 8129 10c6 753c
00000010: 888b 3b69 5be0 5738 140a 5675 e306 fd38
00000020: 926e 20ba 4495 b1bd 6870 78ba ff8f 433e
4.13834500136838e-17 1.8885660496039437e-17 2.8066567231447246e-37 3.4939869856415645e-34 -1.5991718047799915e-11 9.109497003125388e-09

transformer_encoder.layers.0.self_attn.out_proj.weight f8 [2, 2]
00000000: 1d00 0040 e656 db3f 0000 0060 9bde e43f
00000010: e3ff ff3f 4a64 db3f 0000 0080 cae2 c73f
0.42717891931533974 0.6521736979484558 0.4279962182044967 0.18660861253738403

transformer_encoder.layers.0.self_attn.out_proj.bias f8 [2]
00000000: 0f72 e0e8 6702 553e 0f72 e0e8 6702 55be
1.9566526669830852e-08 -1.9566526669830852e-08

transformer_encoder.layers.0.linear1.weight f8 [2048, 2]
00000000: 4e38 0700 209a 7b3f 798c ffff b9b2 b43f
00000010: 0000 0080 d1bb d9bf 0000 0080 bc99 c8bf
00000020: 515b ffbf 7347 db3f a4b6 feff bdfe cbbf
00000030: f1cd ffbf 50bd dd3f 0c19 0060 a17b e23f
00000040: 8309 0000 4479 913f 62ff ff3f 7df6 dd3f
00000050: 6c29 00a0 0f64 e1bf fd2d 0500 60b3 933f
00000060: 0000 0040 2b5d d43f 0000 0000 d31e c8bf
00000070: 8097 0180 3946 e1bf fda1 f97f 2502 c9bf
00000080: 66d7 ff1f fb2f e33f 66d7 ff5f 80ca e1bf
00000090: c0f7 a8ff b7d5 9a3f 8170 05c0 bcc4 d03f
000000a0: 85b9 ff3f ed7f d33f 7b46 0040 a339 df3f
000000b0: 6fcb 0b00 a035 88bf 5c5e 00c0 d218 d93f
000000c0: d8c2 fe1f 00f0 e53f 9bdc c2fe 3f24 65bf
000000d0: d843 feff 1d55 a73f f690 ffff fb65 c9bf
000000e0: 0000 0080 90df c2bf 0000 0040 f38d d73f
000000f0: 0000 0040 6cf9 cdbf 0000 0080 feb1 e4bf
00000100: 6655 f7ff dac6 c63f 2e55 1100 b7ac bc3f
00000110: 9856 fe9f 2fc0 e13f d052 03c0 5cdc d33f
00000120: ed5b fdff afaf cb3f 13a4 0280 3350 c43f
00000130: 1698 0140 1365 cfbf 0acc 0080 fb03 d13f
00000140: e699 feff f5be d03f e699 feff e405 debf
00000150: 0000 0040 645f db3f 0000 0000 726f a73f
00000160: a431 0160 3b1f e33f 8439 fbff ec4a cd3f
00000170: 5c91 0020 373d e43f b622 0120 7b23 debf
00000180: fd4d feff fcf9 b2bf 8293 ffbf 63eb d83f
00000190: cc41 1f00 90a6 973f 0efa 0040 e83c e4bf
000001a0: b613 ff3f 1b48 e2bf 2ab1 0380 9247 c6bf
000001b0: ff72 fd3f ceb6 d43f fc33 0a00 82b0 b93f
000001c0: 0000 0000 6a61 aa3f 0000 0040 bd57 d33f
000001d0: 3c3c 0500 6cb0 c0bf e261 fdbf a396 debf
000001e0: 7786 ff9f 9023 e63f 8979 0060 7e7a e23f
000001f0: 0000 0040 a607 e4bf 0000 00a0 81ff dbbf
00000200: 0000 0060 ed92 e43f 0000 0040 425b d43f
00000210: ca18 febf 9ad6 cebf 3386 ffdf d63b e53f
00000220: 0000 0080 5570 d2bf 0000 0000 de83 bebf
00000230: fc66 01c0 b4ea dd3f ea9b 0500 c32c bfbf
00000240: 53e6 0080 f601 e6bf 9dcc 0140 be2b d73f
00000250: b498 0b80 27da c9bf cd62 2e00 e445 a53f
00000260: a525 0000 b15f c73f 5bda ffff 2237 cc3f
00000270: bdcf 0040 e09d d83f 4330 ff3f 2b6d dd3f
00000280: 3bf4 4500 c022 583f 09dd ff9f 532a e43f
00000290: 74ff fcff 1f7d c23f b97f fe3f c77e d6bf
000002a0: 0000 0000 b83f 9fbf 0000 0000 ba50 cd3f
000002b0: 32c2 03a0 b692 debf e51e fe5f 3418 e2bf
000002c0: 9db5 ff9f 38ef e5bf c094 0000 cca4 dcbf
000002d0: 6353 febf daaa d73f c1a6 fc7f 0662 c5bf
000002e0: b16d f0ff 7f10 7fbf 483e 0000 c36f dabf
000002f0: 04e7 fdbf f524 d43f 04e7 fd3f 64e0 ddbf
00000300: 0000 00c0 f5f6 dfbf 0000 0060 9d6f e3bf
00000310: b4c0 ff1f b862 e1bf 6781 ffbf a37e df3f
00000320: f86d ff1f 0b90 e43f e8db fe7f 1727 d7bf
00000330: 92c7 ff3f 0cfc dfbf cbe3 ff9f d78b e23f
00000340: da21 0080 5bf0 e0bf da21 0060 7712 e13f
00000350: 8e1f 05c0 721f d93f e7c0 f5ff ff42 c93f
00000360: 257b ff5f 6f8e e03f ba09 01c0 eba2 d53f
00000370: 7f8b 00a0 8787 dfbf 082e 0200 2bf5 ba3f
00000380: 0000 0000 6ad9 d13f 0000 0000 cfcb c2bf
00000390: 0000 0000 26da a6bf 0000 0080 8606 c83f
000003a0: 0000 0000 cc86 ca3f 0000 0080 c245 cbbf
000003b0: 0000 0060 16e9 e03f 0000 0040 d488 d33f
000003c0: 0c22 0300 6fef e1bf e8bb f91f feb2 d2bf
000003d0: 51ed 0160 2f2f e23f af12 fe1f df5b e43f
000003e0: 0000 0000 b801 b5bf 0000 00a0 546a e4bf
000003f0: 7665 ff9f 87cf e5bf 3c6a 0200 1722 c4bf
00000400: 15d4 feff f92b a53f 7a25 00c0 5f9d d83f
00000410: 419d 0080 ba89 e0bf 1575 0280 d846 c03f
00000420: a05c ffff 26e7 e0bf a05c ff5f 2f18 e53f
00000430: 79fe ff5f 8d4a e53f 1203 00c0 be48 d03f
00000440: 0000 00e0 c332 e3bf 0000 0060 f9db e5bf
00000450: 0f20 00a0 3057 dabf 0710 00e0 21de e23f
00000460: 8ece 0400 7841 cf3f 8ece 0480 0665 c3bf
00000470: d8f4 ffff 9db8 e2bf d8f4 ffdf 66ae e03f
00000480: a29e fe7f f9b8 c63f 8285 0500 2e30 a13f
00000490: 2371 fabf 50d4 d63f 6cc7 02e0 1583 e23f
000004a0: fd58 ff5f e8dd e3bf eb63 fdff 135c ce3f
000004b0: 205a ff1f f95e d9bf 39b4 feff 9447 c73f
000004c0: 04b5 0680 5d54 c63f ed2b e5ff e930 ad3f
000004d0: 0000 0000 7054 823f 0000 0080 2d33 c53f
000004e0: 727c fdff 533d cd3f 3abe fe3f e743 d1bf
000004f0: bc5d fe7f a5d2 dcbf 44a2 01a0 c81e d4bf
00000500: 3066 fe7f 946a c83f e8cc 00c0 b50a d83f
00000510: 4f80 04c0 8330 d93f 5eff f6ff ecdb c23f
00000520: 83a6 0100 59ac bbbf 41d3 0000 a049 c63f
00000530: 4a85 fd3f be3e db3f a3c2 fedf 2879 e4bf
00000540: 187e 0020 95d7 e1bf 9de1 0700 0ee8 a33f
00000550: 8ca9 feff 403e ca3f c854 ff5f 78ee d3bf
00000560: 81c1 00e0 b531 e23f eb0b 0600 261e b7bf
00000570: d980 00c0 23e4 da3f 7040 0080 c863 e3bf
00000580: bfce ff9f b976 e3bf 073b ffff d88e c63f
00000590: 0000 00c0 5488 cfbf 0000 00c0 85e5 e5bf
000005a0: f1d7 0000 dd7d c0bf f1d7 0000 b624 c03f
000005b0: 1599 81ff ff18 42bf 63e0 ffdf fb09 e23f
000005c0: e4fe ff1f 68e8 d7bf 8e00 0040 1030 e6bf
000005d0: 8fe6 0100 adca bb3f 2ec3 ff1f dd59 e13f
000005e0: c52e 02c0 03ce d93f 6117 0100 92fb e3bf
000005f0: 0000 0040 1dab d93f 0000 0060 5047 e23f
00000600: 6504 0000 388a bbbf 3202 0000 9de8 cb3f
00000610: 84b7 fdbf 23b9 d83f 84b7 fd9f a2a4 d2bf
00000620: 5244 58ff 6ff7 7b3f 8bb0 febf 54ae e3bf
00000630: 8a27 ffff fb3d d2bf 76d8 0060 00d9 d3bf
00000640: 6527 2600 f88e ae3f 7862 02c0 ca30 e5bf
00000650: 0000 00a0 6a5c d7bf 0000 0000 b1fc dfbf
00000660: de27 01c0 6e38 d33f ed93 0020 8186 e5bf
00000670: e0d1 ffff b8f6 dabf c7a3 ff7f 9e1f c73f
00000680: ad5f 0120 b5c8 e33f 4aeb 5700 d0f1 89bf
00000690: 7792 fdff b01c bcbf 3cc9 fe7f 16f9 c23f
000006a0: 482e fe3f 314f d23f 2717 ffdf 27aa e4bf
000006b0: 512f 0600 365d abbf 163a ffbf b53f d4bf
000006c0: 5b8c 0600 1aac c7bf ceb9 fc1f 5daa d8bf
000006d0: 0000 0000 2ffb e1bf 0000 00a0 56b8 d6bf
000006e0: f401 0040 2f64 e6bf f401 0020 6598 e13f
000006f0: cbb1 0100 5e1f c53f 746c 00e0 1e79 e0bf
00000700: a164 0020 cc50 e4bf 4ac9 0000 6918 d03f
00000710: 9b97 0180 2f96 c53f 6568 fe7f 3ec6 cf3f
00000720: 2287 00a0 9257 dbbf 2287 00c0 f927 d63f
00000730: 43d9 ff5f d0b9 e5bf e94f f6ff df68 8b3f
00000740: a020 0400 de73 c83f 3941 0800 48ab bdbf
00000750: 6bd8 ff7f 592d c9bf 19f6 ff5f 252a e13f
00000760: 769a 00e0 5873 dbbf 769a 00c0 7b0d dd3f
00000770: 347f ffdf 8e70 d3bf 347f ffbf 2870 de3f
00000780: 0000 0040 f850 d93f 0000 0040 e4f0 dd3f
00000790: adf4 0020 05ee e03f 552d fcff fcf0 c73f
000007a0: 908a fd7f b3ed c6bf a762 ffdf a731 e63f
000007b0: 13c5 0d00 d6ef b4bf 5a47 fe1f 60d6 e4bf
000007c0: 0000 0080 1b9d e2bf 0000 0080 e894 dabf
000007d0: f1d0 ffff ef44 9b3f 7601 00a0 2613 e63f
000007e0: fcbf 0040 39bb db3f fcbf 00a0 7f44 d5bf
000007f0: d115 fe9f 37ed d7bf 61d4 0300 dbbf c8bf
0.006738781929426519 0.08085215091664279 -0.4020885229110718 -0.19219166040420532 0.4262360930419407 -0.2187116146064244 0.4646798968308011 0.5775915980346169
0.017064154148110255 0.4681695103645237 -0.5434644818317742 0.0192389488231992 0.31818658113479614 -0.18844068050384521 -0.5398223400231785 -0.19537800549302622
0.5996070504176998 -0.5559694170940304 0.026205897311448956 0.2620078921515941 0.30468302965064026 0.4878929257402899 -0.011821031571775468 0.3921400904668866
0.6855469345956307 -0.002580761900471252 0.0455712676040389 -0.19842481613080282 -0.1474476456642151 0.36803895235061646 -0.23417428135871887 -0.6467278003692627
0.1779435872873975 0.11201041938450793 0.5547102093575687 0.31032484771030244 0.21629905700203214 0.15869754553321566 -0.24527207017234848 0.2658680677442936
0.26165533065287006 -0.46910977363077533 0.42769724130630493 0.04577213525772095 0.5975624919024551 0.22884905337418726 0.6324725747149773 -0.47091558576043313
-0.07412701845014875 0.3893670439704736 0.023096323020412687 -0.6324349641870997 -0.5713020563058453 -0.17405921221450998 0.32365757226015995 0.10034954548810043
0.051524460315704346 0.30223017930984497 -0.13038396836279442 -0.47794431447030494 0.6918414235080509 0.5774528384243222 -0.6259337663650513 -0.43746986985206604
0.6429354548454285 0.3180699944496155 -0.24092420935284614 0.6635546088184071 -0.2881063222885132 -0.11919963359832764 0.4674503207257741 -0.12177675962958259
-0.6877396106785433 0.3620448708599698 -0.20197004081928116 0.04154884817325453 0.18260776996639297 0.2204326391217418 0.38463598490056566 0.459788143631844
0.0014731287966178858 0.630166828631361 0.14444351195742977 -0.3514879345839251 -0.030516505241394043 0.22902607917785645 -0.47770467401918204 -0.565454661832487
-0.685451805589469 -0.4475584030172506 0.3698031306205875 -0.16705399751054098 -0.007584095000335565 -0.4130713939675599 0.3147558569831832 -0.4668207764549239
-0.4994482398033142 -0.6073748469352722 -0.5433006882649551 0.4921044707280288 0.6425834298092346 -0.361760973926208 -0.4997587800017921 0.5795705914489359
-0.5293405056009377 0.5335041880617226 0.3925444483943402 0.19735717771573677 0.5173870921097189 0.3380689024962994 -0.492647081615523 0.10530346632202037
0.27889490127563477 -0.146844744682312 -0.04463309049606323 0.18769913911819458 0.20723867416381836 -0.21306639909744263 0.5284530520439148 0.3052263855934143
-0.5604777336348561 -0.29217484591111864 0.5682598948618908 0.6362147927144032 -0.08205747604370117 -0.6379798054695129 -0.681583225722689 -0.1572903394743025
0.04135113954490791 0.38460534811073155 -0.5168125629469743 0.12716203928440764 -0.5282168388320265 0.6592022776557265 0.6653506159781976 0.25444000959400725
-0.599946916103363 -0.6831023097038269 -0.4115716516976144 0.5896157622341897 0.2441854477016147 -0.1515205502597507 -0.585036277770679 0.5212892889973331
0.1775199770902321 0.03357070684684073 0.35670870540504235 0.5785016417705555 -0.6208383440923907 0.237185001368544 -0.39642170071366145 0.18187201022866065
0.17444962264327313 0.05701380966873857 0.008950114250183105 0.16562432050704956 0.22843408584137453 -0.26976948976059456 -0.4503568410813974 -0.31437888742087616
0.1907525658578364 0.3756536841421636 0.3935860991641719 0.14733660219462313 -0.10809856653363607 0.17412185669095417 0.4257045388131543 -0.6397899985223215
-0.5575662255323008 0.03887981176734743 0.20502483844513752 -0.3114300668215262 0.5685681700761479 -0.09030377865387577 0.4201745390910339 -0.6059305667895512
-0.6082428097710916 0.17623436450818294 -0.24634799361228943 -0.6842678785324097 -0.12884104252015008 0.1261203289047326 -0.0005522966375906291 0.5637187361708239
-0.3735599815845332 -0.6933671236038366 0.10856133699589975 0.542219698427379 0.4031991362651122 -0.6244592666705381 0.4010689854621887 0.5712053179740906
-0.10757780075074803 0.21803629398347507 0.38630002736214686 -0.29129853843812037 0.006827771654131247 -0.6150306463146235 -0.2850332260101075 -0.31011971831629326
0.059684515016740027 -0.6622060537511762 -0.3650156557559967 -0.499798059463501 0.30031937361184 -0.6726689934772573 -0.4213087558739783 0.18065243959361352
0.6182504296402748 -0.012668252001267217 -0.10981279611366711 0.14822655915993177 0.2860835194521525 -0.6457709670000654 -0.05344551801962772 -0.3163885474176892
-0.18493962289093954 -0.38539817928076736 -0.5619120597839355 -0.3550011217594147 -0.6997295618057806 0.5498529076576788 0.16501975059817506 -0.514785230162842
-0.6348629593877783 0.25148987770366615 0.16864579916289987 0.2482374310464507 -0.4272200167198311 0.34618991613580097 -0.6789323687542396 0.01338362693676483
0.19103598595416305 -0.115894794471619 -0.19669646024675855 0.5363947749135064 -0.4289152324221627 0.45394796133260884 -0.3037450015526588 0.4755956530552681
0.39556699991226196 0.46782785654067993 0.5290551781723899 0.1870418786933025 -0.17912906407862694 0.6935614943459613 -0.08178460599244301 -0.6511688828343083
-0.5816781520843506 -0.4153386354446411 0.026630163192707227 0.6898377537727771 0.4333022236851318 -0.3323058187988861 -0.3738535940577466 -0.19335496426325263
