Transformer-Time-Series-Forecasting-main/save_model/best_train_183.pth (torch, 259059 bytes, 38 tensors)

encoder_layer.self_attn.in_proj_weight f8 [6, 2]
000000 00 00 00 00 3c 05 cc bf 00 00 00 00 01 0b c0 bf
       -0.21890974044799805 -0.12533581256866455
000010 00 00 00 c0 6e cd dc 3f 00 00 00 e0 c1 b8 e3 bf
       0.4500386118888855 -0.6163033843040466
000020 00 00 00 60 fc 6f e9 bf 00 00 00 40 6d d4 db 3f
       -0.7949201464653015 0.43484050035476685
000030 00 00 00 a0 c8 0b de bf 00 00 00 20 dd 42 e7 3f
       -0.46946921944618225 0.7269120812416077
000040 00 00 00 80 5c cb d1 bf 00 00 00 e0 44 70 e1 3f
       -0.2780371904373169 0.5449547171592712
000050 00 00 00 a0 cf 3e e9 3f 00 00 00 80 62 15 ca bf
       0.7889173626899719 -0.20377761125564575

encoder_layer.self_attn.in_proj_bias f8 [6]
000000 00 00 00 00 00 00 00 00 00 00 00 00 00 00 00 00
       0.0 0.0
000010 00 00 00 00 00 00 00 00 00 00 00 00 00 00 00 00
       0.0 0.0
000020 00 00 00 00 00 00 00 00 00 00 00 00 00 00 00 00
       0.0 0.0

encoder_layer.self_attn.out_proj.weight f8 [2, 2]
000000 00 00 00 80 e5 d1 df bf 00 00 00 c0 d3 33 dd 3f
       -0.4971860647201538 0.45628827810287476
000010 00 00 00 c0 05 52 e3 bf 00 00 00 c0 26 71 e0 bf
       -0.6037625074386597 -0.5138124227523804

encoder_layer.self_attn.out_proj.bias f8 [2]
000000 00 00 00 00 00 00 00 00 00 00 00 00 00 00 00 00
       0.0 0.0

encoder_layer.linear1.weight f8 [2048, 2]
000000 00 00 00 40 0f 5d d9 3f 00 00 00 c0 77 57 dd 3f
       0.3963049054145813 0.4584636092185974
000010 00 00 00 00 e0 96 8c bf 00 00 00 40 96 ac d5 bf
       -0.013959646224975586 -0.33865886926651
000020 00 00 00 20 53 49 d4 bf 00 00 00 c0 27 29 da 3f
       -0.3169753849506378 0.4087619185447693
000030 00 00 00 00 6f 98 c1 bf 00 00 00 a0 2c f6 e1 bf
       -0.13746440410614014 -0.5613005757331848
000040 00 00 00 c0 af 7e dc 3f 00 00 00 40 5c 05 d8 3f
       0.4452323317527771 0.3753271698951721
000050 00 00 00 00 76 14 d0 bf 00 00 00 20 62 b1 e4 3f
       -0.251248836517334 0.6466532349586487
000060 00 00 00 20 99 a9 e5 3f 00 00 00 40 aa 6b dc 3f
       0.6769528985023499 0.44407135248184204
000070 00 00 00 00 bf f1 c9 bf 00 00 00 00 78 b8 e5 bf
       -0.2026900053024292 -0.6787681579589844
000080 00 00 00 00 a0 30 6b bf 00 00 00 80 47 0c cc 3f
       -0.003319084644317627 0.21912473440170288
000090 00 00 00 c0 fd 2a d5 3f 00 00 00 00 dc 8c a0 bf
       0.330748975276947 -0.03232467174530029
0000a0 00 00 00 60 ed d2 e4 3f 00 00 00 20 3f 39 e6 3f
       0.6507479548454285 0.6944881081581116
0000b0 00 00 00 40 55 66 df 3f 00 00 00 c0 c2 62 de 3f
       0.4906209111213684 0.47477787733078003
0000c0 00 00 00 60 7a 4f e1 3f 00 00 00 20 b0 40 d0 bf
       0.5409519076347351 -0.25394824147224426
0000d0 00 00 00 40 74 53 db 3f 00 00 00 c0 15 4d d4 3f
       0.42696863412857056 0.31720489263534546
0000e0 00 00 00 c0 bd c6 d0 3f 00 00 00 a0 e5 48 e6 3f
       0.2621302008628845 0.6963985562324524
0000f0 00 00 00 20 43 1b e4 bf 00 00 00 00 aa 5c bb 3f
       -0.6283279061317444 0.10688269138336182
000100 00 00 00 e0 6e 74 e2 bf 00 00 00 40 b6 84 d9 3f
       -0.5767130255699158 0.39872509241104126
000110 00 00 00 80 1b 0e e2 bf 00 00 00 80 ed f2 e2 bf
       -0.5642220973968506 -0.5921542644500732
000120 00 00 00 a0 27 e3 e1 3f 00 00 00 e0 a9 48 e6 3f
       0.5589788556098938 0.6963700652122498
000130 00 00 00 00 a5 17 c0 bf 00 00 00 40 4e d3 d3 3f
       -0.12572157382965088 0.3097720742225647
000140 00 00 00 40 e7 c9 d5 3f 00 00 00 e0 b8 3f e4 3f
       0.34044820070266724 0.6327785849571228
000150 00 00 00 00 08 e7 ac bf 00 00 00 c0 c4 c0 db 3f
       -0.05645012855529785 0.43364065885543823
000160 00 00 00 40 c4 a6 d3 3f 00 00 00 c0 cb 08 dc 3f
       0.3070536255836487 0.43803685903549194
000170 00 00 00 40 cb 0e e5 bf 00 00 00 c0 29 7c e5 bf
       -0.6580559015274048 -0.671406626701355
000180 00 00 00 00 e3 77 b1 bf 00 00 00 80 0c 69 c4 bf
       -0.06823557615280151 -0.15945583581924438
000190 00 00 00 00 46 87 c5 3f 00 00 00 80 27 2a ca 3f
       0.16819071769714355 0.20441144704818726
0001a0 00 00 00 40 dc 2e de 3f 00 00 00 40 e1 b8 d5 3f
       0.4716101288795471 0.3394091725349426
0001b0 00 00 00 00 9e 6a ae 3f 00 00 00 00 e1 34 d6 bf
       0.059407174587249756 -0.34697747230529785
0001c0 00 00 00 a0 a2 15 e4 3f 00 00 00 00 18 de c3 3f
       0.6276410222053528 0.15521526336669922
0001d0 00 00 00 00 b5 7a cd bf 00 00 00 40 01 27 de 3f
       -0.2303072214126587 0.4711306691169739
0001e0 00 00 00 80 14 06 ca 3f 00 00 00 00 77 54 d4 bf
       0.2033105492591858 -0.3176553249359131
0001f0 00 00 00 00 14 fc ce bf 00 00 00 a0 4b 64 e1 3f
       -0.24206781387329102 0.5434930920600891
000200 00 00 00 20 8c 3e e0 bf 00 00 00 c0 29 6f dc bf
       -0.5076351761817932 -0.4442848563194275
000210 00 00 00 a0 6d 5c df bf 00 00 00 00 d5 63 cc 3f
       -0.490016371011734 0.22179663181304932
000220 00 00 00 40 e6 39 e1 bf 00 00 00 c0 f5 aa ce bf
       -0.5383177995681763 -0.2395922839641571
000230 00 00 00 00 98 1b 88 bf 00 00 00 c0 cf 5a d8 bf
       -0.01177138090133667 -0.38054269552230835
000240 00 00 00 80 0a fd c9 bf 00 00 00 00 b8 4a ac 3f
       -0.20303469896316528 0.055257558822631836
000250 00 00 00 20 b6 06 e0 bf 00 00 00 60 25 cb e3 3f
       -0.5008192658424377 0.6185480952262878
000260 00 00 00 e0 a4 d4 d3 bf 00 00 00 00 f0 c1 98 bf
       -0.30985376238822937 -0.02417731285095215
000270 00 00 00 80 53 c6 dc bf 00 00 00 00 e8 b8 bc bf
       -0.449604868888855 -0.11219644546508789
000280 00 00 00 80 45 13 ce 3f 00 00 00 c0 06 ad da 3f
       0.23496311902999878 0.41681069135665894
000290 00 00 00 80 a1 c4 c6 3f 00 00 00 00 8d 73 b5 bf
       0.17787569761276245 -0.08379441499710083
0002a0 00 00 00 80 04 27 e1 bf 00 00 00 00 3a 4f cc 3f
       -0.5360128879547119 0.22116780281066895
0002b0 00 00 00 00 80 95 5f 3f 00 00 00 c0 bf b4 dd 3f
       0.0019277334213256836 0.4641570448875427
0002c0 00 00 00 c0 5a 2c d0 3f 00 00 00 00 00 f4 79 bf
       0.25270718336105347 -0.006336212158203125
0002d0 00 00 00 00 c0 2e 65 3f 00 00 00 00 06 d7 b9 3f
       0.002585768699645996 0.10093724727630615
0002e0 00 00 00 a0 ce dd e2 3f 00 00 00 a0 fe 3d e6 bf
       0.5895760655403137 -0.6950677037239075
0002f0 00 00 00 40 fe 07 cc bf 00 00 00 80 80 06 cc 3f
       -0.2189939320087433 0.21894842386245728
000300 00 00 00 c0 94 f3 de 3f 00 00 00 40 8c 8e dd bf
       0.48361700773239136 -0.461825430393219
000310 00 00 00 80 96 f9 c1 bf 00 00 00 c0 98 ba e0 bf
       -0.1404293179512024 -0.5227779150009155
000320 00 00 00 00 44 b4 9a bf 00 00 00 e0 c6 34 d2 bf
       -0.02607828378677368 -0.2844712436199188
000330 00 00 00 00 fd 6a ce bf 00 00 00 a0 f9 5b e4 bf
       -0.23764002323150635 -0.6362274289131165
000340 00 00 00 00 ea aa c7 3f 00 00 00 80 ad 02 d0 3f
       0.18490338325500488 0.2501634359359741
000350 00 00 00 40 cd 2b de 3f 00 00 00 00 f4 0b a6 bf
       0.4714234471321106 -0.04305994510650635
000360 00 00 00 e0 12 22 e3 3f 00 00 00 60 b6 57 e1 3f
       0.5979093909263611 0.5419570803642273
000370 00 00 00 40 fe 8b de 3f 00 00 00 00 6c d4 94 3f
       0.4772945046424866 0.020341575145721436
000380 00 00 00 00 c2 48 b0 bf 00 00 00 00 2f 61 c5 bf
       -0.06361019611358643 -0.1670283079147339
000390 00 00 00 80 65 a4 cd 3f 00 00 00 e0 43 fa e2 3f
       0.2315794825553894 0.593049943447113
0003a0 00 00 00 00 49 c0 b6 3f 00 00 00 80 69 23 d5 bf
       0.0888715386390686 -0.3302863836288452
0003b0 00 00 00 80 fb 9f c3 3f 00 00 00 00 d3 92 df bf
       0.15331977605819702 -0.49333643913269043
0003c0 00 00 00 c0 6e ed cd bf 00 00 00 60 db 97 e6 3f
       -0.23380836844444275 0.7060372233390808
0003d0 00 00 00 e0 ad 3d e6 3f 00 00 00 e0 fe 44 e1 3f
       0.6950291991233826 0.539672315120697
0003e0 00 00 00 40 e8 1c e4 bf 00 00 00 80 ac f9 cd 3f
       -0.6285287141799927 0.2341819405555725
0003f0 00 00 00 e0 d2 79 d8 bf 00 00 00 60 23 a1 e2 bf
       -0.38243553042411804 -0.5821701884269714
000400 00 00 00 00 e8 65 e4 bf 00 00 00 40 d0 83 d4 3f
       -0.6374397277832031 0.3205452561378479
000410 00 00 00 80 5f a6 da bf 00 00 00 80 d5 65 c2 3f
       -0.4164046049118042 0.1437327265739441
000420 00 00 00 00 cc ab 92 3f 00 00 00 40 b5 23 d4 3f
       0.01823347806930542 0.31467944383621216
000430 00 00 00 00 20 af d0 bf 00 00 00 40 01 74 d2 3f
       -0.26068878173828125 0.2883303761482239
000440 00 00 00 40 f8 80 de bf 00 00 00 00 24 49 98 3f
       -0.47662168741226196 0.023716509342193604
000450 00 00 00 40 86 a0 dd 3f 00 00 00 00 60 12 7a bf
       0.4629226326942444 -0.006365180015563965
000460 00 00 00 a0 65 c5 e0 3f 00 00 00 00 a1 ee d9 bf
       0.5240963101387024 -0.40518975257873535
000470 00 00 00 00 2d 7f c0 bf 00 00 00 e0 30 0b e4 3f
       -0.12888109683990479 0.6263660788536072
000480 00 00 00 20 92 c6 e1 3f 00 00 00 20 a6 ba e2 3f
       0.5554895997047424 0.5852842926979065
000490 00 00 00 c0 4a bb dc 3f 00 00 00 20 1f e2 e5 3f
       0.44893139600753784 0.6838527321815491
0004a0 00 00 00 00 2b 8b bd 3f 00 00 00 00 23 f0 ba 3f
       0.11540478467941284 0.10522669553756714
0004b0 00 00 00 80 f6 35 e0 bf 00 00 00 00 bb 58 c2 bf
       -0.5065872669219971 -0.143332839012146
0004c0 00 00 00 00 a8 67 d5 bf 00 00 00 00 01 f5 cc bf
       -0.33445167541503906 -0.22622692584991455
0004d0 00 00 00 60 ab a9 d3 bf 00 00 00 00 72 ac b6 3f
       -0.30723080039024353 0.0885688066482544
0004e0 00 00 00 00 52 73 be 3f 00 00 00 40 a5 0b cf bf
       0.11894714832305908 -0.24254289269447327
0004f0 00 00 00 80 2e 23 c9 3f 00 00 00 80 72 4c e2 bf
       0.1963861584663391 -0.5718319416046143
000500 00 00 00 00 2d 54 e6 bf 00 00 00 20 47 a5 d9 bf
       -0.6977753639221191 -0.4007127583026886
000510 00 00 00 00 b8 a1 b9 bf 00 00 00 c0 e5 09 e2 bf
       -0.10012388229370117 -0.5637081861495972
000520 00 00 00 60 33 59 e3 bf 00 00 00 e0 8d 90 e3 3f
       -0.6046387553215027 0.6113957762718201
000530 00 00 00 a0 2c 10 dc bf 00 00 00 00 e6 2f ab 3f
       -0.4384872019290924 0.05309981107711792
000540 00 00 00 00 00 9a a6 3f 00 00 00 00 20 ad c1 bf
       0.0441436767578125 -0.13809585571289062
000550 00 00 00 00 94 e0 c1 3f 00 00 00 80 88 3d d9 bf
       0.13966608047485352 -0.39438068866729736
000560 00 00 00 00 7b 2f b0 bf 00 00 00 c0 4d 6b d7 3f
       -0.06322449445724487 0.36592429876327515
000570 00 00 00 00 07 f7 c7 bf 00 00 00 00 28 39 ba 3f
       -0.18722617626190186 0.10243463516235352
000580 00 00 00 00 3c 27 ca bf 00 00 00 c0 fe ba de bf
       -0.20432233810424805 -0.4801632761955261
000590 00 00 00 00 1e 38 c3 3f 00 00 00 00 30 7b c0 bf
       0.15015006065368652 -0.12875938415527344
0005a0 00 00 00 00 fd 5b be 3f 00 00 00 00 eb 12 b8 bf
       0.11859112977981567 -0.09403866529464722
0005b0 00 00 00 80 94 cb dd bf 00 00 00 20 89 10 e4 3f
       -0.4655505418777466 0.6270185112953186
0005c0 00 00 00 00 e4 f1 97 3f 00 00 00 40 d1 51 da bf
       0.023383677005767822 -0.411243736743927
0005d0 00 00 00 c0 44 61 de 3f 00 00 00 40 6b 8c dd 3f
       0.47468680143356323 0.46169549226760864
0005e0 00 00 00 00 19 23 bf 3f 00 00 00 00 f8 f3 c5 3f
       0.12162929773330688 0.1715078353881836
0005f0 00 00 00 00 fc 25 c5 bf 00 00 00 80 9a 06 cf 3f
       -0.1652216911315918 0.2423890233039856
000600 00 00 00 00 5b 5b e3 bf 00 00 00 00 5c a5 bf 3f
       -0.6049017906188965 0.12361693382263184
000610 00 00 00 40 f8 dc d5 bf 00 00 00 40 41 f1 de 3f
       -0.34161192178726196 0.4834750294685364
000620 00 00 00 e0 ca 05 e4 3f 00 00 00 40 6b ef d4 bf
       0.6257070899009705 -0.32711297273635864
000630 00 00 00 00 1c 3e 97 bf 00 00 00 00 08 e6 c7 3f
       -0.022697865962982178 0.1867074966430664
000640 00 00 00 00 41 13 bd bf 00 00 00 20 11 ff e0 3f
       -0.1135750412940979 0.5311360955238342
000650 00 00 00 c0 4d 0a d3 3f 00 00 00 a0 22 94 e2 3f
       0.29750388860702515 0.5805829167366028
000660 00 00 00 40 d1 ff d2 bf 00 00 00 a0 50 42 e0 3f
       -0.296863853931427 0.5080950856208801
000670 00 00 00 00 54 9c 9a 3f 00 00 00 00 96 17 d5 bf
       0.025986969470977783 -0.32956457138061523
000680 00 00 00 e0 de c5 e3 3f 00 00 00 00 4e ba c7 3f
       0.6179041266441345 0.18537306785583496
000690 00 00 00 20 46 41 e6 3f 00 00 00 00 38 56 8a 3f
       0.695468008518219 0.012859761714935303
0006a0 00 00 00 c0 55 67 dd 3f 00 00 00 00 3c 01 e4 bf
       0.45943206548690796 -0.6251506805419922
0006b0 00 00 00 40 ec d7 e1 bf 00 00 00 80 07 66 c1 bf
       -0.5576077699661255 -0.13592618703842163
0006c0 00 00 00 00 0a 46 a7 3f 00 00 00 00 56 7f de bf
       0.04545623064041138 -0.47652196884155273
0006d0 00 00 00 60 cd 26 e4 3f 00 00 00 00 6c fc a0 3f
       0.629736602306366 0.03317582607269287
0006e0 00 00 00 60 23 93 e5 3f 00 00 00 c0 17 18 d7 3f
       0.6742112040519714 0.36084550619125366
0006f0 00 00 00 a0 48 86 dd bf 00 00 00 80 43 2c d0 bf
       -0.46132102608680725 -0.25270164012908936
000700 00 00 00 60 30 f4 e3 3f 00 00 00 60 45 be e0 3f
       0.6235582232475281 0.5232264399528503
000710 00 00 00 a0 a0 0a e5 bf 00 00 00 80 25 26 c7 bf
       -0.6575472950935364 -0.18085163831710815
000720 00 00 00 20 92 3f d5 bf 00 00 00 80 11 fa c6 3f
       -0.3320050537586212 0.17950648069381714
000730 00 00 00 60 9d d7 e3 bf 00 00 00 40 75 f7 db 3f
       -0.6200701594352722 0.43697863817214966
000740 00 00 00 a0 2c 2c dc bf 00 00 00 40 6d aa de 3f
       -0.4401961863040924 0.47915202379226685
000750 00 00 00 c0 cb a7 d2 3f 00 00 00 60 99 37 e6 3f
       0.29149144887924194 0.6942870020866394
000760 00 00 00 40 5c 03 d5 3f 00 00 00 40 a1 f8 de 3f
       0.3283300995826721 0.4839251637458801
000770 00 00 00 00 89 4f bc bf 00 00 00 c0 b5 0c e1 bf
       -0.11058861017227173 -0.5328015089035034
000780 00 00 00 60 45 ee dc bf 00 00 00 00 f3 1d cc bf
       -0.45204290747642517 -0.21966397762298584
000790 00 00 00 c0 27 ea de 3f 00 00 00 00 33 d4 e1 bf
       0.4830417037010193 -0.5571532249450684
0007a0 00 00 00 00 34 eb 9c 3f 00 00 00 00 85 5b d2 3f
       0.028240978717803955 0.2868359088897705
0007b0 00 00 00 a0 2f 54 e0 3f 00 00 00 80 85 51 e2 bf
       0.5102766156196594 -0.5724513530731201
0007c0 00 00 00 c0 ed 50 e5 bf 00 00 00 80 fe 5d c7 3f
       -0.6661289930343628 0.18255597352981567
0007d0 00 00 00 00 47 70 b5 bf 00 00 00 00 88 9c 82 3f
       -0.08374446630477905 0.009087622165679932
0007e0 00 00 00 c0 00 1b d8 3f 00 00 00 80 3e a1 d1 bf
       0.3766481280326843 -0.27546656131744385
0007f0 00 00 00 40 6e 42 e0 bf 00 00 00 00 d4 ad b4 bf
       -0.5081092119216919 -0.08077740669250488

encoder_layer.linear1.bias f8 [2048]
000000 00 00 00 00 14 06 ba 3f 00 00 00 00 f8 81 b2 3f
       0.10165524482727051 0.0722956657409668
000010 00 00 00 c0 ef 96 d3 bf 00 00 00 40 6c 29 d1 bf
       -0.3060874342918396 -0.26815325021743774
000020 00 00 00 c0 d0 02 d5 3f 00 00 00 80 12 ab d7 bf
       0.32829684019088745 -0.3698164224624634
000030 00 00 00 00 f6 13 a4 bf 00 00 00 00 d1 b8 e2 bf
       -0.03921478986740112 -0.5850605964660645
000040 00 00 00 40 73 1d dc 3f 00 00 00 c0 68 d8 df bf
       0.43929749727249146 -0.4975835680961609
000050 00 00 00 00 34 14 d2 bf 00 00 00 a0 d3 e9 e3 3f
       -0.2824831008911133 0.6222932934761047
000060 00 00 00 a0 3d 72 df bf 00 00 00 40 70 8e de 3f
       -0.49134770035743713 0.47744375467300415
000070 00 00 00 40 86 43 db 3f 00 00 00 a0 c0 22 e1 bf
       0.4259963631629944 -0.5354922413825989
000080 00 00 00 60 0b 8c e3 3f 00 00 00 00 66 97 c8 bf
       0.6108452677726746 -0.19212031364440918
000090 00 00 00 80 39 19 dd bf 00 00 00 a0 06 fc e4 3f
       -0.45466458797454834 0.6557648777961731
0000a0 00 00 00 00 5a 43 b9 bf 00 00 00 00 38 06 92 3f
       -0.09868395328521729 0.017601847648620605
0000b0 00 00 00 00 40 22 c6 3f 00 00 00 00 8e 49 bf bf
       0.17292022705078125 -0.1222161054611206
0000c0 00 00 00 c0 ff 3e d5 bf 00 00 00 e0 40 c0 e4 bf
       -0.3319701552391052 -0.6484684348106384
0000d0 00 00 00 20 f2 ab da bf 00 00 00 00 d0 da 98 3f
       -0.41674473881721497 0.02427220344543457
0000e0 00 00 00 e0 e0 69 e6 bf 00 00 00 40 6d f8 d6 3f
       -0.7004246115684509 0.35891276597976685
0000f0 00 00 00 a0 b9 8d e1 bf 00 00 00 00 eb b3 bd 3f
       -0.5485504269599915 0.11602658033370972
000100 00 00 00 00 37 f3 bb bf 00 00 00 40 5c 28 d9 3f
       -0.10917991399765015 0.3930884003639221
000110 00 00 00 40 5e f2 d7 3f 00 00 00 00 fa e2 a4 3f
       0.3741679787635803 0.040794193744659424
000120 00 00 00 40 59 94 d9 bf 00 00 00 40 82 e4 d0 3f
       -0.3996794819831848 0.263947069644928
000130 00 00 00 40 a5 33 d4 3f 00 00 00 a0 26 6f e1 3f
       0.31565219163894653 0.5448182225227356
000140 00 00 00 00 bb 76 c4 bf 00 00 00 c0 34 12 dc 3f
       -0.159873366355896 0.4386112093925476
000150 00 00 00 80 a8 cc c3 bf 00 00 00 c0 e3 49 cf bf
       -0.1546831727027893 -0.2444424331188202
000160 00 00 00 00 80 23 ad bf 00 00 00 60 bb 35 e5 bf
       -0.056911468505859375 -0.6628090739250183
000170 00 00 00 20 6e cf e3 3f 00 00 00 00 39 35 c1 3f
       0.6190710663795471 0.1344367265701294
000180 00 00 00 a0 59 f1 e0 bf 00 00 00 40 b3 e2 e4 bf
       -0.529461681842804 -0.6526733636856079
000190 00 00 00 c0 e4 69 d9 3f 00 00 00 60 cb 19 df bf
       0.3970882296562195 -0.4859493672847748
0001a0 00 00 00 00 10 cd 91 bf 00 00 00 c0 89 17 dc 3f
       -0.017383813858032227 0.43893665075302124
0001b0 00 00 00 00 9f e2 c3 bf 00 00 00 e0 18 6b d8 bf
       -0.15535342693328857 -0.38153669238090515
0001c0 00 00 00 80 44 36 c5 bf 00 00 00 e0 9e 53 e4 3f
       -0.16571861505508423 0.6352075934410095
0001d0 00 00 00 40 37 9b d9 3f 00 00 00 00 4a 3e b9 3f
       0.40009862184524536 0.09860670566558838
0001e0 00 00 00 a0 44 c4 e1 bf 00 00 00 80 17 d0 e1 bf
       -0.5552085041999817 -0.5566518306732178
0001f0 00 00 00 00 37 f6 bf 3f 00 00 00 00 89 e5 b8 bf
       0.12485069036483765 -0.09725242853164673
000200 00 00 00 c0 50 32 e5 bf 00 00 00 20 f3 8f e6 3f
       -0.6623920202255249 0.7050719857215881
000210 00 00 00 e0 17 d8 e2 3f 00 00 00 e0 45 9a d2 bf
       0.5888785719871521 -0.2906660735607147
000220 00 00 00 a0 8b 00 e0 3f 00 00 00 60 67 46 e2 3f
       0.5000665783882141 0.5710942149162292
000230 00 00 00 00 20 88 71 bf 00 00 00 00 9b 30 cf 3f
       -0.004280209541320801 0.24367082118988037
000240 00 00 00 60 52 fd d2 bf 00 00 00 c0 25 9b db 3f
       -0.2967115342617035 0.4313444495201111
000250 00 00 00 c0 61 ff d0 bf 00 00 00 80 81 9d e1 bf
       -0.2655872702598572 -0.5504767894744873
000260 00 00 00 20 95 08 d1 bf 00 00 00 a0 5e a8 dc bf
       -0.2661488354206085 -0.4477764666080475
000270 00 00 00 60 81 5b e4 bf 00 00 00 a0 5e cc e3 3f
       -0.6361700892448425 0.618697464466095
000280 00 00 00 00 fb a8 cc 3f 00 00 00 60 d4 33 e6 3f
       0.22390687465667725 0.6938268542289734
000290 00 00 00 a0 e1 63 e5 3f 00 00 00 40 9b 83 df bf
       0.6684425473213196 -0.4924076199531555
0002a0 00 00 00 40 1e 0a de 3f 00 00 00 c0 1b 15 e3 bf
       0.4693675637245178 -0.5963267087936401
0002b0 00 00 00 60 fd 77 e1 bf 00 00 00 00 19 1f d1 3f
       -0.5458971858024597 0.26752305030822754
0002c0 00 00 00 c0 8d 21 da 3f 00 00 00 e0 50 de d4 bf
       0.40829795598983765 -0.32606908679008484
0002d0 00 00 00 00 0f c9 c4 bf 00 00 00 00 07 a8 b6 3f
       -0.16238582134246826 0.08850139379501343
0002e0 00 00 00 a0 99 e5 e4 3f 00 00 00 a0 5f 85 e1 3f
       0.653027355670929 0.5475309491157532
0002f0 00 00 00 20 9f 22 d3 bf 00 00 00 c0 c2 e0 db bf
       -0.29898813366889954 -0.43559330701828003
000300 00 00 00 00 2a 09 a0 bf 00 00 00 a0 2f 1c e6 3f
       -0.03131991624832153 0.6909406781196594
000310 00 00 00 c0 1a 47 d0 bf 00 00 00 60 eb f5 e5 3f
       -0.25433987379074097 0.6862694621086121
000320 00 00 00 00 dc 06 a9 bf 00 00 00 60 b1 bf d1 bf
       -0.04888045787811279 -0.27732500433921814
000330 00 00 00 80 fa 27 d2 bf 00 00 00 20 79 6f e2 3f
       -0.28369009494781494 0.5761075615882874
000340 00 00 00 e0 cc b3 d0 bf 00 00 00 00 3a 2e c3 3f
       -0.26097413897514343 0.14984822273254395
000350 00 00 00 a0 59 45 e5 3f 00 00 00 80 2e 39 e2 bf
       0.664715588092804 -0.5694801807403564
000360 00 00 00 00 cc 1c b3 bf 00 00 00 00 c4 52 be 3f
       -0.07465815544128418 0.11845040321350098
000370 00 00 00 00 9d bd e1 bf 00 00 00 e0 a4 23 e2 bf
       -0.5543961524963379 -0.5668510794639587
000380 00 00 00 a0 41 55 e6 3f 00 00 00 20 52 a4 e2 bf
       0.6979072690010071 -0.5825586915016174
000390 00 00 00 e0 d4 87 e3 3f 00 00 00 40 ee be da 3f
       0.6103309988975525 0.41790348291397095
0003a0 00 00 00 a0 fa 7b e3 3f 00 00 00 c0 e3 c1 df bf
       0.6088841557502747 -0.4962090849876404
0003b0 00 00 00 00 33 cd ce bf 00 00 00 a0 ca 45 e3 3f
       -0.2406371831893921 0.6022694706916809
0003c0 00 00 00 00 2a 1e cb 3f 00 00 00 80 e2 51 c8 bf
       0.21185803413391113 -0.18999892473220825
0003d0 00 00 00 00 bb f8 b8 bf 00 00 00 00 72 fb bd bf
       -0.097545325756073 -0.1171180009841919
0003e0 00 00 00 80 fc 47 c1 bf 00 00 00 a0 bf a8 e3 3f
       -0.13500934839248657 0.6143491864204407
0003f0 00 00 00 c0 e3 63 d6 3f 00 00 00 00 f8 fb 84 bf
       0.3498467803001404 -0.010246217250823975
000400 00 00 00 60 48 5f da bf 00 00 00 60 22 85 e1 3f
       -0.4120655953884125 0.5475017428398132
000410 00 00 00 00 6c 7c 9e 3f 00 00 00 c0 dc 21 d0 3f
       0.029771506786346436 0.25206679105758667
000420 00 00 00 00 20 78 60 bf 00 00 00 00 62 35 e1 bf
       -0.0020104050636291504 -0.5377664566040039
000430 00 00 00 c0 0d 8b d3 3f 00 00 00 00 28 f4 c7 bf
       0.30536216497421265 -0.18713855743408203
000440 00 00 00 80 bc 9f c2 bf 00 00 00 80 6a fc e5 bf
       -0.14549976587295532 -0.6870625019073486
000450 00 00 00 00 c4 43 9f 3f 00 00 00 00 68 71 c0 3f
       0.03053194284439087 0.12846088409423828
000460 00 00 00 00 e2 64 c9 bf 00 00 00 00 8c cf b8 3f
       -0.19839119911193848 0.09691691398620605
000470 00 00 00 20 71 03 e1 3f 00 00 00 60 cb 2b e5 3f
       0.5316701531410217 0.6615960001945496
000480 00 00 00 c0 22 0e df 3f 00 00 00 00 07 04 c3 3f
       0.4852377772331238 0.14856040477752686
000490 00 00 00 20 92 d0 e1 bf 00 00 00 00 64 b6 b5 bf
       -0.5567103028297424 -0.08481431007385254
0004a0 00 00 00 00 4e fc b6 bf 00 00 00 00 3c 7f a7 3f
       -0.08978736400604248 0.04589259624481201
0004b0 00 00 00 40 e1 33 d8 3f 00 00 00 e0 94 fe dd bf
       0.3781664967536926 -0.46866342425346375
0004c0 00 00 00 20 7c 9a e6 3f 00 00 00 c0 ba f9 d6 3f
       0.706358015537262 0.3589922785758972
0004d0 00 00 00 80 5e 9e cc bf 00 00 00 20 c5 1b e4 3f
       -0.22358304262161255 0.6283898949623108
0004e0 00 00 00 e0 d9 ca d3 bf 00 00 00 a0 b9 27 e6 3f
       -0.30925604701042175 0.6923492550849915
0004f0 00 00 00 00 24 a9 e3 bf 00 00 00 40 e0 d8 d7 3f
       -0.6143970489501953 0.3726120591163635
000500 00 00 00 40 4c 1f d7 3f 00 00 00 00 17 6f ce bf
       0.3612852692604065 -0.23776519298553467
000510 00 00 00 00 37 2f b6 3f 00 00 00 a0 98 45 df bf
       0.08665794134140015 -0.4886228144168854
000520 00 00 00 a0 49 fa e3 3f 00 00 00 c0 12 65 da 3f
       0.6243026852607727 0.41241902112960815
000530 00 00 00 00 80 c2 6d 3f 00 00 00 e0 87 3a e6 bf
       0.003632783889770508 -0.6946448683738708
000540 00 00 00 e0 db ed e0 3f 00 00 00 00 de 5d b6 3f
       0.5290355086326599 0.08736979961395264
000550 00 00 00 00 24 ad cb bf 00 00 00 00 54 e9 b2 3f
       -0.21622133255004883 0.07387280464172363
000560 00 00 00 c0 91 cc db 3f 00 00 00 c0 96 06 d4 bf
       0.43436092138290405 -0.31290215253829956
000570 00 00 00 a0 28 83 e0 3f 00 00 00 a0 86 d9 d3 bf
       0.516010582447052 -0.31015172600746155
000580 00 00 00 a0 83 fb d8 bf 00 00 00 c0 70 60 da 3f
       -0.39035120606422424 0.4121362566947937
000590 00 00 00 00 af fe dd bf 00 00 00 00 e6 37 b2 3f
       -0.4686696529388428 0.07116544246673584
0005a0 00 00 00 a0 cb 3a d1 bf 00 00 00 20 38 af d0 bf
       -0.26921358704566956 -0.2606945335865021
0005b0 00 00 00 40 c7 26 de 3f 00 00 00 40 db 58 e6 bf
       0.471116840839386 -0.698346734046936
0005c0 00 00 00 00 e6 d6 d0 bf 00 00 00 00 da 0e b6 bf
       -0.26311635971069336 -0.08616411685943604
0005d0 00 00 00 e0 26 91 d5 bf 00 00 00 c0 05 a2 de bf
       -0.3369843661785126 -0.47863906621932983
0005e0 00 00 00 c0 18 32 dd 3f 00 00 00 00 81 8e b8 bf
       0.45618265867233276 -0.09592443704605103
0005f0 00 00 00 40 35 46 d4 bf 00 00 00 00 d7 16 c2 bf
       -0.31678515672683716 -0.14132201671600342
000600 00 00 00 40 57 ba e1 bf 00 00 00 40 bd aa e1 bf
       -0.5539966821670532 -0.5520921945571899
000610 00 00 00 00 d8 f1 e3 bf 00 00 00 c0 39 a2 e1 bf
       -0.6232719421386719 -0.5510529279708862
000620 00 00 00 00 27 32 d1 3f 00 00 00 40 4b a5 cd bf
       0.26868605613708496 -0.2316068708896637
000630 00 00 00 00 c4 30 c5 bf 00 00 00 00 8e b9 e1 bf
       -0.16555070877075195 -0.5539007186889648
000640 00 00 00 00 93 d9 e3 bf 00 00 00 40 87 18 da 3f
       -0.6203093528747559 0.4077470898628235
000650 00 00 00 00 a4 11 c8 3f 00 00 00 00 56 aa bb bf
       0.18803834915161133 -0.10806787014007568
000660 00 00 00 20 af b6 d1 bf 00 00 00 00 80 a0 a7 3f
       -0.27677515149116516 0.046146392822265625
000670 00 00 00 40 5c a6 db 3f 00 00 00 80 f1 c7 d2 bf
       0.4320288300514221 -0.293453574180603
000680 00 00 00 00 7c 9f bf bf 00 00 00 00 38 41 85 bf
       -0.12352728843688965 -0.01037830114364624
000690 00 00 00 00 e8 a9 c8 bf 00 00 00 e0 2b 84 e4 3f
       -0.19268512725830078 0.6411342024803162
0006a0 00 00 00 00 74 0f a1 3f 00 00 00 60 9b 8d d1 bf
       0.03332102298736572 -0.2742680013179779
0006b0 00 00 00 e0 99 2e d3 bf 00 00 00 40 e7 eb de 3f
       -0.29971930384635925 0.48314839601516724
0006c0 00 00 00 80 99 4b e2 bf 00 00 00 80 37 c8 d0 3f
       -0.5717284679412842 0.26222026348114014
0006d0 00 00 00 80 55 d1 c7 bf 00 00 00 00 9c 1c 93 bf
       -0.1860758662223816 -0.01866382360458374
0006e0 00 00 00 80 4a 44 de bf 00 00 00 80 0a ba e3 bf
       -0.47291815280914307 -0.6164600849151611
0006f0 00 00 00 c0 08 73 db 3f 00 00 00 c0 51 a3 d7 3f
       0.42889612913131714 0.36934322118759155
000700 00 00 00 c0 c8 5a d4 bf 00 00 00 00 37 12 b2 3f
       -0.31804102659225464 0.07059043645858765
000710 00 00 00 c0 ca 43 d8 bf 00 00 00 00 de 70 a4 bf
       -0.37913769483566284 -0.03992360830307007
000720 00 00 00 00 7f 0d b8 3f 00 00 00 40 c8 50 d7 3f
       0.09395593404769897 0.3643055558204651
000730 00 00 00 80 b9 2d df bf 00 00 00 00 4e fe a7 bf
       -0.48716580867767334 -0.04686206579208374
000740 00 00 00 e0 53 0c d5 bf 00 00 00 e0 b8 31 d3 bf
       -0.32887741923332214 -0.2999098002910614
000750 00 00 00 20 51 75 e0 3f 00 00 00 c0 ea b5 e4 bf
       0.5143209099769592 -0.6472066640853882
000760 00 00 00 00 3a e1 ce 3f 00 00 00 00 8a 57 d5 bf
       0.24124836921691895 -0.333467960357666
000770 00 00 00 00 c8 a5 a4 bf 00 00 00 c0 07 48 d9 3f
       -0.04032731056213379 0.39502137899398804
000780 00 00 00 40 54 3f d9 3f 00 00 00 a0 1f 24 e3 3f
       0.3944903016090393 0.5981596112251282
000790 00 00 00 a0 02 11 e1 bf 00 00 00 60 50 94 d8 bf
       -0.5333264470100403 -0.3840523660182953
0007a0 00 00 00 20 30 39 e5 bf 00 00 00 80 2a b5 d6 bf
       -0.6632309556007385 -0.3548074960708618
0007b0 00 00 00 80 e5 d7 c3 3f 00 00 00 00 ed 9a b2 3f
       0.1550261378288269 0.07267647981643677
0007c0 00 00 00 c0 0c 3b df 3f 00 00 00 00 bf ba b2 bf
       0.48797911405563354 -0.0731620192527771
0007d0 00 00 00 00 59 6c e5 bf 00 00 00 e0 43 3b d2 bf
       -0.6694760322570801 -0.2848672568798065
0007e0 00 00 00 40 e3 3d dc bf 00 00 00 20 54 11 db bf
       -0.44127732515335083 -0.4229326546192169
0007f0 00 00 00 00 17 43 e2 bf 00 00 00 e0 62 8f e3 bf
       -0.5706896781921387 -0.6112532019615173

encoder_layer.linear2.weight f8 [2, 2048]
000000 00 00 00 e0 0d 99 94 3f 00 00 00 60 c3 58 8b bf
       0.02011510543525219 -0.013352896086871624
000010 00 00 00 40 a8 6f 8a 3f 00 00 00 00 8f bc 77 3f
       0.01290828175842762 0.005795057862997055
000020 00 00 00 00 00 f8 d6 be 00 00 00 00 55 73 68 bf
       -5.476176738739014e-06 -0.002984682098031044
000030 00 00 00 80 4e ba 7e 3f 00 00 00 00 06 71 6b bf
       0.007501894608139992 -0.0033497922122478485
000040 00 00 00 c0 3f c8 8f 3f 00 00 00 00 76 38 6e 3f
       0.015518663451075554 0.0036890320479869843
000050 00 00 00 60 3c 55 95 3f 00 00 00 a0 8d aa 95 bf
       0.020832961425185204 -0.02115842141211033
000060 00 00 00 80 5e 44 7f 3f 00 00 00 00 37 4d 7b bf
       0.00763356126844883 -0.006665434688329697
000070 00 00 00 80 0c ee 93 bf 00 00 00 c0 fa eb 8c bf
       -0.019462771713733673 -0.014121970161795616
000080 00 00 00 c0 37 0e 85 3f 00 00 00 00 ba 69 58 3f
       0.010281024500727654 0.0014900509268045425
000090 00 00 00 00 c0 25 0f 3f 00 00 00 00 97 a1 7a 3f
       5.9409067034721375e-05 0.006501760333776474
0000a0 00 00 00 00 9e 69 7b bf 00 00 00 00 6e 75 64 bf
       -0.006692521274089813 -0.002497401088476181
0000b0 00 00 00 e0 0f 64 90 3f 00 00 00 a0 a5 09 8b bf
       0.016006706282496452 -0.013201993890106678
0000c0 00 00 00 80 c2 95 91 bf 00 00 00 00 06 8d 63 3f
       -0.01717285066843033 0.002386581152677536
0000d0 00 00 00 00 0a c5 55 3f 00 00 00 e0 79 6d 92 bf
       0.001328716054558754 -0.017995743080973625
0000e0 00 00 00 00 e0 6b 38 bf 00 00 00 40 0b 7d 7d bf
       -0.00037264078855514526 -0.007199329324066639
0000f0 00 00 00 20 5b 41 90 bf 00 00 00 40 d3 16 95 bf
       -0.015874313190579414 -0.02059488371014595
000100 00 00 00 20 ed 13 94 3f 00 00 00 40 6b 25 96 bf
       0.019607262685894966 -0.021627116948366165
000110 00 00 00 00 6c 6a 59 3f 00 00 00 00 b0 63 73 3f
       0.001551251858472824 0.004733741283416748
000120 00 00 00 a0 42 6b 90 bf 00 00 00 60 0e 4c 8c bf
       -0.016034165397286415 -0.01381694059818983
000130 00 00 00 60 27 f7 93 3f 00 00 00 00 2f ea 64 bf
       0.019497504457831383 -0.002553073689341545
000140 00 00 00 00 25 b5 79 bf 00 00 00 e0 17 ba 92 bf
       -0.006276268512010574 -0.018288014456629753
000150 00 00 00 60 79 7d 92 bf 00 00 00 80 de b4 7b 3f
       -0.018056770786643028 0.006764287129044533
000160 00 00 00 00 85 30 6a bf 00 00 00 40 da 75 85 3f
       -0.0031969640403985977 0.010478692129254341
000170 00 00 00 80 b4 0f 8d bf 00 00 00 c0 07 b2 8e bf
       -0.014190111309289932 -0.014988003298640251
000180 00 00 00 40 78 f7 8f 3f 00 00 00 80 81 f1 71 bf
       0.015608729794621468 -0.004380708560347557
000190 00 00 00 00 00 8a ea be 00 00 00 00 90 fb 48 bf
       -1.2654811143875122e-05 -0.0007624104619026184
0001a0 00 00 00 00 59 55 62 bf 00 00 00 20 67 87 94 3f
       -0.002237962558865547 0.02004777081310749
0001b0 00 00 00 60 a1 67 8b bf 00 00 00 80 3c 8f 75 bf
       -0.013381252996623516 -0.005263553932309151
0001c0 00 00 00 80 c9 94 78 3f 00 00 00 40 73 a9 91 bf
       0.006001269444823265 -0.017247963696718216
0001d0 00 00 00 c0 5d 7a 81 3f 00 00 00 80 6a d3 73 bf
       0.008534176275134087 -0.004840293899178505
0001e0 00 00 00 80 22 46 72 bf 00 00 00 40 b5 d4 89 3f
       -0.0044614169746637344 0.012612739577889442
0001f0 00 00 00 a0 86 59 93 bf 00 00 00 60 c2 37 89 bf
       -0.018896201625466347 -0.012313383631408215
000200 00 00 00 c0 ad db 83 3f 00 00 00 00 c2 0d 59 bf
       0.009696347638964653 -0.0015291590243577957
000210 00 00 00 c0 3c 33 88 3f 00 00 00 a0 1c 38 93 3f
       0.0118164774030447 0.018768737092614174
000220 00 00 00 c0 7e 2b 85 3f 00 00 00 e0 18 54 96 3f
       0.010336866602301598 0.021805180236697197
000230 00 00 00 c0 aa 85 7a bf 00 00 00 00 90 cc 20 bf
       -0.006475131027400494 -0.00012816675007343292
000240 00 00 00 80 ec d1 71 3f 00 00 00 80 eb a1 7a 3f
       0.0043505895882844925 0.006502075120806694
000250 00 00 00 80 52 f4 78 bf 00 00 00 80 69 bc 71 bf
       -0.006092378869652748 -0.004330074414610863
000260 00 00 00 00 97 5c 7e 3f 00 00 00 80 93 76 7f 3f
       0.007412519305944443 0.007681442424654961
000270 00 00 00 20 8e 17 93 bf 00 00 00 00 e1 90 69 3f
       -0.01864454336464405 0.003120841458439827
000280 00 00 00 c0 e0 71 8b 3f 00 00 00 00 1c 80 7b 3f
       0.013400798663496971 0.006713971495628357
000290 00 00 00 60 18 c8 90 3f 00 00 00 60 d1 3a 96 bf
       0.0163883026689291 -0.021708747372031212
0002a0 00 00 00 00 f9 54 71 3f 00 00 00 c0 7f 9f 93 bf
       0.004231426864862442 -0.01916312798857689
0002b0 00 00 00 40 34 60 87 3f 00 00 00 60 38 9a 96 bf
       0.01141396351158619 -0.022072678431868553
0002c0 00 00 00 c0 58 68 8c 3f 00 00 00 e0 88 8f 90 3f
       0.013870900496840477 0.016172541305422783
0002d0 00 00 00 40 92 c7 88 3f 00 00 00 a0 cd 6a 91 bf
       0.012099402025341988 -0.017008984461426735
0002e0 00 00 00 00 42 ff 63 3f 00 00 00 60 4f a5 8b bf
       0.002441052347421646 -0.013498897664248943
0002f0 00 00 00 00 c9 b2 74 3f 00 00 00 80 30 60 82 bf
       0.005053315311670303 -0.00897252932190895
000300 00 00 00 00 0c 31 69 3f 00 00 00 e0 3b 2a 8d bf
       0.003075145184993744 -0.014240710996091366
000310 00 00 00 a0 31 65 96 3f 00 00 00 80 cc 75 7c 3f
       0.02187039889395237 0.006948279216885567
000320 00 00 00 20 a4 ea 94 bf 00 00 00 c0 65 f3 83 3f
       -0.02042633481323719 0.009741587564349174
000330 00 00 00 00 99 7f 87 bf 00 00 00 80 c3 4d 89 bf
       -0.011473841965198517 -0.012355353683233261
000340 00 00 00 00 95 4d 7c 3f 00 00 00 40 4f 54 86 3f
       0.006909925490617752 0.010902995243668556
000350 00 00 00 c0 d9 d8 85 3f 00 00 00 00 42 b1 50 3f
       0.01066751591861248 0.0010188240557909012
000360 00 00 00 00 55 ee 7c 3f 00 00 00 80 1f ab 80 3f
       0.007063228636980057 0.00813889130949974
000370 00 00 00 e0 6c 00 92 3f 00 00 00 80 31 69 81 3f
       0.01757974736392498 0.00850142166018486
000380 00 00 00 00 56 c5 70 bf 00 00 00 00 5c cd 5b bf
       -0.004094444215297699 -0.001696910709142685
000390 00 00 00 80 bc 75 76 3f 00 00 00 00 4b 92 81 3f
       0.005483375862240791 0.008579812943935394
0003a0 00 00 00 e0 18 c2 94 3f 00 00 00 00 3e 78 8c bf
       0.020271671935915947 -0.01390121877193451
0003b0 00 00 00 80 2e a4 81 bf 00 00 00 00 e4 e3 54 bf
       -0.008613932877779007 -0.001275036484003067
0003c0 00 00 00 00 64 f1 7b bf 00 00 00 00 ef ff 7e bf
       -0.0068220049142837524 -0.007568296045064926
0003d0 00 00 00 e0 ee c7 94 bf 00 00 00 a0 24 6f 90 bf
       -0.020293934270739555 -0.0160489771515131
0003e0 00 00 00 a0 8b 9f 96 3f 00 00 00 00 65 90 89 bf
       0.022092992439866066 -0.01248244196176529
0003f0 00 00 00 e0 7e 27 95 3f 00 00 00 40 14 ff 8e 3f
       0.020658476278185844 0.015134962275624275
000400 00 00 00 80 d4 53 7f 3f 00 00 00 80 e0 ed 7c bf
       0.007648305967450142 -0.007062794640660286
000410 00 00 00 20 a0 86 8a bf 00 00 00 40 02 53 87 3f
       -0.012952090241014957 0.01138879545032978
000420 00 00 00 80 ad 00 70 bf 00 00 00 00 fa a2 5a bf
       -0.003906896337866783 -0.001625770702958107
000430 00 00 00 40 4a ac 91 bf 00 00 00 a0 e7 e6 93 3f
       -0.017258796840906143 0.019435519352555275
000440 00 00 00 40 7c d1 85 3f 00 00 00 40 00 2a 8c 3f
       0.01065346784889698 0.013751985505223274
000450 00 00 00 00 40 22 0d bf 00 00 00 00 04 db 76 3f
       -5.556829273700714e-05 0.005579963326454163
000460 00 00 00 a0 36 58 95 3f 00 00 00 00 c7 e0 6c 3f
       0.020844319835305214 0.003525150939822197
000470 00 00 00 80 b4 a8 70 bf 00 00 00 00 f5 02 80 bf
       -0.004067139700055122 -0.007818140089511871
000480 00 00 00 80 14 10 90 bf 00 00 00 c0 4f 0c 84 3f
       -0.015686340630054474 0.009789107367396355
000490 00 00 00 00 24 d3 6d bf 00 00 00 a0 3c e9 91 3f
       -0.0036407187581062317 0.017491290345788002
0004a0 00 00 00 60 74 4a 88 bf 00 00 00 60 2a 87 91 3f
       -0.011860760860145092 0.017117178067564964
0004b0 00 00 00 00 79 c7 6f bf 00 00 00 40 d2 5c 8a 3f
       -0.003879295662045479 0.012872355058789253
0004c0 00 00 00 00 c6 bb 5a 3f 00 00 00 80 6e 8d 90 bf
       0.001631682738661766 -0.016164518892765045
0004d0 00 00 00 20 d6 63 91 bf 00 00 00 a0 ae 05 90 3f
       -0.016982408240437508 0.0156466756016016
0004e0 00 00 00 40 3f 43 8e bf 00 00 00 a0 fc 63 96 bf
       -0.014776701107621193 -0.02186579443514347
0004f0 00 00 00 c0 28 c8 82 3f 00 00 00 c0 2c 11 7d bf
       0.009170835837721825 -0.007096457295119762
000500 00 00 00 80 7f 2c 8a bf 00 00 00 c0 c1 7a 8a 3f
       -0.012780185788869858 0.012929452583193779
000510 00 00 00 a0 3e a6 8e bf 00 00 00 60 9b 7b 96 bf
       -0.014965523965656757 -0.02195589803159237
000520 00 00 00 e0 54 0e 96 3f 00 00 00 00 97 cf 7b bf
       0.021539045497775078 -0.0067897699773311615
000530 00 00 00 60 62 60 96 bf 00 00 00 e0 f0 b6 93 3f
       -0.021852051839232445 0.019252551719546318
000540 00 00 00 00 6e 4f 69 3f 00 00 00 20 7d 1e 95 bf
       0.0030896328389644623 -0.02062411792576313
000550 00 00 00 a0 72 fa 91 3f 00 00 00 80 fa 0c 79 3f
       0.017556944862008095 0.00611589290201664
000560 00 00 00 80 f3 3c 78 3f 00 00 00 40 20 3d 84 bf
       0.0059175025671720505 -0.009882213547825813
000570 00 00 00 00 28 65 54 3f 00 00 00 20 31 49 93 bf
       0.0012448206543922424 -0.018833892419934273
000580 00 00 00 00 35 74 88 bf 00 00 00 80 21 f3 7e bf
       -0.011940397322177887 -0.007556086406111717
000590 00 00 00 80 81 f4 8e bf 00 00 00 00 a8 6e 7e 3f
       -0.015114795416593552 0.007429748773574829
0005a0 00 00 00 00 00 e1 65 3f 00 00 00 80 7b 4c 7c 3f
       0.002670764923095703 0.006908876821398735
0005b0 00 00 00 40 32 03 85 3f 00 00 00 20 38 d5 93 3f
       0.010260002687573433 0.01936805434525013
0005c0 00 00 00 00 00 f7 0e bf 00 00 00 00 ee 79 77 3f
       -5.9060752391815186e-05 0.00573151558637619
0005d0 00 00 00 00 98 aa 73 3f 00 00 00 40 07 e7 85 3f
       0.004801362752914429 0.010694557800889015
0005e0 00 00 00 80 f2 f7 80 bf 00 00 00 c0 0e 7b 86 bf
       -0.008285421878099442 -0.010976901277899742
0005f0 00 00 00 00 10 59 2e 3f 00 00 00 c0 b2 75 87 bf
       0.00023153610527515411 -0.011454960331320763
000600 00 00 00 80 95 64 82 3f 00 00 00 a0 84 57 95 3f
       0.00898091122508049 0.02084166742861271
000610 00 00 00 e0 e4 73 93 bf 00 00 00 00 e3 ff 7b 3f
       -0.018996788188815117 0.006835829466581345
000620 00 00 00 40 e7 42 91 bf 00 00 00 40 c9 d1 7a bf
       -0.016856778413057327 -0.006547723896801472
000630 00 00 00 60 ee 69 93 bf 00 00 00 00 5b df 60 bf
       -0.01895878277719021 -0.002059629186987877
000640 00 00 00 c0 a6 09 88 3f 00 00 00 60 60 16 85 bf
       0.01173715852200985 -0.010296585969626904
000650 00 00 00 c0 83 03 86 3f 00 00 00 20 e5 1d 96 3f
       0.010748891159892082 0.021598415449261665
000660 00 00 00 40 e8 c1 85 3f 00 00 00 80 d4 fd 81 3f
       0.010623754933476448 0.008784923702478409
000670 00 00 00 40 4f 63 7f bf 00 00 00 a0 ca ec 91 bf
       -0.007663068361580372 -0.017504850402474403
000680 00 00 00 40 9b 22 8b 3f 00 00 00 40 79 cd 85 3f
       0.013249600306153297 0.01064581610262394
000690 00 00 00 00 01 0f 63 3f 00 00 00 c0 5e c9 91 bf
       0.002326490357518196 -0.017369728535413742
0006a0 00 00 00 e0 2c 2c 90 3f 00 00 00 a0 cc b9 93 3f
       0.015793515369296074 0.019263455644249916
0006b0 00 00 00 00 00 89 34 bf 00 00 00 80 1d 76 82 bf
       -0.0003133416175842285 -0.009014349430799484
0006c0 00 00 00 00 ee f4 5d bf 00 00 00 80 eb 9d 7d 3f
       -0.0018284153193235397 0.007230682298541069
0006d0 00 00 00 c0 ec 20 81 3f 00 00 00 00 c4 12 76 bf
       0.008363580331206322 -0.005388990044593811
0006e0 00 00 00 a0 0d d8 94 3f 00 00 00 00 cf 6f 95 bf
       0.020355427637696266 -0.0209343284368515
0006f0 00 00 00 a0 f1 8c 80 bf 00 00 00 a0 a9 f9 95 3f
       -0.008081329055130482 0.02146019972860813
000700 00 00 00 60 0d 31 87 bf 00 00 00 80 1c 91 75 3f
       -0.011324028484523296 0.005265342071652412
000710 00 00 00 c0 5c 29 81 3f 00 00 00 00 a4 32 7d bf
       0.008379673585295677 -0.00712837278842926
000720 00 00 00 60 e5 6a 91 3f 00 00 00 20 3c 78 90 3f
       0.01700933836400509 0.01608365960419178
000730 00 00 00 e0 e7 c1 84 bf 00 00 00 a0 2f 0c 88 bf
       -0.010135470889508724 -0.011741993017494678
000740 00 00 00 40 63 54 81 bf 00 00 00 60 95 5a 86 bf
       -0.008461738005280495 -0.01091496180742979
000750 00 00 00 40 76 7a 87 3f 00 00 00 00 6e 00 70 bf
       0.011464046314358711 -0.003906659781932831
000760 00 00 00 60 0b c1 92 3f 00 00 00 40 7f 44 87 3f
       0.018314531072974205 0.011361116543412209
000770 00 00 00 00 38 86 6c 3f 00 00 00 00 45 bd 6a bf
       0.0034819692373275757 -0.0032640788704156876
000780 00 00 00 00 c6 73 53 3f 00 00 00 a0 90 19 92 3f
       0.0011872705072164536 0.017675647512078285
000790 00 00 00 40 02 d0 91 bf 00 00 00 60 54 91 92 3f
       -0.017395053058862686 0.018132513388991356
0007a0 00 00 00 60 96 d2 90 bf 00 00 00 c0 37 4f 8b 3f
       -0.016428327187895775 0.013334689661860466
0007b0 00 00 00 c0 89 f4 8f 3f 00 00 00 c0 70 f5 7f bf
       0.015603138133883476 -0.007802429609000683
0007c0 00 00 00 80 40 81 93 bf 00 00 00 00 29 c6 80 bf
       -0.019047744572162628 -0.008190460503101349
0007d0 00 00 00 80 53 f2 7c 3f 00 00 00 00 3a 4c 6a bf
       0.007067037746310234 -0.003210175782442093
0007e0 00 00 00 a0 ea db 8c bf 00 00 00 40 26 0a 92 bf
       -0.01409133244305849 -0.017616841942071915
0007f0 00 00 00 e0 60 1d 96 3f 00 00 00 00 f2 ef 77 3f
       0.02159644477069378 0.0058440640568733215

encoder_layer.linear2.bias f8 [2]
000000 00 00 00 00 72 10 7d 3f 00 00 00 c0 64 22 8e 3f
       0.007095761597156525 0.014714037999510765

encoder_layer.norm1.weight f8 [2]
000000 00 00 00 00 00 00 f0 3f 00 00 00 00 00 00 f0 3f
       1.0 1.0

encoder_layer.norm1.bias f8 [2]
000000 00 00 00 00 00 00 00 00 00 00 00 00 00 00 00 00
       0.0 0.0

encoder_layer.norm2.weight f8 [2]
000000 00 00 00 00 00 00 f0 3f 00 00 00 00 00 00 f0 3f
       1.0 1.0

encoder_layer.norm2.bias f8 [2]
000000 00 00 00 00 00 00 00 00 00 00 00 00 00 00 00 00
       0.0 0.0

transformer_encoder.layers.0.self_attn.in_proj_weight f8 [6, 2]
000000 99 21 58 d6 3b 05 cc bf b6 12 c3 d0 00 0b c0 bf
       -0.21890972105053377 -0.12533579057175864
000010 bd c9 0c 5b 6d cd dc 3f f4 e6 32 aa c2 b8 e3 bf
       0.450038279453249 -0.6163037609287287
000020 6b 21 fc 52 fc 6f e9 bf 12 c6 4a 5e 6d d4 db 3f
       -0.7949201222227605 0.43484052856646926
000030 80 13 bc a7 c7 0b de bf 96 3a 1b ad dd 42 e7 3f
       -0.4694689882310783 0.7269123440726897
000040 a8 36 be 49 5e cb d1 bf f8 32 fe d7 43 70 e1 3f
       -0.2780376167437262 0.5449542254078485
000050 fd a3 78 32 c8 3e e9 3f 08 9a 28 cb 84 15 ca bf
       0.7889138208166738 -0.20378169936994106

transformer_encoder.layers.0.self_attn.in_proj_bias f8 [6]
000000 17 41 b5 f3 20 37 5a 3e 02 50 34 40 41 11 9c be
       2.4414944050256373e-08 -4.1823687997708154e-07
000010 b7 30 09 1a eb 94 29 3b b1 78 65 2c d7 cf 32 3b
       1.058034825306525e-23 1.5560819969810188e-23
000020 e1 07 5a 29 49 70 ec be ce 86 74 39 6e 04 20 bf
       -1.3560589006592713e-05 -0.00012220235360254353

transformer_encoder.layers.0.self_attn.out_proj.weight f8 [2, 2]
000000 a9 ba 39 61 eb d1 df bf 53 91 4c 49 cb 33 dd 3f
       -0.497187466570646 0.45628626020540713
000010 9b 22 63 cf 02 52 e3 bf 9c 48 a6 84 22 71 e0 bf
       -0.6037611055881656 -0.5138104048549113

transformer_encoder.layers.0.self_attn.out_proj.bias f8 [2]
000000 e8 69 3c a1 5b 81 20 bf e6 69 3c a1 5b 81 20 3f
       -0.00012592547920393872 0.00012592547920393867
