Transformer-Time-Series-Forecasting-main/save_model/best_train_52.pth (torch, 518471 bytes, 74 tensors)

encoder_layer.self_attn.in_proj_weight f8 [6, 2]
0	0xbfe77f3980000000	-0.7342803478240967
1	0xbfe3e10dc0000000	-0.6212223768234253
2	0x3f38340000000000	0.0003693103790283203
3	0x3fa42ac600000000	0.039388835430145264
4	0xbf88433000000000	-0.01184689998626709
5	0x3f96182400000000	0.02157646417617798
6	0x3fdada0940000000	0.4195578694343567
7	0x3fe67a3220000000	0.7024164795875549
8	0xbfca5f2980000000	-0.20602911710739136
9	0xbfc81cb100000000	-0.1883755922317505
10	0x3fc939f680000000	0.19708138704299927
11	0xbfeaf030c0000000	-0.8418201208114624

encoder_layer.self_attn.in_proj_bias f8 [6]
0	0x0000000000000000	0.0
1	0x0000000000000000	0.0
2	0x0000000000000000	0.0
3	0x0000000000000000	0.0
4	0x0000000000000000	0.0
5	0x0000000000000000	0.0

encoder_layer.self_attn.out_proj.weight f8 [2, 2]
0	0x3fb0698c00000000	0.06411051750183105
1	0xbfd3f99720000000	-0.3121087849140167
2	0xbfd40908a0000000	-0.31305137276649475
3	0x3fe0da7b20000000	0.5266700387001038

encoder_layer.self_attn.out_proj.bias f8 [2]
0	0x0000000000000000	0.0
1	0x0000000000000000	0.0

encoder_layer.linear1.weight f8 [2048, 2]
0	0x3fe468dae0000000	0.6377996802330017
1	0xbfe3370740000000	-0.600467324256897
2	0xbfd3f9a060000000	-0.3121109902858734
3	0xbf94c51800000000	-0.020283102989196777
4	0xbfd0b1b420000000	-0.26084616780281067
5	0x3fe66db8a0000000	0.7008937001228333
6	0x3fe5a474a0000000	0.6763251423835754
7	0xbfda6195c0000000	-0.41220611333847046
8	0x3fe13ff720000000	0.539058268070221
9	0x3fcfc1a880000000	0.2480974793434143
10	0x3fe543f3e0000000	0.6645449995994568
11	0x3fdd44c540000000	0.4573224186897278
12	0xbfc8bfc980000000	-0.19335287809371948
13	0xbfb126d000000000	-0.06699848175048828
14	0xbfd726f7c0000000	-0.3617534041404724
15	0x3fe08ebce0000000	0.5174240469932556
16	0xbfd45fb260000000	-0.31834086775779724
17	0xbfd37445e0000000	-0.3039717376232147
18	0xbfcdaf76c0000000	-0.23191723227500916
19	0xbfdab5c120000000	-0.417343407869339
20	0x3fe1f325a0000000	0.5609310269355774
21	0xbfd677f5c0000000	-0.3510717749595642
22	0xbfd2dbeee0000000	-0.2946736514568329
23	0x3fc5bccb00000000	0.1698240041732788
24	0x3fdbbd0f40000000	0.4334142804145813
25	0x3fd8e2c7c0000000	0.38884156942367554
26	0x3fd2457340000000	0.28548890352249146
27	0x3fd30701c0000000	0.2973026633262634
28	0xbfd4a26220000000	-0.32241109013557434
29	0x3fe0cc6420000000	0.5249500870704651
30	0x3fdf0d40c0000000	0.4851838946342468
31	0xbfdc92c120000000	-0.446457177400589
32	0xbfe0f2fb80000000	-0.5296609401702881
33	0xbfe283e760000000	-0.5786015391349792
34	0xbfd1e84460000000	-0.27980145812034607
35	0x3f61274000000000	0.0020939111709594727
36	0xbfcdce7dc0000000	-0.232864111661911
37	0xbfd6c82620000000	-0.35596612095832825
38	0x3fe1eb8420000000	0.5599995255470276
39	0xbfe53d9220000000	-0.6637659668922424
40	0x3fd4caa6c0000000	0.3248688578605652
41	0xbfe32ab100000000	-0.598961353302002
42	0x3fdd5ec640000000	0.4589095711708069
43	0x3fd8961e40000000	0.3841624855995178
44	0xbfdf576ba0000000	-0.4897107183933258
45	0x3fcbd34180000000	0.21738451719284058
46	0x3fe2c99a20000000	0.5871096253395081
47	0x3fc73e5c80000000	0.18159061670303345
48	0x3fd4376d40000000	0.31588298082351685
49	0x3fde0fa0c0000000	0.4697038531303406
50	0xbfb4239d00000000	-0.07866841554641724
51	0xbfe2390c60000000	-0.5694639086723328
52	0x3fddb87640000000	0.46438366174697876
53	0x3fdae683c0000000	0.42031949758529663
54	0xbfcd7d9d00000000	-0.23039591312408447
55	0xbfd96aa0c0000000	-0.3971330523490906
56	0x3fbe6a4a00000000	0.11880934238433838
57	0x3fd8a49940000000	0.3850463032722473
58	0xbfe4ae95c0000000	-0.6463116407394409
59	0xbfba09ec00000000	-0.10171389579772949
60	0xbfdf612180000000	-0.4903033971786499
61	0xbfe6071d20000000	-0.6883683800697327
62	0xbfbd9f3d00000000	-0.1157110333442688
63	0xbfc4e95a00000000	-0.16337132453918457
64	0xbfaa3f2a00000000	-0.05126315355300903
65	0xbf7c07c000000000	-0.0068433284759521484
66	0xbfd0a5a6a0000000	-0.2601105272769928
67	0xbfd35b6aa0000000	-0.3024546205997467
68	0x3fd9c74dc0000000	0.40278953313827515
69	0xbfe18b7f20000000	-0.5482783913612366
70	0x3fba1fcd00000000	0.10204774141311646
71	0xbfd9576f20000000	-0.39596155285835266
72	0xbfa7883000000000	-0.04596090316772461
73	0x3fc9bb0c00000000	0.2010207176208496
74	0xbfc0d00100000000	-0.13134777545928955
75	0xbfc4e62c80000000	-0.163274347782135
76	0xbfddc5a320000000	-0.46518781781196594
77	0x3fe5f9d560000000	0.6867472529411316
78	0xbfa653c600000000	-0.043607890605926514
79	0x3fe2ee6860000000	0.5916025042533875
80	0x3fe0a711e0000000	0.5203942656517029
81	0xbfd8d02ee0000000	-0.3877064883708954
82	0x3fc7129500000000	0.18025457859039307
83	0xbfda7914c0000000	-0.41364020109176636
84	0xbfdb66fb20000000	-0.4281604588031769
85	0x3fd67fafc0000000	0.3515433669090271
86	0x3fb8a14c00000000	0.09621119499206543
87	0x3fdd200dc0000000	0.45508140325546265
88	0xbf90023c00000000	-0.01563352346420288
89	0x3fc8ae8e00000000	0.1928269863128662
90	0xbfe0cb4460000000	-0.5248128771781921
91	0x3fbe21de00000000	0.11770427227020264
92	0xbfc407e700000000	-0.15649116039276123
93	0x3fd7415d40000000	0.3633645176887512
94	0x3fb387b100000000	0.07628923654556274
95	0x3fe4bfef60000000	0.6484295725822449
96	0xbfe42b4360000000	-0.6302811503410339
97	0x3fe544fe60000000	0.6646720767021179
98	0xbfa63df200000000	-0.04344135522842407
99	0x3fe0d6cbe0000000	0.5262202620506287
100	0xbfc8114100000000	-0.1880265474319458
101	0x3fdb79ca40000000	0.4293084740638733
102	0x3fb488ce00000000	0.08021247386932373
103	0xbfe48773a0000000	-0.6415346264839172
104	0xbfba6fa600000000	-0.10326611995697021
105	0x3fe68b48a0000000	0.7045024037361145
106	0x3fdb02e1c0000000	0.4220508933067322
107	0xbfe47667c0000000	-0.6394537687301636
108	0x3fb01f5700000000	0.06297820806503296
109	0x3fc2085b00000000	0.14087998867034912
110	0x3fad3f0600000000	0.057121455669403076
111	0x3fa04a6a00000000	0.031817734241485596
112	0x3fe501f120000000	0.6564870476722717
113	0x3fcf13c880000000	0.24279123544692993
114	0xbfbc815300000000	-0.11134833097457886
115	0x3fce997380000000	0.23905795812606812
116	0xbfbcb65600000000	-0.11215722560882568
117	0xbfd89e4840000000	-0.3846607804298401
118	0x3fe1cef0e0000000	0.5565113425254822
119	0xbfc310d000000000	-0.14895057678222656
120	0x3fe1a437a0000000	0.551296055316925
121	0x3fc5bf4380000000	0.16989940404891968
122	0x3fc1dd9a00000000	0.13957524299621582
123	0xbfe4e9ef20000000	-0.6535564064979553
124	0xbf78d69000000000	-0.006063997745513916
125	0x3fbeaf3a00000000	0.11986124515533447
126	0x3fbf8b3d00000000	0.1232183575630188
127	0xbfe06e4120000000	-0.513458788394928
128	0xbfe0dcf120000000	-0.5269704461097717
129	0x3fe3f283e0000000	0.623353898525238
130	0x3fc1857f00000000	0.13688647747039795
131	0xbf88db0800000000	-0.012136518955230713
132	0xbf979ba800000000	-0.02305471897125244
133	0xbfbc73c300000000	-0.1111413836479187
134	0xbfcdb8dc80000000	-0.23220402002334595
135	0xbfe0100f00000000	-0.501960277557373
136	0x3fe6424660000000	0.6955901980400085
137	0xbfd3a56680000000	-0.3069702386856079
138	0xbfde982580000000	-0.4780362844467163
139	0x3fe1c71e20000000	0.5555563569068909
140	0xbfb2911000000000	-0.0725259780883789
141	0xbfd65c54a0000000	-0.34938541054725647
142	0xbfe25e8340000000	-0.5740371942520142
143	0x3fd31080c0000000	0.2978822588920593
144	0x3fde9b4ac0000000	0.47822827100753784
145	0xbf73fba000000000	-0.004878640174865723
146	0x3fb7db4200000000	0.09318935871124268
147	0x3fe0c2cea0000000	0.5237801671028137
148	0xbfd04e9480000000	-0.2547961473464966
149	0xbfcfdff700000000	-0.24902236461639404
150	0xbfc2665f80000000	-0.1437491774559021
151	0xbfca6e4700000000	-0.2064903974533081
152	0x3fe579c520000000	0.6711145043373108
153	0x3fb02cae00000000	0.06318175792694092
154	0xbf791d9000000000	-0.00613170862197876
155	0xbfd7ea7d40000000	-0.37368708848953247
156	0x3fe45bd6a0000000	0.6362107396125793
157	0x3f7e127000000000	0.00734180212020874
158	0xbfb8c93600000000	-0.09682023525238037
159	0xbfcad38740000000	-0.20958033204078674
160	0xbfc86c3480000000	-0.19080215692520142
161	0xbfdf35b400000000	-0.4876527786254883
162	0x3fe4bedc60000000	0.648298442363739
163	0xbfe52471a0000000	-0.6606987118721008
164	0xbfd71c1940000000	-0.3610900044441223
165	0x3fe1117520000000	0.5333810448646545
166	0x3fd13a60c0000000	0.2691881060600281
167	0xbfd4d79fe0000000	-0.32566067576408386
168	0x3fb4ff4f00000000	0.08202069997787476
169	0xbfe3ddfe40000000	-0.6208487749099731
170	0xbfd6443500000000	-0.3479130268096924
171	0xbfe51f8540000000	-0.6600977182388306
172	0xbfe53544a0000000	-0.6627524495124817
173	0x3fd2befa40000000	0.29290634393692017
174	0xbfd6d48fe0000000	-0.35672375559806824
175	0x3fd95b50c0000000	0.39619845151901245
176	0xbfe51225e0000000	-0.6584653258323669
177	0xbfd5a3e700000000	-0.33812880516052246
178	0xbfd3da0ae0000000	-0.31018325686454773
179	0x3fdcc9f9c0000000	0.4498276114463806
180	0xbfaa56de00000000	-0.05144399404525757
181	0xbfe220bc80000000	-0.5664961338043213
182	0xbfdcb826a0000000	-0.4487396776676178
183	0x3fd0b7eb00000000	0.26122546195983887
184	0x3f803f7800000000	0.007933557033538818
185	0x3fac78ba00000000	0.05560857057571411
186	0x3fb2dcab00000000	0.07367962598800659
187	0xbfa59a4800000000	-0.042192697525024414
188	0x3fd6dc6140000000	0.3572009205818176
189	0xbfbf960900000000	-0.12338310480117798
190	0x3fab47ea00000000	0.05328303575515747
191	0xbfdd0294c0000000	-0.45328253507614136
192	0x3fb48c5b00000000	0.08026665449142456
193	0x3fc296b500000000	0.1452242136001587
194	0xbfad607200000000	-0.0573764443397522
195	0x3fd4b898c0000000	0.32376688718795776
196	0xbfd9f42240000000	-0.40552574396133423
197	0x3fe4f2c5e0000000	0.6546353697776794
198	0x3fdecdedc0000000	0.4813188910484314
199	0x3fc21b2300000000	0.14145314693450928
200	0x3fe3116760000000	0.5958744883537292
201	0xbfc3502a80000000	-0.1508839726448059
202	0xbfd1b2b6a0000000	-0.2765327990055084
203	0xbfd95d8420000000	-0.3963327705860138
204	0x3fe1944760000000	0.5493504405021667
205	0xbfe10b2280000000	-0.532609224319458
206	0x3fe2ee1c20000000	0.5915661454200745
207	0x3fe29b50a0000000	0.5814593434333801
208	0x3fd4207ec0000000	0.3144833445549011
209	0xbfd61425c0000000	-0.3449797034263611
210	0x3fb509a000000000	0.08217811584472656
211	0xbfd50a1ee0000000	-0.32874271273612976
212	0xbfdb48dfc0000000	-0.426322877407074
213	0x3fca9cd180000000	0.2079107165336609
214	0xbfe5ba4060000000	-0.6789857745170593
215	0x3fdfe9e1c0000000	0.4986500144004822
216	0x3f9e946800000000	0.02986299991607666
217	0x3fce877280000000	0.23850852251052856
218	0x3fe4d7e2e0000000	0.6513532996177673
219	0xbfde816500000000	-0.47664761543273926
220	0xbfc2c6c900000000	-0.1466914415359497
221	0x3fb06ea800000000	0.06418848037719727
222	0x3fbec3d100000000	0.12017542123794556
223	0x3fb3d2f000000000	0.0774374008178711
224	0xbfc1a8a680000000	-0.1379593014717102
225	0xbfc24e7500000000	-0.14301931858062744
226	0x3fd84910c0000000	0.37945955991744995
227	0xbfc5bb8d80000000	-0.16978615522384644
228	0xbfc5d8ee00000000	-0.17068266868591309
229	0x3fe39871a0000000	0.6123588681221008
230	0xbfa8b2c000000000	-0.04823875427246094
231	0xbfe2033c80000000	-0.5628950595855713
232	0x3faefc0c00000000	0.06051671504974365
233	0x3fdc9980c0000000	0.4468690752983093
234	0xbfc075cb00000000	-0.1285947561264038
235	0x3fd4a46740000000	0.32253438234329224
236	0xbfcc8176c0000000	-0.22270092368125916
237	0x3fd727acc0000000	0.3617965579032898
238	0xbfd44d5100000000	-0.3172190189361572
239	0x3fd7e08c40000000	0.373080313205719
240	0x3fe1591b20000000	0.5421271920204163
241	0xbfe37cbe20000000	-0.6089773774147034
242	0xbfe1314f40000000	-0.5372692346572876
243	0xbfbfa88400000000	-0.12366509437561035
244	0x3fd64ff6c0000000	0.3486306071281433
245	0xbfd9945d80000000	-0.399680495262146
246	0xbfd0de7180000000	-0.263576865196228
247	0xbfe2348800000000	-0.5689125061035156
248	0x3fdc109cc0000000	0.43851393461227417
249	0x3fa6630600000000	0.043724238872528076
250	0x3fd4d4eb40000000	0.32549554109573364
251	0x3fd19ad600000000	0.27507543563842773
252	0xbf8b835000000000	-0.013434052467346191
253	0x3fe5431a60000000	0.6644412875175476
254	0x3fe6883d20000000	0.7041307091712952
255	0xbfe20b6660000000	-0.563891589641571

encoder_layer.linear1.bias f8 [2048]
0	0x3fc2c99e80000000	0.1467779278755188
1	0xbfe498bea0000000	-0.6436455845832825
2	0xbfdda5c8c0000000	-0.46324366331100464
3	0x3fc6caff00000000	0.17806994915008545
4	0x3fa0510c00000000	0.0318683385848999
5	0xbfe6000620000000	-0.687502920627594
6	0xbfcba2d740000000	-0.2159070074558258
7	0xbfe484ca00000000	-0.641209602355957
8	0xbf9bbfec00000000	-0.027099311351776123
9	0xbfe0504100000000	-0.5097966194152832
10	0xbfe06a8ac0000000	-0.5130056142807007
11	0xbfaa4c2800000000	-0.05136227607727051
12	0xbfc05eb200000000	-0.12788987159729004
13	0x3fc2fa2f80000000	0.14826005697250366
14	0x3fd5d5f2c0000000	0.3411833643913269
15	0xbfe1bf9b60000000	-0.5546395182609558
16	0xbfc55c2180000000	-0.16687411069869995
17	0x3fb9227300000000	0.09818190336227417
18	0xbfe524e040000000	-0.660751461982727
19	0xbfb7dc1b00000000	-0.09320229291915894
20	0x3fd3e490c0000000	0.31082552671432495
21	0xbf9bd09800000000	-0.027162909507751465
22	0xbfe4c2f0c0000000	-0.6487964391708374
23	0x3fe0d336a0000000	0.5257828831672668
24	0xbfc231dc80000000	-0.14214664697647095
25	0xbfd2a2dc40000000	-0.2911902070045471
26	0x3fd8e89cc0000000	0.38919752836227417
27	0x3fe29f0aa0000000	0.5819142460823059
28	0x3fe2505d60000000	0.5723101496696472
29	0x3fc96e6900000000	0.19868195056915283
30	0xbfc05d3000000000	-0.12784385681152344
31	0xbfd5c397c0000000	-0.34006303548812866
32	0xbfc6d21400000000	-0.17828607559204102
33	0x3fe2678ba0000000	0.5751398205757141
34	0xbfd98aaa20000000	-0.39908841252326965
35	0x3fe4defbe0000000	0.6522197127342224
36	0x3fe13c2e60000000	0.5385963320732117
37	0x3fe22b7260000000	0.5678035616874695
38	0x3fc3493f80000000	0.15067285299301147
39	0xbfc5b74100000000	-0.1696549654006958
40	0xbfd936c320000000	-0.3939674198627472
41	0x3fdd0e7cc0000000	0.4540092349052429
42	0x3fdd6349c0000000	0.45918506383895874
43	0x3fa93a7800000000	0.04927420616149902
44	0x3fe5329560000000	0.6624247431755066
45	0x3fd4696dc0000000	0.3189348578453064
46	0xbfe3f6fce0000000	-0.6238998770713806
47	0xbfc631dd00000000	-0.17339670658111572
48	0xbfc482c480000000	-0.16024070978164673
49	0x3fb4367e00000000	0.0789564847946167
50	0xbfe3549b00000000	-0.6040778160095215
51	0x3fc973b200000000	0.19884324073791504
52	0x3fd21df040000000	0.28307729959487915
53	0xbfe321d6a0000000	-0.5978806614875793
54	0x3fbf4e1100000000	0.12228494882583618
55	0xbfcedf79c0000000	-0.2411949336528778
56	0x3fddc9bd40000000	0.46543818712234497
57	0xbfc95fb000000000	-0.19823265075683594
58	0x3fcd11f900000000	0.22711098194122314
59	0xbfd9259d00000000	-0.39292073249816895
60	0x3fe5ada3e0000000	0.6774463057518005
61	0xbfd617efe0000000	-0.345210999250412
62	0xbfcc384180000000	-0.22046679258346558
63	0xbfd14339a0000000	-0.2697280943393707
64	0xbfe0bff9e0000000	-0.523434579372406
65	0x3fca48a080000000	0.2053413987159729
66	0xbfc6da7980000000	-0.17854231595993042
67	0x3fd7b7c7c0000000	0.37059205770492554
68	0xbfd2f9f520000000	-0.29650619626045227
69	0x3fd88a8ac0000000	0.38345593214035034
70	0xbfe0809900000000	-0.5156979560852051
71	0x3fe4e6b4a0000000	0.6531623005867004
72	0x3fe5733920000000	0.6703153252601624
73	0x3fe3fb1ce0000000	0.6244034171104431
74	0xbfe11c9ac0000000	-0.5347417593002319
75	0x3fe1a97fa0000000	0.5519407391548157
76	0xbf6e042000000000	-0.003664076328277588
77	0x3fda837640000000	0.41427379846572876
78	0xbfe37c0040000000	-0.6088868379592896
79	0x3fdba89640000000	0.43216472864151
80	0xbfd75562a0000000	-0.3645865023136139
81	0xbfe10b6d00000000	-0.5326447486877441
82	0xbfd7b14c40000000	-0.3701964020729065
83	0xbfd2a64ca0000000	-0.29140010476112366
84	0xbfe5044c40000000	-0.656774640083313
85	0xbfe016fe00000000	-0.5028066635131836
86	0xbfd59766c0000000	-0.3373658061027527
87	0x3fa3c9fe00000000	0.038650453090667725
88	0x3fc909a500000000	0.19560682773590088
89	0x3faef51000000000	0.06046342849731445
90	0x3fdda618c0000000	0.46326273679733276
91	0x3fb4c34700000000	0.08110469579696655
92	0xbfe1386dc0000000	-0.5381382703781128
93	0x3fd7270940000000	0.3617575764656067
94	0xbfa7364000000000	-0.04533576965332031
95	0x3fdc093ec0000000	0.4380642771720886
96	0xbfe43429c0000000	-0.631367564201355
97	0x3fe06c1160000000	0.5131918787956238
98	0x3fdad5e840000000	0.41930586099624634
99	0x3fe6120de0000000	0.6897038817405701
100	0xbfd9f85460000000	-0.4057818353176117
101	0x3fd22f6880000000	0.2841435670852661
102	0x3fda727940000000	0.41323691606521606
103	0x3fd589e140000000	0.3365405201911926
104	0x3fe61c6620000000	0.6909666657447815
105	0x3fda23e540000000	0.40844088792800903
106	0x3fc5e64d00000000	0.1710907220840454
107	0xbfdf9c0ee0000000	-0.49390003085136414
108	0x3fdddf00c0000000	0.4667360186576843
109	0x3fd941fcc0000000	0.3946525454521179
110	0xbf837a1000000000	-0.009510159492492676
111	0xbfa6a77e00000000	-0.0442466139793396
112	0x3fe3766020000000	0.6082001328468323
113	0x3fd744f9c0000000	0.3635849356651306
114	0xbfd22739e0000000	-0.2836441695690155
115	0xbfe0f31640000000	-0.52967369556427
116	0x3fbfd70d00000000	0.12437516450881958
117	0xbfc6d23c00000000	-0.17829084396362305
118	0x3f817bf000000000	0.0085371732711792
119	0x3fe5adf660000000	0.6774856448173523
120	0x3fd10334c0000000	0.2658206820487976
121	0x3fd1e023c0000000	0.2793053984642029
122	0x3fc1d51e80000000	0.1393163800239563
123	0xbfb3efcb00000000	-0.0778777003288269
124	0xbf9632d000000000	-0.02167820930480957
125	0x3f87fa8800000000	0.011708319187164307
126	0xbfb4869e00000000	-0.08017909526824951
127	0x3fd03a3200000000	0.2535519599914551
128	0x3fe4826220000000	0.6409159302711487
129	0xbfd3f82fa0000000	-0.3120230734348297
130	0xbfe2e54d80000000	-0.5904910564422607
131	0xbfa3cafe00000000	-0.038658082485198975
132	0x3fe29624a0000000	0.5808280110359192
133	0x3fe090fce0000000	0.5176987051963806
134	0xbfdbda5bc0000000	-0.43520253896713257
135	0x3fd75c5440000000	0.3650103211402893
136	0x3f95e11000000000	0.021366357803344727
137	0x3fe4175420000000	0.6278477311134338
138	0xbfe0544b40000000	-0.5102897882461548
139	0xbf9cb74400000000	-0.028042852878570557
140	0xbfe5fd23e0000000	-0.6871508955955505
141	0xbfb1c6fa00000000	-0.06944239139556885
142	0x3fdfcb1dc0000000	0.49677222967147827
143	0x3fdc2ab540000000	0.44010668992996216
144	0x3fdff1d5c0000000	0.49913543462753296
145	0xbfe13b06a0000000	-0.5384553074836731
146	0xbfd94bb020000000	-0.39524462819099426
147	0x3fe10163a0000000	0.531419575214386
148	0xbfbc5d7600000000	-0.110801100730896
149	0x3fbfdc3c00000000	0.12445425987243652
150	0xbfac257400000000	-0.05497324466705322
151	0xbfab82a600000000	-0.05373114347457886
152	0x3fde9fcbc0000000	0.47850316762924194
153	0x3fd86b91c0000000	0.38156551122665405
154	0x3fc4444180000000	0.15833300352096558
155	0xbfdd58f880000000	-0.45855534076690674
156	0xbfe2dca0e0000000	-0.5894321799278259
157	0xbfe38f9320000000	-0.6112762093544006
158	0xbfe10fc1a0000000	-0.5331733822822571
159	0xbfdd5bd340000000	-0.4587295651435852
160	0xbfca3a7900000000	-0.20490944385528564
161	0xbfdc0ec340000000	-0.4384010434150696
162	0xbf9a43c000000000	-0.025649070739746094
163	0xbfe38da480000000	-0.6110403537750244
164	0xbfd2b88d80000000	-0.29251420497894287
165	0x3fd9f430c0000000	0.4055292010307312
166	0xbfcfd59e40000000	-0.2487066090106964
167	0xbfe6098da0000000	-0.6886661648750305
168	0xbfcddde1c0000000	-0.2333337962627411
169	0x3fdaef1cc0000000	0.42084425687789917
170	0xbfda138900000000	-0.4074423313140869
171	0x3fd4e24740000000	0.326310932636261
172	0xbfc7bbf900000000	-0.18542397022247314
173	0x3fd57adb40000000	0.335623562335968
174	0x3fe1dbd5e0000000	0.5580853819847107
175	0xbfe3263240000000	-0.5984126329421997
176	0x3fd98323c0000000	0.3986291289329529
177	0x3fd65407c0000000	0.34887880086898804
178	0xbfe21da6c0000000	-0.5661195516586304
179	0x3fe45fea60000000	0.6367084383964539
180	0xbfd6c7b1e0000000	-0.3559384047985077
181	0xbfb8625000000000	-0.09525012969970703
182	0xbfdc0f5d20000000	-0.43843773007392883
183	0xbfd8e4cee0000000	-0.38896533846855164
184	0x3fd85a3e40000000	0.3805080056190491
185	0xbfc9c08680000000	-0.20118790864944458
186	0xbfd7ed3e00000000	-0.3738551139831543
187	0xbfe439b540000000	-0.6320444345474243
188	0xbfe0448920000000	-0.5083661675453186
189	0x3fdf606cc0000000	0.4902603030204773
190	0x3fc9e0df80000000	0.2021750807762146
191	0xbfdc56e9a0000000	-0.4428047239780426
192	0x3fe053cb20000000	0.51022869348526
193	0xbfd00c65e0000000	-0.25075671076774597
194	0x3fe47bf3e0000000	0.6401309370994568
195	0x3fe060a5a0000000	0.5117977261543274
196	0xbfdf190080000000	-0.48590099811553955
197	0xbfdd0b6620000000	-0.45382073521614075
198	0x3fd5d48940000000	0.3410971760749817
199	0xbfb3738500000000	-0.07598143815994263
200	0xbfd7bf5620000000	-0.3710532486438751
201	0x3fc226b680000000	0.14180642366409302
202	0xbf81384800000000	-0.008408129215240479
203	0xbfdea344c0000000	-0.47871512174606323
204	0xbfbc46b100000000	-0.11045366525650024
205	0x3fa05af200000000	0.03194385766983032
206	0x3fdc7f15c0000000	0.44525665044784546
207	0xbfe6512da0000000	-0.697409451007843
208	0xbfd65cd000000000	-0.3494148254394531
209	0x3fc3623800000000	0.15143489837646484
210	0x3fcf312f00000000	0.2436884641647339
211	0xbfdfb39f80000000	-0.4953383207321167
212	0xbfdc2f5ae0000000	-0.44039031863212585
213	0xbfc988d500000000	-0.19948828220367432
214	0x3f70629000000000	0.004000246524810791
215	0x3fdd7ded40000000	0.46081095933914185
216	0xbfe1a91200000000	-0.5518884658813477
217	0x3fe3e12820000000	0.6212349534034729
218	0xbfe44b6080000000	-0.6342012882232666
219	0xbfe13f3fa0000000	-0.5389707684516907
220	0x3fd754c4c0000000	0.36454886198043823
221	0x3fe5070460000000	0.6571065783500671
222	0x3fd7d4edc0000000	0.3723711371421814
223	0x3fe4eea1e0000000	0.6541299223899841
224	0xbfe3685b80000000	-0.6064889430999756
225	0x3fe313e520000000	0.5961785912513733
226	0x3fe2626ae0000000	0.574513852596283
227	0xbfbc0fbb00000000	-0.1096150279045105
228	0xbfb52ae500000000	-0.08268576860427856
229	0x3fd8035ac0000000	0.37520474195480347
230	0x3fb007ff00000000	0.06262201070785522
231	0x3fd583e7c0000000	0.3361758589744568
232	0x3fb35d4400000000	0.07564187049865723
233	0xbfdbec23c0000000	-0.4362878203392029
234	0x3f90269c00000000	0.01577228307723999
235	0x3fe45525a0000000	0.6353939175605774
236	0x3fb88c5b00000000	0.09589165449142456
237	0x3fccd88b00000000	0.22535836696624756
238	0x3fb9ee0400000000	0.1012880802154541
239	0xbfe0edea00000000	-0.5290422439575195
240	0x3fe4c20b20000000	0.648686945438385
241	0xbfe67de940000000	-0.7028700113296509
242	0xbfd453fe60000000	-0.31762656569480896
243	0xbfda828160000000	-0.41421541571617126
244	0xbfc78ea400000000	-0.18404054641723633
245	0xbfdec9ffc0000000	-0.4810790419578552
246	0x3fe45769e0000000	0.6356706023216248
247	0x3fe076d7e0000000	0.5145072340965271
248	0xbfdc5f5160000000	-0.4433177411556244
249	0xbf94d4cc00000000	-0.020343005657196045
250	0x3fe18acaa0000000	0.5481923222541809
251	0x3fbd642d00000000	0.11480981111526489
252	0x3fe16e9060000000	0.5447465777397156
253	0x3fe13beae0000000	0.538564145565033
254	0xbfd653b280000000	-0.34885847568511963
255	0x3fbaee0100000000	0.10519415140151978

encoder_layer.linear2.weight f8 [2, 2048]
0	0xbf499cd400000000	-0.0007816348224878311
1	0xbf91dd6580000000	-0.0174461230635643
2	0xbf815df4c0000000	-0.00847998820245266
3	0xbf84b58fe0000000	-0.010111927054822445
4	0x3f96425ae0000000	0.02173749916255474
5	0x3f6bea2d00000000	0.0034075621515512466
6	0x3f873a8140000000	0.011342057958245277
7	0xbf85f4bfc0000000	-0.01072072796523571
8	0x3f71671d00000000	0.004248727113008499
9	0xbf95e79540000000	-0.021391231566667557
10	0x3f9636c160000000	0.02169325016438961
11	0xbf8b7b4200000000	-0.013418689370155334
12	0x3f966853e0000000	0.021882353350520134
13	0xbf59f1f200000000	-0.0015835631638765335
14	0xbf95b39240000000	-0.021192822605371475
15	0x3f8cad3540000000	0.014002243056893349
16	0xbf951860c0000000	-0.020600806921720505
17	0x3f9364f560000000	0.01893981359899044
18	0x3f928497e0000000	0.018083928152918816
19	0xbf64941700000000	-0.002512020990252495
20	0x3f8d856140000000	0.014414558187127113
21	0x3f9619dae0000000	0.02158300392329693
22	0xbf86c2d6c0000000	-0.011113813146948814
23	0xbf81b277c0000000	-0.008641181513667107
24	0xbf5b2df400000000	-0.0016589052975177765
25	0xbf955e9440000000	-0.020868603140115738
26	0x3f908ae6a0000000	0.01615486480295658
27	0xbf75281680000000	-0.005165183916687965
28	0xbf8c153340000000	-0.013712311163544655
29	0xbf96200700000000	-0.021606549620628357
30	0xbf709c4680000000	-0.0040552858263254166
31	0xbf90009d60000000	-0.015627345070242882
32	0x3f8ffc4dc0000000	0.01561794988811016
33	0xbf36df6800000000	-0.0003490094095468521
34	0x3f67e90b00000000	0.0029187407344579697
35	0xbf5b9fac00000000	-0.0016860179603099823
36	0x3f7a6deb80000000	0.006452484056353569
37	0xbf65d10000000000	-0.002663135528564453
38	0x3f60dff300000000	0.00205991230905056
39	0x3f7a472e80000000	0.006415540352463722
40	0xbf95553560000000	-0.020832857117056847
41	0x3f761ab280000000	0.005396554246544838
42	0xbf89b438e0000000	-0.0125507777556777
43	0xbf57299c00000000	-0.001413729041814804
44	0xbf83b26460000000	-0.009617599658668041
45	0xbf81f41c20000000	-0.008766383863985538
46	0xbf87b3f040000000	-0.011573674157261848
47	0x3f904828e0000000	0.0159002672880888
48	0xbf730bb400000000	-0.004649832844734192
49	0xbf70845480000000	-0.004032449796795845
50	0x3f792d6a00000000	0.006146825850009918
51	0xbf914fdf60000000	-0.01690625213086605
52	0xbf44382000000000	-0.0006170421838760376
53	0x3f8d5006c0000000	0.01431279443204403
54	0xbf8988a4e0000000	-0.012467659078538418
55	0x3f8af1cf40000000	0.013156527653336525
56	0x3f85742dc0000000	0.01047549955546856
57	0x3f80ba83c0000000	0.00816824845969677
58	0xbf862933a0000000	-0.010820773430168629
59	0x3f91258ca0000000	0.01674480177462101
60	0x3f64828000000000	0.002503633499145508
61	0x3f9678a0a0000000	0.021944532170891762
62	0xbf831e47e0000000	-0.009335099719464779
63	0x3f802f32c0000000	0.007902523502707481
64	0x3f95e6e060000000	0.02138853631913662
65	0xbf8c08b440000000	-0.013688476756215096
66	0x3f92e5fbe0000000	0.018455443903803825
67	0x3f908937a0000000	0.016148442402482033
68	0x3f8a6614c0000000	0.012890016660094261
69	0xbf954f2c40000000	-0.020809832960367203
70	0x3f87f767c0000000	0.011702356860041618
71	0xbf7dfda580000000	-0.007321974262595177
72	0x3f95291de0000000	0.02066466026008129
73	0x3f8d3037c0000000	0.014252124354243279
74	0xbf894f7c00000000	-0.012358635663986206
75	0xbf75f48d00000000	-0.005360174924135208
76	0x3f22bb8000000000	0.00014291703701019287
77	0x3f809a0340000000	0.008106255903840065
78	0x3f90a43860000000	0.016251450404524803
79	0x3f813668c0000000	0.008404558524489403
80	0xbf71fe6d00000000	-0.00439302995800972
81	0x3f943cd660000000	0.01976332627236843
82	0xbf52a88400000000	-0.0011388100683689117
83	0xbf8253bc80000000	-0.008948776870965958
84	0x3f7a304e80000000	0.006393725052475929
85	0xbf8bf18480000000	-0.013644251972436905
86	0x3f7fe73f80000000	0.007788894698023796
87	0xbf808c85c0000000	-0.008080525323748589
88	0xbf968e8980000000	-0.022028110921382904
89	0x3f640e3b00000000	0.0024481918662786484
90	0x3f6e2ac000000000	0.0036824941635131836
91	0x3f837ab140000000	0.00951136089861393
92	0xbf44f12800000000	-0.0006390996277332306
93	0x3f8eacc9c0000000	0.01497800461947918
94	0xbf5a6a0200000000	-0.0016121882945299149
95	0xbf7ec33780000000	-0.007510391995310783
96	0xbf87dd6920000000	-0.011652776040136814
97	0xbf306fa000000000	-0.000250793993473053
98	0x3f8f1f0540000000	0.015195885673165321
99	0x3f7848d300000000	0.0059288255870342255
100	0xbf94a926a0000000	-0.020176509395241737
101	0x3f85f6bdc0000000	0.010724527761340141
102	0xbf86e94d80000000	-0.011187177151441574
103	0xbf6d8d5d00000000	-0.003607446327805519
104	0xbf900e29c0000000	-0.015679027885198593
105	0x3f7b13bb80000000	0.00661061517894268
106	0x3f9303b460000000	0.018568819388747215
107	0x3f8bcd29c0000000	0.013574911281466484
108	0xbf93a939c0000000	-0.01920023187994957
109	0x3f94f0baa0000000	0.020449558272957802
110	0xbf65019600000000	-0.0025642327964305878
111	0x3f796aad00000000	0.006205249577760696
112	0x3f70a9f400000000	0.004068329930305481
113	0xbf616fdc00000000	-0.0021285340189933777
114	0xbf81bf9a00000000	-0.008666232228279114
115	0xbf4774ec00000000	-0.0007158424705266953
116	0xbf41645000000000	-0.0005307570099830627
117	0x3f7a4bb600000000	0.006419859826564789
118	0xbf671fd800000000	-0.0028228014707565308
119	0xbf58a3d200000000	-0.001503901556134224
120	0xbf934f8be0000000	-0.018858132883906364
121	0xbf94433f00000000	-0.019787773489952087
122	0xbf82ef01c0000000	-0.009244931861758232
123	0xbf8f490800000000	-0.015276014804840088
124	0x3f7ae58280000000	0.0065665338188409805
125	0xbf878c1240000000	-0.011497633531689644
126	0xbf936bb000000000	-0.018965482711791992
127	0x3f86552340000000	0.010904574766755104
128	0x3f802f2f40000000	0.007902497425675392
129	0xbf9501da00000000	-0.020514875650405884
130	0xbf8aaf7420000000	-0.013029963709414005
131	0xbf91615960000000	-0.016972919926047325
132	0x3f36ac7800000000	0.00034597329795360565
133	0xbf8f5a34c0000000	-0.015308773145079613
134	0x3f94e3b720000000	0.0203999150544405
135	0x3f90491620000000	0.01590380258858204
136	0xbf7fbd9a00000000	-0.007749177515506744
137	0x3f62030500000000	0.0021987054497003555
138	0xbf820b0320000000	-0.008810066618025303
139	0xbf94a6b8c0000000	-0.020167242735624313
140	0x3f9476d560000000	0.019984563812613487
141	0x3f2f06d000000000	0.00023671425879001617
142	0xbf8c33fd00000000	-0.01377103477716446
143	0xbf8ce601a0000000	-0.014110577292740345
144	0xbf64e2bd00000000	-0.002549523487687111
145	0x3f8b3cefc0000000	0.013299820944666862
146	0xbf8b4b30a0000000	-0.013327007181942463
147	0x3f691bb900000000	0.003064977005124092
148	0xbf8b229bc0000000	-0.013249604031443596
149	0xbf86d16ae0000000	-0.011141619645059109
150	0x3f91a614a0000000	0.017235109582543373
151	0xbf86a11200000000	-0.011049404740333557
152	0x3f8611a2c0000000	0.010775825008749962
153	0xbf35f1a000000000	-0.00033483654260635376
154	0xbf84be7680000000	-0.01012890413403511
155	0x3f7ea9d100000000	0.007486168295145035
156	0x3f927073a0000000	0.01800709404051304
157	0xbf8c0cdc20000000	-0.013696403242647648
158	0xbf85e889a0000000	-0.010697436518967152
159	0xbf67afa400000000	-0.0028913691639900208
160	0x3f7cc27200000000	0.007021375000476837
161	0xbf85688940000000	-0.010453293099999428
162	0x3f9219d2e0000000	0.017676634714007378
163	0x3f96977ca0000000	0.022062251344323158
164	0xbf8d3a3140000000	-0.014271149411797523
165	0xbf6c86b600000000	-0.003482203930616379
166	0x3f8ed84fc0000000	0.015061018988490105
167	0xbf6dd59400000000	-0.003641881048679352
168	0x3f82e8fbc0000000	0.009233443066477776
169	0xbf815e8e80000000	-0.008481133729219437
170	0xbf32ea0800000000	-0.00028860755264759064
171	0x3f8cd521c0000000	0.014078391715884209
172	0xbf6a32bd00000000	-0.003198022022843361
173	0x3f916323e0000000	0.016979752108454704
174	0x3f8137d3c0000000	0.008407263085246086
175	0xbf7ffc7e00000000	-0.007809154689311981
176	0xbf7e0310c0000000	-0.007327142171561718
177	0x3f7c764580000000	0.006948729977011681
178	0xbf92cf0360000000	-0.018367817625403404
179	0xbf6c1cdc00000000	-0.0034317299723625183
180	0x3f8fa76c40000000	0.015456052497029305
181	0x3f8574bb40000000	0.010476553812623024
182	0x3f9490c560000000	0.020083507522940636
183	0xbf8881cae0000000	-0.011966309510171413
184	0x3f934fb960000000	0.018858810886740685
185	0xbf60f0e100000000	-0.002067985013127327
186	0x3f7d64fc80000000	0.007176386192440987
187	0x3f92966b60000000	0.01815192960202694
188	0x3f82e3e1c0000000	0.009223712608218193
189	0xbf876f1200000000	-0.011442318558692932
190	0xbf907d1940000000	-0.01610221341252327
191	0x3f96336ee0000000	0.021680576726794243
192	0xbf92c3e780000000	-0.01832544058561325
193	0xbf6cd9f400000000	-0.0035218968987464905
194	0x3f8b01d9c0000000	0.013187123462557793
195	0x3f8a3bd6c0000000	0.012809446081519127
196	0x3f9055a160000000	0.015951653942465782
197	0xbf93dfaf40000000	-0.019407976418733597
198	0x3f74f8e200000000	0.005120165646076202
199	0xbf926d5180000000	-0.017995141446590424
200	0x3f61a61a00000000	0.0021543987095355988
201	0x3f8cafc140000000	0.014007100835442543
202	0x3f80dff600000000	0.00823967158794403
203	0x3f86703140000000	0.010956177487969398
204	0xbf91b47780000000	-0.017289988696575165
205	0x3f94b386e0000000	0.020216090604662895
206	0x3f594c5400000000	0.0015440769493579865
207	0xbf7ab98040000000	-0.006524563767015934
208	0xbf847025e0000000	-0.009979530237615108
209	0x3f7c616000000000	0.006928801536560059
210	0x3f8fbab3c0000000	0.015492824837565422
211	0x3f94a94ba0000000	0.02017706073820591
212	0x3f63c5e100000000	0.0024136919528245926
213	0xbf7be3f340000000	-0.00680918712168932
214	0xbf8ef42e00000000	-0.015114173293113708
215	0xbf949f1520000000	-0.020138101652264595
216	0xbf55d0a400000000	-0.001331482082605362
217	0xbf86732aa0000000	-0.010961850173771381
218	0xbf906f4900000000	-0.016049519181251526
219	0xbf934d18a0000000	-0.018848786130547523
220	0x3f93dd64e0000000	0.019399238750338554
221	0x3f815fbdc0000000	0.008483393117785454
222	0x3f8e83f5c0000000	0.014900131151080132
223	0xbf4eb90800000000	-0.000937584787607193
224	0xbf77659580000000	-0.005712112411856651
225	0xbf88c72160000000	-0.01209856104105711
226	0xbf7e4bed00000000	-0.007396627217531204
227	0xbf9087c960000000	-0.016142984852194786
228	0x3f78b30180000000	0.0060300882905721664
229	0x3f9635a0e0000000	0.021688951179385185
230	0xbf72232100000000	-0.004428032785654068
231	0x3f7dc00480000000	0.007263200357556343
232	0xbf95ea7120000000	-0.021402137354016304
233	0x3f85977240000000	0.010542767122387886
234	0xbf8d0f0740000000	-0.014188820496201515
235	0x3f9594b420000000	0.021075071766972542
236	0x3f94ce0260000000	0.020317113026976585
237	0x3f92b793a0000000	0.018278414383530617
238	0x3f870414c0000000	0.011238252744078636
239	0x3f9017fa20000000	0.015716465190052986
240	0xbf955b5c00000000	-0.02085632085800171
241	0xbf8d44ecc0000000	-0.014291619881987572
242	0xbf932632e0000000	-0.018700404092669487
243	0x3f89381cc0000000	0.012314056977629662
244	0xbf85d49620000000	-0.010659382678568363
245	0xbf94d14c40000000	-0.020329657942056656
246	0x3f8b79ec40000000	0.013416143134236336
247	0x3f83c3bc40000000	0.009650679305195808
248	0xbf80cb4e00000000	-0.008200272917747498
249	0xbf968e9be0000000	-0.02202838473021984
250	0xbf8afbbaa0000000	-0.013175447471439838
251	0x3f7ec0c080000000	0.007508041337132454
252	0x3f60bbe700000000	0.0020427238196134567
253	0xbf87e44660000000	-0.011665868572890759
254	0xbf91f41180000000	-0.017532609403133392
255	0xbf85a30e60000000	-0.010564911179244518

encoder_layer.linear2.bias f8 [2]
0	0x3f82e763c0000000	0.00923040322959423
1	0xbf81918ee0000000	-0.008578411303460598

encoder_layer.norm1.weight f8 [2]
0	0x3ff0000000000000	1.0
1	0x3ff0000000000000	1.0

encoder_layer.norm1.bias f8 [2]
0	0x0000000000000000	0.0
1	0x0000000000000000	0.0

encoder_layer.norm2.weight f8 [2]
0	0x3ff0000000000000	1.0
1	0x3ff0000000000000	1.0

encoder_layer.norm2.bias f8 [2]
0	0x0000000000000000	0.0
1	0x0000000000000000	0.0

transformer_encoder.layers.0.self_attn.in_proj_weight f8 [6, 2]
0	0xbfe77f3980000000	-0.7342803478240967
1	0xbfe3e10dc0000000	-0.6212223768234253
2	0x3f38340000000000	0.0003693103790283203
3	0x3fa42ac600000000	0.039388835430145264
4	0xbf88433000000000	-0.01184689998626709
5	0x3f96182400000000	0.02157646417617798
6	0x3fdada0940000000	0.4195578694343567
7	0x3fe67a3220000000	0.7024164795875549
8	0xbfca5f2980000000	-0.20602911710739136
9	0xbfc81cb100000000	-0.1883755922317505
10	0x3fc939f680000000	0.19708138704299927
11	0xbfeaf030c0000000	-0.8418201208114624

transformer_encoder.layers.0.self_attn.in_proj_bias f8 [6]
0	0x36eedf29759112c2	4.3260502750355703e-44
1	0xb77b99e82ca51313	-1.9802889063577942e-41
2	0x3406ba3b3f7dd858	4.5258678907543326e-58
3	0xb3fb1aaeb7e6644a	-2.698720447865206e-58
4	0x39232d9713f0fe24	1.8467825548363284e-33
5	0xb935534628df20ed	-4.107101323823183e-33

transformer_encoder.layers.0.self_attn.out_proj.weight f8 [2, 2]
0	0x3fb0698c00000000	0.06411051750183105
1	0xbfd3f99720000000	-0.3121087849140167
2	0xbfd40908a0000000	-0.31305137276649475
3	0x3fe0da7b20000000	0.5266700387001038

transformer_encoder.layers.0.self_attn.out_proj.bias f8 [2]
0	0x39396c990db99ff3	4.896524814642501e-33
1	0xb9396c990db99ff3	-4.896524814642501e-33

transformer_encoder.layers.0.linear1.weight f8 [2048, 2]
0	0x3fe468dae0000000	0.6377996802330017
1	0xbfe3370740000000	-0.600467324256897
2	0xbfd3f9a060000000	-0.3121109902858734
3	0xbf94c51800000000	-0.020283102989196777
4	0xbfd0b1b420000000	-0.26084616780281067
5	0x3fe66db8a0000000	0.7008937001228333
6	0x3fe5a474a0000000	0.6763251423835754
7	0xbfda6195c0000000	-0.41220611333847046
8	0x3fe13ff720000000	0.539058268070221
9	0x3fcfc1a880000000	0.2480974793434143
10	0x3fe543f3e0000000	0.6645449995994568
11	0x3fdd44c540000000	0.4573224186897278
12	0xbfc8bfc980000000	-0.19335287809371948
13	0xbfb126d000000000	-0.06699848175048828
14	0xbfd726f7c0000000	-0.3617534041404724
15	0x3fe08ebce0000000	0.5174240469932556
16	0xbfd45fb260000000	-0.31834086775779724
17	0xbfd37445e0000000	-0.3039717376232147
18	0xbfcdaf76c0000000	-0.23191723227500916
19	0xbfdab5c120000000	-0.417343407869339
20	0x3fe1f325a0000000	0.5609310269355774
21	0xbfd677f5c0000000	-0.3510717749595642
22	0xbfd2dbeee0000000	-0.2946736514568329
23	0x3fc5bccb00000000	0.1698240041732788
24	0x3fdbbd0f40000000	0.4334142804145813
25	0x3fd8e2c7c0000000	0.38884156942367554
26	0x3fd2457340000000	0.28548890352249146
27	0x3fd30701c0000000	0.2973026633262634
28	0xbfd4a26220000000	-0.32241109013557434
29	0x3fe0cc6420000000	0.5249500870704651
30	0x3fdf0d40c0000000	0.4851838946342468
31	0xbfdc92c120000000	-0.446457177400589
32	0xbfe0f2fb80000000	-0.5296609401702881
33	0xbfe283e760000000	-0.5786015391349792
34	0xbfd1e84460000000	-0.27980145812034607
35	0x3f61274000000000	0.0020939111709594727
36	0xbfcdce7dc0000000	-0.232864111661911
37	0xbfd6c82620000000	-0.35596612095832825
38	0x3fe1eb8420000000	0.5599995255470276
39	0xbfe53d9220000000	-0.6637659668922424
40	0x3fd4caa6c0000000	0.3248688578605652
41	0xbfe32ab100000000	-0.598961353302002
42	0x3fdd5ec640000000	0.4589095711708069
43	0x3fd8961e40000000	0.3841624855995178
44	0xbfdf576ba0000000	-0.4897107183933258
45	0x3fcbd34180000000	0.21738451719284058
46	0x3fe2c99a20000000	0.5871096253395081
47	0x3fc73e5c80000000	0.18159061670303345
48	0x3fd4376d40000000	0.31588298082351685
49	0x3fde0fa0c0000000	0.4697038531303406
50	0xbfb4239d00000000	-0.07866841554641724
51	0xbfe2390c60000000	-0.5694639086723328
52	0x3fddb87640000000	0.46438366174697876
53	0x3fdae683c0000000	0.42031949758529663
54	0xbfcd7d9d00000000	-0.23039591312408447
55	0xbfd96aa0c0000000	-0.3971330523490906
56	0x3fbe6a4a00000000	0.11880934238433838
57	0x3fd8a49940000000	0.3850463032722473
58	0xbfe4ae95c0000000	-0.6463116407394409
59	0xbfba09ec00000000	-0.10171389579772949
60	0xbfdf612180000000	-0.4903033971786499
61	0xbfe6071d20000000	-0.6883683800697327
62	0xbfbd9f3d00000000	-0.1157110333442688
63	0xbfc4e95a00000000	-0.16337132453918457
64	0xbfaa3f2a00000000	-0.05126315355300903
65	0xbf7c07c000000000	-0.0068433284759521484
66	0xbfd0a5a6a0000000	-0.2601105272769928
67	0xbfd35b6aa0000000	-0.3024546205997467
68	0x3fd9c74dc0000000	0.40278953313827515
69	0xbfe18b7f20000000	-0.5482783913612366
70	0x3fba1fcd00000000	0.10204774141311646
71	0xbfd9576f20000000	-0.39596155285835266
72	0xbfa7883000000000	-0.04596090316772461
73	0x3fc9bb0c00000000	0.2010207176208496
74	0xbfc0d00100000000	-0.13134777545928955
75	0xbfc4e62c80000000	-0.163274347782135
76	0xbfddc5a320000000	-0.46518781781196594
77	0x3fe5f9d560000000	0.6867472529411316
78	0xbfa653c600000000	-0.043607890605926514
79	0x3fe2ee6860000000	0.5916025042533875
80	0x3fe0a711e0000000	0.5203942656517029
81	0xbfd8d02ee0000000	-0.3877064883708954
82	0x3fc7129500000000	0.18025457859039307
83	0xbfda7914c0000000	-0.41364020109176636
84	0xbfdb66fb20000000	-0.4281604588031769
85	0x3fd67fafc0000000	0.3515433669090271
86	0x3fb8a14c00000000	0.09621119499206543
87	0x3fdd200dc0000000	0.45508140325546265
88	0xbf90023c00000000	-0.01563352346420288
89	0x3fc8ae8e00000000	0.1928269863128662
90	0xbfe0cb4460000000	-0.5248128771781921
91	0x3fbe21de00000000	0.11770427227020264
92	0xbfc407e700000000	-0.15649116039276123
93	0x3fd7415d40000000	0.3633645176887512
94	0x3fb387b100000000	0.07628923654556274
95	0x3fe4bfef60000000	0.6484295725822449
96	0xbfe42b4360000000	-0.6302811503410339
97	0x3fe544fe60000000	0.6646720767021179
98	0xbfa63df200000000	-0.04344135522842407
99	0x3fe0d6cbe0000000	0.5262202620506287
100	0xbfc8114100000000	-0.1880265474319458
101	0x3fdb79ca40000000	0.4293084740638733
102	0x3fb488ce00000000	0.08021247386932373
103	0xbfe48773a0000000	-0.6415346264839172
104	0xbfba6fa600000000	-0.10326611995697021
105	0x3fe68b48a0000000	0.7045024037361145
106	0x3fdb02e1c0000000	0.4220508933067322
107	0xbfe47667c0000000	-0.6394537687301636
108	0x3fb01f5700000000	0.06297820806503296
109	0x3fc2085b00000000	0.14087998867034912
110	0x3fad3f0600000000	0.057121455669403076
111	0x3fa04a6a00000000	0.031817734241485596
112	0x3fe501f120000000	0.6564870476722717
113	0x3fcf13c880000000	0.24279123544692993
114	0xbfbc815300000000	-0.11134833097457886
115	0x3fce997380000000	0.23905795812606812
116	0xbfbcb65600000000	-0.11215722560882568
117	0xbfd89e4840000000	-0.3846607804298401
118	0x3fe1cef0e0000000	0.5565113425254822
119	0xbfc310d000000000	-0.14895057678222656
120	0x3fe1a437a0000000	0.551296055316925
121	0x3fc5bf4380000000	0.16989940404891968
122	0x3fc1dd9a00000000	0.13957524299621582
123	0xbfe4e9ef20000000	-0.6535564064979553
124	0xbf78d69000000000	-0.006063997745513916
125	0x3fbeaf3a00000000	0.11986124515533447
126	0x3fbf8b3d00000000	0.1232183575630188
127	0xbfe06e4120000000	-0.513458788394928
128	0xbfe0dcf120000000	-0.5269704461097717
129	0x3fe3f283e0000000	0.623353898525238
130	0x3fc1857f00000000	0.13688647747039795
131	0xbf88db0800000000	-0.012136518955230713
132	0xbf979ba800000000	-0.02305471897125244
133	0xbfbc73c300000000	-0.1111413836479187
134	0xbfcdb8dc80000000	-0.23220402002334595
135	0xbfe0100f00000000	-0.501960277557373
136	0x3fe6424660000000	0.6955901980400085
137	0xbfd3a56680000000	-0.3069702386856079
138	0xbfde982580000000	-0.4780362844467163
139	0x3fe1c71e20000000	0.5555563569068909
140	0xbfb2911000000000	-0.0725259780883789
141	0xbfd65c54a0000000	-0.34938541054725647
142	0xbfe25e8340000000	-0.5740371942520142
143	0x3fd31080c0000000	0.2978822588920593
144	0x3fde9b4ac0000000	0.47822827100753784
145	0xbf73fba000000000	-0.004878640174865723
146	0x3fb7db4200000000	0.09318935871124268
147	0x3fe0c2cea0000000	0.5237801671028137
148	0xbfd04e9480000000	-0.2547961473464966
149	0xbfcfdff700000000	-0.24902236461639404
150	0xbfc2665f80000000	-0.1437491774559021
151	0xbfca6e4700000000	-0.2064903974533081
152	0x3fe579c520000000	0.6711145043373108
153	0x3fb02cae00000000	0.06318175792694092
154	0xbf791d9000000000	-0.00613170862197876
155	0xbfd7ea7d40000000	-0.37368708848953247
156	0x3fe45bd6a0000000	0.6362107396125793
157	0x3f7e127000000000	0.00734180212020874
158	0xbfb8c93600000000	-0.09682023525238037
159	0xbfcad38740000000	-0.20958033204078674
160	0xbfc86c3480000000	-0.19080215692520142
161	0xbfdf35b400000000	-0.4876527786254883
162	0x3fe4bedc60000000	0.648298442363739
163	0xbfe52471a0000000	-0.6606987118721008
164	0xbfd71c1940000000	-0.3610900044441223
165	0x3fe1117520000000	0.5333810448646545
166	0x3fd13a60c0000000	0.2691881060600281
167	0xbfd4d79fe0000000	-0.32566067576408386
168	0x3fb4ff4f00000000	0.08202069997787476
169	0xbfe3ddfe40000000	-0.6208487749099731
170	0xbfd6443500000000	-0.3479130268096924
171	0xbfe51f8540000000	-0.6600977182388306
172	0xbfe53544a0000000	-0.6627524495124817
173	0x3fd2befa40000000	0.29290634393692017
174	0xbfd6d48fe0000000	-0.35672375559806824
175	0x3fd95b50c0000000	0.39619845151901245
176	0xbfe51225e0000000	-0.6584653258323669
177	0xbfd5a3e700000000	-0.33812880516052246
178	0xbfd3da0ae0000000	-0.31018325686454773
179	0x3fdcc9f9c0000000	0.4498276114463806
180	0xbfaa56de00000000	-0.05144399404525757
181	0xbfe220bc80000000	-0.5664961338043213
182	0xbfdcb826a0000000	-0.4487396776676178
183	0x3fd0b7eb00000000	0.26122546195983887
184	0x3f803f7800000000	0.007933557033538818
185	0x3fac78ba00000000	0.05560857057571411
186	0x3fb2dcab00000000	0.07367962598800659
187	0xbfa59a4800000000	-0.042192697525024414
188	0x3fd6dc6140000000	0.3572009205818176
189	0xbfbf960900000000	-0.12338310480117798
190	0x3fab47ea00000000	0.05328303575515747
191	0xbfdd0294c0000000	-0.45328253507614136
192	0x3fb48c5b00000000	0.08026665449142456
193	0x3fc296b500000000	0.1452242136001587
194	0xbfad607200000000	-0.0573764443397522
195	0x3fd4b898c0000000	0.32376688718795776
196	0xbfd9f42240000000	-0.40552574396133423
197	0x3fe4f2c5e0000000	0.6546353697776794
198	0x3fdecdedc0000000	0.4813188910484314
199	0x3fc21b2300000000	0.14145314693450928
200	0x3fe3116760000000	0.5958744883537292
201	0xbfc3502a80000000	-0.1508839726448059
202	0xbfd1b2b6a0000000	-0.2765327990055084
203	0xbfd95d8420000000	-0.3963327705860138
204	0x3fe1944760000000	0.5493504405021667
205	0xbfe10b2280000000	-0.532609224319458
206	0x3fe2ee1c20000000	0.5915661454200745
207	0x3fe29b50a0000000	0.5814593434333801
208	0x3fd4207ec0000000	0.3144833445549011
209	0xbfd61425c0000000	-0.3449797034263611
210	0x3fb509a000000000	0.08217811584472656
211	0xbfd50a1ee0000000	-0.32874271273612976
212	0xbfdb48dfc0000000	-0.426322877407074
213	0x3fca9cd180000000	0.2079107165336609
214	0xbfe5ba4060000000	-0.6789857745170593
215	0x3fdfe9e1c0000000	0.4986500144004822
216	0x3f9e946800000000	0.02986299991607666
217	0x3fce877280000000	0.23850852251052856
218	0x3fe4d7e2e0000000	0.6513532996177673
219	0xbfde816500000000	-0.47664761543273926
220	0xbfc2c6c900000000	-0.1466914415359497
221	0x3fb06ea800000000	0.06418848037719727
222	0x3fbec3d100000000	0.12017542123794556
223	0x3fb3d2f000000000	0.0774374008178711
224	0xbfc1a8a680000000	-0.1379593014717102
225	0xbfc24e7500000000	-0.14301931858062744
226	0x3fd84910c0000000	0.37945955991744995
227	0xbfc5bb8d80000000	-0.16978615522384644
228	0xbfc5d8ee00000000	-0.17068266868591309
229	0x3fe39871a0000000	0.6123588681221008
230	0xbfa8b2c000000000	-0.04823875427246094
231	0xbfe2033c80000000	-0.5628950595855713
232	0x3faefc0c00000000	0.06051671504974365
233	0x3fdc9980c0000000	0.4468690752983093
234	0xbfc075cb00000000	-0.1285947561264038
235	0x3fd4a46740000000	0.32253438234329224
236	0xbfcc8176c0000000	-0.22270092368125916
237	0x3fd727acc0000000	0.3617965579032898
238	0xbfd44d5100000000	-0.3172190189361572
239	0x3fd7e08c40000000	0.373080313205719
240	0x3fe1591b20000000	0.5421271920204163
241	0xbfe37cbe20000000	-0.6089773774147034
242	0xbfe1314f40000000	-0.5372692346572876
243	0xbfbfa88400000000	-0.12366509437561035
244	0x3fd64ff6c0000000	0.3486306071281433
245	0xbfd9945d80000000	-0.399680495262146
246	0xbfd0de7180000000	-0.263576865196228
247	0xbfe2348800000000	-0.5689125061035156
248	0x3fdc109cc0000000	0.43851393461227417
249	0x3fa6630600000000	0.043724238872528076
250	0x3fd4d4eb40000000	0.32549554109573364
251	0x3fd19ad600000000	0.27507543563842773
252	0xbf8b835000000000	-0.013434052467346191
253	0x3fe5431a60000000	0.6644412875175476
254	0x3fe6883d20000000	0.7041307091712952
255	0xbfe20b6660000000	-0.563891589641571
