Transformer-Time-Series-Forecasting-main/save_model/best_train_149.pth (torch, 259059 bytes, 38 tensors)

encoder_layer.self_attn.in_proj_weight f8 [6, 2]
0	0xbfdd70d380000000	-0.46001136302948
1	0x3fb0c30c00000000	0.0654761791229248
2	0x3fe6fff660000000	0.7187454104423523
3	0xbfc9f79a00000000	-0.20286870002746582
4	0x3fe671b5e0000000	0.7013806700706482
5	0x3fe495c420000000	0.6432819962501526
6	0xbfb83b3b00000000	-0.09465378522872925
7	0x3fe59b7720000000	0.675227701663971
8	0x3fcbebcb80000000	0.21813338994979858
9	0xbfd62782c0000000	-0.34616154432296753
10	0xbfe6834420000000	-0.7035236954689026
11	0x3fd9c3dec0000000	0.4025799632072449

encoder_layer.self_attn.in_proj_bias f8 [6]
0	0x0000000000000000	0.0
1	0x0000000000000000	0.0
2	0x0000000000000000	0.0
3	0x0000000000000000	0.0
4	0x0000000000000000	0.0
5	0x0000000000000000	0.0

encoder_layer.self_attn.out_proj.weight f8 [2, 2]
0	0xbfe60aa0e0000000	-0.6887974143028259
1	0x3fc076ef00000000	0.12862956523895264
2	0xbfe02084c0000000	-0.5039695501327515
3	0x3fae815e00000000	0.05958074331283569

encoder_layer.self_attn.out_proj.bias f8 [2]
0	0x0000000000000000	0.0
1	0x0000000000000000	0.0

encoder_layer.linear1.weight f8 [2048, 2]
0	0x3fd7944bc0000000	0.36842626333236694
1	0xbfe159eb40000000	-0.5422264337539673
2	0x3fe3b018a0000000	0.6152461171150208
3	0x3fdf1ac9c0000000	0.48601001501083374
4	0x3fc20d4280000000	0.14102965593338013
5	0x3fd15e3740000000	0.27137547731399536
6	0xbfac7b9400000000	-0.05563032627105713
7	0xbfc7df7f00000000	-0.18650805950164795
8	0xbfa1b94600000000	-0.03461664915084839
9	0x3fcf3cf880000000	0.24404817819595337
10	0x3fe4fece20000000	0.6561041474342346
11	0x3fe412b6a0000000	0.6272843480110168
12	0x3fe523fe20000000	0.6606436371803284
13	0xbfde34de40000000	-0.4719768166542053
14	0xbfe41a0580000000	-0.6281764507293701
15	0x3fc2978b80000000	0.14524978399276733
16	0x3fd1702280000000	0.272469162940979
17	0xbfb776a400000000	-0.09165406227111816
18	0x3fd8772240000000	0.38227134943008423
19	0xbfd9dd1800000000	-0.40411949157714844
20	0xbfc60c9e00000000	-0.17226004600524902
21	0x3fe643da20000000	0.6957827210426331
22	0x3fd553edc0000000	0.3332476019859314
23	0x3fc63d0b00000000	0.17373788356781006
24	0x3fde281fc0000000	0.4711989760398865
25	0x3fd30d3440000000	0.29768091440200806
26	0x3fe1c54a60000000	0.5553333163261414
27	0x3fdc9cf440000000	0.44707971811294556
28	0xbfd520f7c0000000	-0.3301371932029724
29	0xbfdcf67ec0000000	-0.4525448679924011
30	0xbfc107f400000000	-0.1330552101135254
31	0xbfe5c11f20000000	-0.6798244118690491
32	0xbfd764dda0000000	-0.3655313551425934
33	0x3fd5e45240000000	0.3420606255531311
34	0xbfab16d200000000	-0.052908480167388916
35	0x3fd88451c0000000	0.38307613134384155
36	0xbfe03206a0000000	-0.5061066746711731
37	0xbfe6577160000000	-0.6981741786003113
38	0xbfcad023c0000000	-0.20947691798210144
39	0x3fe059c920000000	0.5109601616859436
40	0x3fa95cd200000000	0.049536287784576416
41	0x3fd46a0640000000	0.3189712166786194
42	0x3fcac45500000000	0.20911657810211182
43	0xbfd13a56e0000000	-0.26918575167655945
44	0x3fdef86ec0000000	0.4839131236076355
45	0xbfca9fda00000000	-0.20800328254699707
46	0x3fe36a44a0000000	0.6067221760749817
47	0x3fd6444040000000	0.3479157090187073
48	0xbfd5c44d20000000	-0.3401062786579132
49	0xbfc803f500000000	-0.18762075901031494
50	0xbfe00cb400000000	-0.5015506744384766
51	0x3fba55d900000000	0.10287243127822876
52	0x3fe09f85e0000000	0.5194730162620544
53	0xbfe5f38680000000	-0.6859772205352783
54	0xbfb1b08600000000	-0.0690997838973999
55	0x3fd3bbd040000000	0.3083382248878479
56	0xbfe3320620000000	-0.599856436252594
57	0x3fac89ac00000000	0.055737853050231934
58	0x3fe3ee3a60000000	0.6228305697441101
59	0xbfa65b6e00000000	-0.043666303157806396
60	0xbfcffd0fc0000000	-0.24991032481193542
61	0xbfd7bb6640000000	-0.37081295251846313
62	0x3fb8886b00000000	0.09583157300949097
63	0xbfcadb0680000000	-0.20980912446975708
64	0x3fd7e34ec0000000	0.37324875593185425
65	0xbfc3e5c800000000	-0.15544986724853516
66	0x3fcfd78f80000000	0.24876588582992554
67	0xbfcad0d800000000	-0.20949840545654297
68	0xbfe0ebe300000000	-0.5287947654724121
69	0x3fb4355a00000000	0.07893908023834229
70	0x3fb73f8500000000	0.09081298112869263
71	0x3fced19d80000000	0.24077194929122925
72	0x3fb204e900000000	0.07038742303848267
73	0xbfba072900000000	-0.10167175531387329
74	0x3fd1526340000000	0.27065354585647583
75	0x3fdc494b40000000	0.4419735074043274
76	0xbfd4e2f580000000	-0.32635247707366943
77	0xbfe33a86c0000000	-0.6008943319320679
78	0x3fcabc3d00000000	0.2088695764541626
79	0x3fe462f3e0000000	0.6370791792869568
80	0xbfe3796e20000000	-0.6085730195045471
81	0x3fe4418360000000	0.6329972147941589
82	0x3fe5827be0000000	0.6721782088279724
83	0xbfd7cfd400000000	-0.37205982208251953
84	0xbfb51a3f00000000	-0.08243173360824585
85	0xbfb2f24300000000	-0.07400912046432495
86	0x3fe1f881e0000000	0.5615853667259216
87	0x3f871ab000000000	0.011281371116638184
88	0xbfc1c76b00000000	-0.13889825344085693
89	0xbfe3e8d360000000	-0.6221711039543152
90	0x3fdb4b5b40000000	0.426474392414093
91	0xbfdfc09dc0000000	-0.49613136053085327
92	0xbfe2a66620000000	-0.5828123688697815
93	0xbfc0636c00000000	-0.12803411483764648
94	0x3fc89e5a00000000	0.19233250617980957
95	0xbfd44f62e0000000	-0.31734535098075867
96	0xbfdea4d480000000	-0.4788104295730591
97	0x3fcb9c1f80000000	0.21570199728012085
98	0xbfe2d21e60000000	-0.5881492495536804
99	0xbfe0606ee0000000	-0.5117716193199158
100	0x3fd3827d40000000	0.30483943223953247
101	0x3f8b152000000000	0.013223886489868164
102	0xbf9f02a000000000	-0.030283451080322266
103	0xbfe2dae5c0000000	-0.5892208814620972
104	0xbfe65ce6c0000000	-0.6988404989242554
105	0xbfd488ea80000000	-0.3208566904067993
106	0xbfe0667980000000	-0.5125091075897217
107	0x3fc1601280000000	0.1357443928718567
108	0x3fd0487d40000000	0.25442439317703247
109	0xbfe42a3b40000000	-0.6301552057266235
110	0x3fe6198060000000	0.6906129717826843
111	0xbfdc346cc0000000	-0.4406997561454773
112	0x3fe396a7e0000000	0.6121405959129333
113	0x3fe0d9bba0000000	0.5265787243843079
114	0xbf97050800000000	-0.022480130195617676
115	0x3fe36c24e0000000	0.6069511771202087
116	0xbfc1b75080000000	-0.13840681314468384
117	0x3fca1cda00000000	0.20400547981262207
118	0x3fcf9bc280000000	0.24694091081619263
119	0x3fb011f500000000	0.06277400255203247
120	0x3fe3a994a0000000	0.6144507527351379
121	0xbfe3b2ac80000000	-0.61556077003479
122	0xbfb1749700000000	-0.06818526983261108
123	0x3fe1650fe0000000	0.5435866713523865
124	0x3fe37fc920000000	0.6093488335609436
125	0x3fe56b7a20000000	0.6693697571754456
126	0x3fdd75ef40000000	0.46032315492630005
127	0x3fd2296000000000	0.28377532958984375
128	0x3fc1519e00000000	0.13530325889587402
129	0x3fdc6a44c0000000	0.44398611783981323
130	0xbfcfea7980000000	-0.24934309720993042
131	0x3fe4a19360000000	0.6447235941886902
132	0xbf8647e800000000	-0.010879337787628174
133	0xbfe02f8100000000	-0.5057988166809082
134	0xbfe1a63c00000000	-0.5515422821044922
135	0xbfd2120f40000000	-0.2823522686958313
136	0x3fe3d8aee0000000	0.6202005743980408
137	0x3fe394ee60000000	0.6119300723075867
138	0xbfe64f2ca0000000	-0.6971648335456848
139	0xbfcdda3540000000	-0.23322167992591858
140	0x3f4d878000000000	0.0009011626243591309
141	0x3fd840f5c0000000	0.3789648413658142
142	0xbfde62e140000000	-0.4747851490974426
143	0xbfdd9eab00000000	-0.46280932426452637
144	0xbfe143bbc0000000	-0.5395182371139526
145	0xbfd94b6800000000	-0.39522743225097656
146	0xbfdef33ce0000000	-0.4835960566997528
147	0xbf87f01000000000	-0.01168835163116455
148	0x3fa9c80400000000	0.05035412311553955
149	0xbfd7a86380000000	-0.3696526288986206
150	0xbfe66890e0000000	-0.7002643942832947
151	0x3fe2064ae0000000	0.5632681250572205
152	0xbfe42bee20000000	-0.6303625702857971
153	0x3fe1614f60000000	0.5431286692619324
154	0x3fde39f5c0000000	0.4722875952720642
155	0xbfc1811900000000	-0.13675224781036377
156	0x3fb1c2e400000000	0.06938004493713379
157	0x3fc0162780000000	0.12567609548568726
158	0x3fe696a360000000	0.7058884501457214
159	0x3fcd9a5100000000	0.2312718629837036
160	0x3fd6c0a440000000	0.35550791025161743
161	0xbfe1e23e00000000	-0.5588674545288086
162	0x3fe4a74520000000	0.6454187035560608
163	0xbfe24be840000000	-0.5717660188674927
164	0x3fcb935580000000	0.2154337763786316
165	0xbf9a78d400000000	-0.025851547718048096
166	0xbfe5a0db00000000	-0.6758856773376465
167	0xbfb61aff00000000	-0.08634942770004272
168	0x3fe64beb60000000	0.6967675089836121
169	0x3fe47cb2a0000000	0.640221893787384
170	0x3fe2225b60000000	0.5666939616203308
171	0x3fcb888980000000	0.21510428190231323
172	0xbfc715c780000000	-0.18035215139389038
173	0x3fe480a020000000	0.6407013535499573
174	0x3fc4306000000000	0.15772628784179688
175	0x3fcfecc100000000	0.2494126558303833
176	0xbfa34f6a00000000	-0.037715256214141846
177	0x3fbde56b00000000	0.11678189039230347
178	0x3fcc910800000000	0.2231760025024414
179	0x3fd81e7240000000	0.37685829401016235
180	0xbfc1b31980000000	-0.13827818632125854
181	0x3fe0ae7f20000000	0.5213008522987366
182	0x3fa755d000000000	0.04557657241821289
183	0xbfdebecbc0000000	-0.48039525747299194
184	0x3fd60122c0000000	0.3438193202018738
185	0x3fe3587be0000000	0.6045512557029724
186	0xbfdd3bbe40000000	-0.4567714333534241
187	0x3fda6ab4c0000000	0.4127628207206726
188	0xbfd5f844e0000000	-0.3432781398296356
189	0x3fc2f0fe00000000	0.1479794979095459
190	0x3fe3bbc2a0000000	0.6166699528694153
191	0xbfe27fc540000000	-0.5780969858169556
192	0x3fa76b7200000000	0.04574161767959595
193	0x3fd0b6c000000000	0.2611541748046875
194	0x3faf223600000000	0.060807883739471436
195	0xbfcd44ca80000000	-0.22866183519363403
196	0xbfd677f940000000	-0.35107260942459106
197	0xbfbf441e00000000	-0.12213313579559326
198	0x3fc2db3100000000	0.147314190864563
199	0xbfda80f8a0000000	-0.4141217768192291
200	0x3fe2817c60000000	0.5783063769340515
201	0x3fd3c02b40000000	0.30860406160354614
202	0xbfe0895680000000	-0.5167648792266846
203	0x3fe095bee0000000	0.518279492855072
204	0x3fa2cd8000000000	0.036724090576171875
205	0x3fddbb76c0000000	0.4645668864250183
206	0x3fde476340000000	0.47310715913772583
207	0xbfcfab3540000000	-0.24741235375404358
208	0xbfdff057e0000000	-0.49904438853263855
209	0x3fdabd25c0000000	0.4177946448326111
210	0x3fb272ba00000000	0.07206308841705322
211	0x3fd3eb3ac0000000	0.3112322688102722
212	0x3fcc273a00000000	0.21994709968566895
213	0xbfd51a1160000000	-0.3297160565853119
214	0xbfd240cbe0000000	-0.28520485758781433
215	0x3fde419240000000	0.4727521538734436
216	0xbfd1ed1c40000000	-0.2800970673561096
217	0xbfd35711a0000000	-0.30218926072120667
218	0x3fd0425c00000000	0.25405025482177734
219	0xbfbc09e100000000	-0.10952574014663696
220	0x3fd11fcc00000000	0.2675657272338867
221	0xbfc0462c80000000	-0.127141535282135
222	0xbfd6c4b2a0000000	-0.355755478143692
223	0xbfe433db80000000	-0.6313302516937256
224	0x3fda974a40000000	0.4154840111732483
225	0x3fe1946d20000000	0.5493684411048889
226	0x3f97d10800000000	0.023258328437805176
227	0xbfdb1410e0000000	-0.42309972643852234
228	0x3fdfb71140000000	0.4955485463142395
229	0xbfc0df9100000000	-0.13182270526885986
230	0xbfdb0ee3c0000000	-0.4227837920188904
231	0x3fd6249440000000	0.3459826111793518
232	0x3fd805e5c0000000	0.3753599524497986
233	0xbfe4453340000000	-0.6334472894668579
234	0x3fc7d6ed80000000	0.1862465739250183
235	0x3fd6fbf940000000	0.35912925004959106
236	0x3fde64e540000000	0.47490817308425903
237	0xbfe5bb2e80000000	-0.6790993213653564
238	0x3fe5bbf360000000	0.6791931986808777
239	0x3fe06842e0000000	0.5127272009849548
240	0xbfdea5cc00000000	-0.4788694381713867
241	0xbfc6c38700000000	-0.17784202098846436
242	0xbfcb5f7c80000000	-0.21385151147842407
243	0x3fe4648d20000000	0.6372743248939514
244	0x3fe0bb54a0000000	0.5228675007820129
245	0xbfd0bea820000000	-0.26163676381111145
246	0x3fd0a12cc0000000	0.2598373293876648
247	0xbfe0781ac0000000	-0.5146611928939819
248	0xbfdd9a2c20000000	-0.46253493428230286
249	0x3fd08878c0000000	0.2583295702934265
250	0xbfe1da3720000000	-0.557887613773346
251	0xbfe04ed760000000	-0.509624183177948
252	0x3fd4ecc2c0000000	0.32695072889328003
253	0x3fe3cf31e0000000	0.6190423369407654
254	0xbfa5a63400000000	-0.04228365421295166
255	0x3fe516efe0000000	0.659049928188324

encoder_layer.linear1.bias f8 [2048]
0	0x3fb50fde00000000	0.08227336406707764
1	0x3fd63361c0000000	0.3468860983848572
2	0x3fc9f58c00000000	0.2028059959411621
3	0xbfe5deae80000000	-0.6834328174591064
4	0xbfc91cc680000000	-0.19619065523147583
5	0x3fe3c635a0000000	0.6179454922676086
6	0xbfc68ba900000000	-0.17613708972930908
7	0x3fc9316200000000	0.19681954383850098
8	0x3fc6069300000000	0.17207562923431396
9	0xbfc79ce080000000	-0.18447500467300415
10	0xbfda6dda60000000	-0.4129548966884613
11	0xbfd4974b00000000	-0.3217341899871826
12	0xbfe4828b20000000	-0.640935480594635
13	0x3fc86d3000000000	0.19083213806152344
14	0x3fa84f5200000000	0.04748016595840454
15	0xbfe2da1ea0000000	-0.58912593126297
16	0xbfd5450600000000	-0.3323378562927246
17	0x3fb756fa00000000	0.09117090702056885
18	0xbfe57acf20000000	-0.6712413430213928
19	0xbfd517eec0000000	-0.3295857310295105
20	0xbfe56557c0000000	-0.6686209440231323
21	0xbfd5cc6160000000	-0.34059938788414
22	0x3fb656a900000000	0.08725982904434204
23	0xbf92058c00000000	-0.017599284648895264
24	0xbfc18f3d00000000	-0.1371837854385376
25	0x3fd9df3cc0000000	0.4042503237724304
26	0x3fde399fc0000000	0.4722670912742615
27	0xbfc43da480000000	-0.1581311821937561
28	0xbfe2665f00000000	-0.5749964714050293
29	0x3fd6730e40000000	0.3507724404335022
30	0xbfd9cdbce0000000	-0.4031822383403778
31	0xbfb808e700000000	-0.09388583898544312
32	0xbfe3a9d480000000	-0.6144812107086182
33	0x3fe6645e60000000	0.6997520327568054
34	0x3fcd03cd00000000	0.2266784906387329
35	0x3fe192db60000000	0.5491768717765808
36	0xbfda04b380000000	-0.40653693675994873
37	0x3fb9be8700000000	0.10056346654891968
38	0xbf9fd60c00000000	-0.031089961528778076
39	0xbfd1e4acc0000000	-0.2795822024345398
40	0x3fdab63c40000000	0.41737276315689087
41	0x3fe0bf4ee0000000	0.5233530402183533
42	0x3fc43fcb80000000	0.15819686651229858
43	0x3fc4569700000000	0.15889251232147217
44	0x3fad7af800000000	0.05757880210876465
45	0x3fca4fc900000000	0.2055598497390747
46	0x3fc2b76500000000	0.14622175693511963
47	0xbfd954d9a0000000	-0.395803838968277
48	0xbfa8723c00000000	-0.04774653911590576
49	0x3fe0b2ffa0000000	0.5218504071235657
50	0xbfe12a7fa0000000	-0.5364378094673157
51	0x3fcdcf0400000000	0.2328801155090332
52	0x3fb2875e00000000	0.07237803936004639
53	0x3fd61c1740000000	0.3454645276069641
54	0xbfe0e30060000000	-0.5277101397514343
55	0xbfd5cdffc0000000	-0.3406981825828552
56	0xbfd8e63940000000	-0.38905173540115356
57	0xbfd64af260000000	-0.34832438826560974
58	0xbfdeb2d920000000	-0.4796660244464874
59	0xbfe0400f40000000	-0.5078197717666626
60	0xbfe4d00b80000000	-0.6503961086273193
61	0x3fdf8c3640000000	0.49293285608291626
62	0x3fe3b51b60000000	0.6158577799797058
63	0x3fe03149a0000000	0.5060165524482727
64	0xbfd3046fe0000000	-0.297145813703537
65	0xbfe05223c0000000	-0.5100268125534058
66	0x3fafab8e00000000	0.0618557333946228
67	0xbfe070e240000000	-0.5137797594070435
68	0xbfd5f52320000000	-0.34308698773384094
69	0x3fe3a3df20000000	0.6137538552284241
70	0x3fa6950a00000000	0.04410582780838013
71	0x3fd6f8cec0000000	0.35893601179122925
72	0x3fb9ff4300000000	0.10155123472213745
73	0xbfda00dae0000000	-0.40630218386650085
74	0xbfaef41800000000	-0.060456037521362305
75	0x3fdf8148c0000000	0.49226588010787964
76	0x3fe1f174e0000000	0.560724675655365
77	0xbfb0e8e300000000	-0.06605356931686401
78	0xbfdeb5ed40000000	-0.47985392808914185
79	0x3fe644ab20000000	0.6958823800086975
80	0x3fdc4e6f40000000	0.44228726625442505
81	0x3f850c6000000000	0.010277509689331055
82	0x3fe3bfe020000000	0.6171723008155823
83	0xbfd8687d60000000	-0.38137754797935486
84	0x3fe2dfeda0000000	0.589834988117218
85	0xbfc3cfe000000000	-0.15478134155273438
86	0xbfe558b160000000	-0.6670767664909363
87	0x3fe425c0a0000000	0.6296084523200989
88	0xbfdb5a8900000000	-0.4274008274078369
89	0x3fe55ce720000000	0.6675906777381897
90	0x3fdf1bca40000000	0.4860711693763733
91	0xbfd06af120000000	-0.25652721524238586
92	0x3fce9f8880000000	0.23924356698989868
93	0x3fdfe56340000000	0.49837571382522583
94	0xbfe18f0000000000	-0.5487060546875
95	0xbfdf6a1420000000	-0.4908495247364044
96	0xbfe5975b60000000	-0.6747261881828308
97	0x3fdbdc1ac0000000	0.43530911207199097
98	0x3fd0dba9c0000000	0.2634071707725525
99	0x3fe4fded20000000	0.6559968590736389
100	0xbfe0b23740000000	-0.5217548608779907
101	0x3fb0f51a00000000	0.06623995304107666
102	0x3fe4d86e20000000	0.6514196991920471
103	0xbfda85f720000000	-0.4144265949726105
104	0xbfd7b2ab00000000	-0.37028002738952637
105	0x3fde271cc0000000	0.47113722562789917
106	0x3fe55acca0000000	0.6673339009284973
107	0xbfc1118880000000	-0.13334757089614868
108	0x3fca9e9a00000000	0.20796513557434082
109	0x3fd9ef0540000000	0.4052136540412903
110	0xbfc4a0bb00000000	-0.161155104637146
111	0x3fe608ed20000000	0.6885896325111389
112	0x3fd5baed40000000	0.33953410387039185
113	0xbfdb398480000000	-0.42538559436798096
114	0xbfdf9b5cc0000000	-0.49385756254196167
115	0xbfe22296c0000000	-0.5667222738265991
116	0x3fb303b800000000	0.07427549362182617
117	0xbfe04914e0000000	-0.5089210867881775
118	0x3fe00f40a0000000	0.5018618702888489
119	0xbfe4aa84a0000000	-0.6458151936531067
120	0x3f922a1800000000	0.017738699913024902
121	0x3fe226e560000000	0.5672480463981628
122	0x3fb63d7500000000	0.08687525987625122
123	0xbfb3e10100000000	-0.07765203714370728
124	0xbfc30ad180000000	-0.1487676501274109
125	0xbfe229da40000000	-0.5676089525222778
126	0x3fe5d46960000000	0.6821791529655457
127	0xbfc7068080000000	-0.17988592386245728
128	0xbfe34c2c60000000	-0.6030485033988953
129	0x3f86e14800000000	0.011171877384185791
130	0xbfd42ad360000000	-0.3151138722896576
131	0x3fe1b769a0000000	0.5536392331123352
132	0x3fb5b41e00000000	0.08477962017059326
133	0xbfdf76de00000000	-0.49163007736206055
134	0x3fcf8aa680000000	0.2464187741279602
135	0xbfcfdcaf00000000	-0.2489222288131714
136	0x3fe3962ce0000000	0.6120819449424744
137	0x3fc47c9780000000	0.16005223989486694
138	0x3fe4ee10e0000000	0.6540607810020447
139	0x3fe21a9820000000	0.5657463669776917
140	0xbfddad0b00000000	-0.4636867046356201
141	0x3fd309f2c0000000	0.2974821925163269
142	0xbfcd09b600000000	-0.22685885429382324
143	0xbfa062d200000000	-0.032003939151763916
144	0x3fcf3d9d00000000	0.24406778812408447
145	0x3fb066d800000000	0.06406927108764648
146	0x3f81a2c000000000	0.008611202239990234
147	0xbfc6909f80000000	-0.17628854513168335
148	0x3fe49b76a0000000	0.6439774632453918
149	0x3fafac9e00000000	0.061863839626312256
150	0xbfdad3c6a0000000	-0.41917577385902405
151	0xbfc9e92700000000	-0.20242774486541748
152	0xbfb6bfd900000000	-0.08886486291885376
153	0x3fdeca0440000000	0.4810801148414612
154	0x3fcfd12f80000000	0.24857133626937866
155	0xbfd56eeaa0000000	-0.3348948061466217
156	0xbfc8001600000000	-0.18750262260437012
157	0x3fa7e39400000000	0.04665815830230713
158	0xbfc9669b00000000	-0.19844377040863037
159	0x3fe04c88a0000000	0.5093424916267395
160	0x3fc6272980000000	0.17307013273239136
161	0x3f92a61800000000	0.018211722373962402
162	0x3fd7829740000000	0.3673456311225891
163	0x3fda7a0140000000	0.4136965870857239
164	0x3fe1c09f60000000	0.5547634959220886
165	0x3fcd302700000000	0.22803199291229248
166	0x3fe0b44b20000000	0.52200847864151
167	0xbf21060000000000	-0.00012987852096557617
168	0xbfd3f6ede0000000	-0.3119463622570038
169	0xbfbdd5cc00000000	-0.11654353141784668
170	0x3fa45e1800000000	0.039780378341674805
171	0xbfdf74db40000000	-0.491507351398468
172	0x3fd54c2bc0000000	0.3327741026878357
173	0xbfdfe5b4c0000000	-0.4983951449394226
174	0x3fe1db6820000000	0.5580330491065979
175	0xbfe17b0100000000	-0.5462651252746582
176	0x3f95e1ec00000000	0.021369636058807373
177	0x3fc686b180000000	0.17598551511764526
178	0x3fe61f52a0000000	0.6913235783576965
179	0xbfe57c2aa0000000	-0.6714070439338684
180	0x3fa7957400000000	0.04606211185455322
181	0xbfe556e5a0000000	-0.6668575406074524
182	0x3fc7d2b600000000	0.18611788749694824
183	0xbfcf8a8400000000	-0.2464146614074707
184	0xbfd7d82120000000	-0.37256649136543274
185	0xbfb3a46700000000	-0.07672733068466187
186	0xbfd501aac0000000	-0.3282267451286316
187	0xbfde719540000000	-0.4756825566291809
188	0xbfe19e2cc0000000	-0.5505584478378296
189	0xbfb6044700000000	-0.08600276708602905
190	0xbfc40be600000000	-0.15661311149597168
191	0x3fb60e3700000000	0.08615440130233765
192	0xbfd0137380000000	-0.25118720531463623
193	0x3fab82d200000000	0.053732454776763916
194	0x3fd93b4940000000	0.3942435383796692
195	0xbfa31d6c00000000	-0.03733384609222412
196	0xbfe56c6980000000	-0.6694839000701904
197	0x3fddb26bc0000000	0.4640149474143982
198	0x3fe6907f60000000	0.7051388621330261
199	0x3fbc0b3300000000	0.10954588651657104
200	0x3fcaf2aa80000000	0.2105305790901184
201	0xbfb1091300000000	-0.06654471158981323
202	0xbfe4480b20000000	-0.633794367313385
203	0x3fe1745420000000	0.5454502701759338
204	0x3fe6676ca0000000	0.7001250386238098
205	0xbfc1f72880000000	-0.1403551697731018
206	0x3fdde4c740000000	0.467088520526886
207	0x3fe5d57a20000000	0.6823092103004456
208	0x3fa9dadc00000000	0.05049788951873779
209	0x3fd9633b40000000	0.39668160676956177
210	0x3fd0c55100000000	0.2620432376861572
211	0xbfd2422160000000	-0.2852862775325775
212	0x3fdd8b26c0000000	0.4616181254386902
213	0x3fe2d0cae0000000	0.5879873633384705
214	0xbfd014c740000000	-0.251268208026886
215	0x3fc5864e80000000	0.16816121339797974
216	0xbfc5dc1880000000	-0.170779287815094
217	0xbfddf6c040000000	-0.4681854844093323
218	0xbfe5e67280000000	-0.6843807697296143
219	0x3fe1ba4fe0000000	0.5539931654930115
220	0x3fe41fd5e0000000	0.6288861632347107
221	0xbf8b61d000000000	-0.013370156288146973
222	0x3fc98cbf80000000	0.19960778951644897
223	0xbfb7f2c400000000	-0.09354805946350098
224	0x3fd0fc4040000000	0.2653961777687073
225	0xbfe49eb900000000	-0.6443753242492676
226	0x3fde501cc0000000	0.47363966703414917
227	0x3fe1e2cf60000000	0.5589367747306824
228	0xbfd563e5a0000000	-0.3342222273349762
229	0xbfd8c04d00000000	-0.3867371082305908
230	0x3fcabfcc80000000	0.20897823572158813
231	0xbf97d5b800000000	-0.023276209831237793
232	0xbfd335be20000000	-0.3001551926136017
233	0x3fe5400c60000000	0.6640684008598328
234	0xbfd55b18c0000000	-0.33368510007858276
235	0xbfd3ff2520000000	-0.31244781613349915
236	0x3fd4692a40000000	0.31891876459121704
237	0x3fd66d4f40000000	0.3504217267036438
238	0xbfe291a240000000	-0.5802775621414185
239	0x3fd51366c0000000	0.3293091654777527
240	0xbfd25b64a0000000	-0.2868281900882721
241	0xbfa28a8a00000000	-0.036213219165802
242	0x3fa2748600000000	0.03604525327682495
243	0x3f940ac800000000	0.01957237720489502
244	0x3fd47a51c0000000	0.31996577978134155
245	0xbfb3483e00000000	-0.07532107830047607
246	0xbfa8135800000000	-0.04702258110046387
247	0xbf7f363000000000	-0.007620036602020264
248	0xbfbbd94500000000	-0.108784019947052
249	0x3fd5116dc0000000	0.3291887640953064
250	0xbfe5ba9740000000	-0.6790271997451782
251	0x3fdff12c40000000	0.49909502267837524
252	0xbfdab36860000000	-0.4172001779079437
253	0x3fd42449c0000000	0.31471484899520874
254	0x3faec08a00000000	0.0600627064704895
255	0x3fe10a68a0000000	0.532520592212677

encoder_layer.linear2.weight f8 [2, 2048]
0	0xbf82a6d6e0000000	-0.009107283316552639
1	0x3f9632af60000000	0.02167772315442562
2	0xbf29b59000000000	-0.00019614584743976593
3	0x3f8d6ebc40000000	0.014371367171406746
4	0x3f6baf3800000000	0.003379449248313904
5	0xbf908fff40000000	-0.016174305230379105
6	0xbf968b7160000000	-0.022016307339072227
7	0xbf964f9000000000	-0.02178788185119629
8	0xbf6bd3ad00000000	-0.0033968333154916763
9	0xbf95129980000000	-0.020578764379024506
10	0x3f78d4eb00000000	0.0060624293982982635
11	0x3f72998b00000000	0.0045409612357616425
12	0x3f8b893540000000	0.013445297256112099
13	0xbf92ccccc0000000	-0.01835937425494194
14	0xbf93ce3a80000000	-0.01934138685464859
15	0xbf5c2e6e00000000	-0.0017200540751218796
16	0x3f7a218800000000	0.006379634141921997
17	0xbf8c9c06e0000000	-0.013969472609460354
18	0xbf5a0ece00000000	-0.0015904437750577927
19	0xbf92f3f740000000	-0.018508780747652054
20	0x3f75694080000000	0.005227329209446907
21	0xbf58cde000000000	-0.0015139281749725342
22	0x3f93828d20000000	0.019052701070904732
23	0x3f90aa57a0000000	0.01627480424940586
24	0x3f95709760000000	0.02093731425702572
25	0xbf954003c0000000	-0.020752009004354477
26	0x3f78317480000000	0.005906539037823677
27	0x3f96814520000000	0.02197750099003315
28	0x3f83dc8bc0000000	0.00969800166785717
29	0x3f598b3c00000000	0.0015590749680995941
30	0x3f82be2f40000000	0.00915181078016758
31	0xbf83da3d20000000	-0.009693601168692112
32	0xbf93f67160000000	-0.019494792446494102
33	0x3f96977de0000000	0.02206226997077465
34	0x3f8d361fc0000000	0.014263389632105827
35	0xbf90dd24a0000000	-0.01646859385073185
36	0xbf692c8500000000	-0.0030729863792657852
37	0x3f952843a0000000	0.020661408081650734
38	0xbf8fe19e00000000	-0.015567049384117126
39	0xbf83707d20000000	-0.00949189905077219
40	0x3f82e3ab40000000	0.00922330655157566
41	0xbf832173a0000000	-0.009341147728264332
42	0xbf94841f60000000	-0.020035257562994957
43	0x3f92079c20000000	0.017607154324650764
44	0x3f84c8c5c0000000	0.010148568078875542
45	0x3f67022600000000	0.002808641642332077
46	0x3f7a1ec680000000	0.006377005949616432
47	0x3f8e565040000000	0.014813067391514778
48	0x3f863973c0000000	0.010851768776774406
49	0x3f3a368800000000	0.000399978831410408
50	0x3f82c20440000000	0.009159119799733162
51	0x3f852d5040000000	0.010340334847569466
52	0x3f828e2b00000000	0.009060226380825043
53	0xbf873545c0000000	-0.011332077905535698
54	0xbf7113f280000000	-0.004169413819909096
55	0xbf7c5d2000000000	-0.006924748420715332
56	0x3f88a4fac0000000	0.012033423408865929
57	0xbf8a931fc0000000	-0.01297592930495739
58	0xbf9316d400000000	-0.018641769886016846
59	0xbf8fe06b60000000	-0.015564764849841595
60	0xbf66409300000000	-0.002716338261961937
61	0xbf92a4d5e0000000	-0.018206922337412834
62	0xbf8d6da040000000	-0.01436925120651722
63	0x3f6fa59400000000	0.003863133490085602
64	0x3f91481860000000	0.0168765839189291
65	0xbf906aeb40000000	-0.016032863408327103
66	0xbf8ce3a6e0000000	-0.01410608645528555
67	0xbf859ea9a0000000	-0.010556531138718128
68	0xbf89bcfce0000000	-0.012567496858537197
69	0x3f77f4cb00000000	0.005848687142133713
70	0x3f94e79e60000000	0.02041480503976345
71	0x3f657c7200000000	0.0026228167116642
72	0x3f8ab730c0000000	0.013044720515608788
73	0x3f836a0cc0000000	0.009479617699980736
74	0x3f6ad2b400000000	0.003274299204349518
75	0x3f6e0b8b00000000	0.0036676134914159775
76	0xbf705a6680000000	-0.003992462530732155
77	0x3f94a11ee0000000	0.020145876333117485
78	0x3f409c6400000000	0.0005069244652986526
79	0xbf8477bb40000000	-0.009993994608521461
80	0xbf90d1d260000000	-0.01642540656030178
81	0xbf8455e420000000	-0.009929449297487736
82	0xbf95ac1f60000000	-0.021164407953619957
83	0x3f9348eaa0000000	0.018832841888070107
84	0x3f95e8dd20000000	0.02139611728489399
85	0x3f80cff600000000	0.00820915400981903
86	0x3f6b5bbe00000000	0.0033396445214748383
87	0xbf82ab3580000000	-0.009115617722272873
88	0xbf83907ba0000000	-0.009552923031151295
89	0x3f8ca23ec0000000	0.013981333002448082
90	0xbf763c3c80000000	-0.005428539589047432
91	0xbf56165c00000000	-0.001348104327917099
92	0xbf4eb9b800000000	-0.0009376667439937592
93	0xbf674adf00000000	-0.0028433185070753098
94	0x3f90e88f20000000	0.01651214249432087
95	0x3f76c32b00000000	0.005557220429182053
96	0x3f4082ec00000000	0.0005038883537054062
97	0xbf8242aba0000000	-0.008916226215660572
98	0xbf78b22a00000000	-0.006029285490512848
99	0xbf8a2c38e0000000	-0.0127796595916152
100	0xbf711f8100000000	-0.004180435091257095
101	0xbf74ac4580000000	-0.005047103390097618
102	0xbf7e676c40000000	-0.007422850467264652
103	0x3f95e60120000000	0.021385209634900093
104	0x3f80391580000000	0.007921379059553146
105	0xbf95be3f20000000	-0.02123354561626911
106	0xbf83546ae0000000	-0.009438357315957546
107	0x3f93aec720000000	0.019221412017941475
108	0xbf93032400000000	-0.018566668033599854
109	0xbf7119e180000000	-0.004175072535872459
110	0xbf1042c000000000	-6.202980875968933e-05
111	0xbf7bcf2740000000	-0.006789353676140308
112	0x3f5e772600000000	0.0018594618886709213
113	0x3f76c12100000000	0.0055552758276462555
114	0xbf6f8d2e00000000	-0.0038514994084835052
115	0x3f60628c00000000	0.0020001158118247986
116	0x3f557a8a00000000	0.0013109538704156876
117	0x3f87df6040000000	0.011656524613499641
118	0x3f85f7f8c0000000	0.010726874694228172
119	0x3f5fdd2600000000	0.0019448157399892807
120	0x3f75efd800000000	0.0053556859493255615
121	0xbf95ea3240000000	-0.02140120044350624
122	0x3f8c42d740000000	0.013799363747239113
123	0x3f8fa781c0000000	0.015456212684512138
124	0x3f689ed400000000	0.0030054226517677307
125	0x3f80436e40000000	0.007941113784909248
126	0x3f93c4fca0000000	0.019306132569909096
127	0xbf7d374a00000000	-0.00713280588388443
128	0x3f7f47c180000000	0.007636791095137596
129	0x3f95c414a0000000	0.021255800500512123
130	0xbf8d1a9460000000	-0.014210852794349194
131	0xbf940f6f80000000	-0.01959013193845749
132	0xbf907e29c0000000	-0.016106273978948593
133	0xbf8d2a59a0000000	-0.014240932650864124
134	0xbf78c61800000000	-0.006048291921615601
135	0xbf14adc000000000	-7.888302206993103e-05
136	0xbf947a2020000000	-0.019997121766209602
137	0x3f4bfbe000000000	0.000854000449180603
138	0xbf7c8ab840000000	-0.006968230940401554
139	0xbf8b0932c0000000	-0.013201138004660606
140	0xbf835d4860000000	-0.009455266408622265
141	0x3f8b55b0c0000000	0.013347035273909569
142	0xbf94730a40000000	-0.019970092922449112
143	0x3f81564240000000	0.008465306833386421
144	0xbf923bfde0000000	-0.017806975170969963
145	0xbf74831380000000	-0.005007816478610039
146	0x3f906edaa0000000	0.016047874465584755
147	0x3f928100a0000000	0.01807023026049137
148	0x3f96332120000000	0.02167941816151142
149	0xbf8a255cc0000000	-0.012766575440764427
150	0xbf7aed03c0000000	-0.0065736910328269005
151	0x3f95f5c320000000	0.021445320919156075
152	0x3f847da340000000	0.01000525988638401
153	0xbf7dd25840000000	-0.007280678488314152
154	0x3f91d8de60000000	0.017428850755095482
155	0xbf70cbd600000000	-0.00410064309835434
156	0xbf94445180000000	-0.0197918638586998
157	0x3f74d19a00000000	0.005082704126834869
158	0x3f944bdaa0000000	0.01982061006128788
159	0xbf7cc13600000000	-0.007020197808742523
160	0xbf7bdedf80000000	-0.006804345175623894
161	0xbf8a3cecc0000000	-0.012811517342925072
162	0x3f94ed2460000000	0.02043587528169155
163	0x3f64c2e400000000	0.002534337341785431
164	0xbf77bd7700000000	-0.005795922130346298
165	0x3f5cb73400000000	0.001752663403749466
166	0xbf807dac60000000	-0.008052202872931957
167	0xbf91c16080000000	-0.01733923703432083
168	0xbf556bd600000000	-0.001307448372244835
169	0x3f7bdaa500000000	0.006800312548875809
170	0xbf7eabcf80000000	-0.0074880700558424
171	0xbf900f2ba0000000	-0.015682870522141457
172	0xbf89ce4100000000	-0.012600429356098175
173	0x3f9233be20000000	0.017775507643818855
174	0x3f955bc920000000	0.020857946947216988
175	0xbf845bd080000000	-0.009940747171640396
176	0x3f3a097800000000	0.000397292897105217
177	0xbf8d312c20000000	-0.014253945089876652
178	0xbf86c7ebc0000000	-0.011123506352305412
179	0xbf949f3600000000	-0.020138591527938843
180	0x3f93231be0000000	0.018688617274165154
181	0xbf58708400000000	-0.0014916695654392242
182	0xbf8301f820000000	-0.009281099773943424
183	0x3f95cefee0000000	0.021297438070178032
184	0x3f7643d300000000	0.005435775965452194
185	0xbf93bb2ca0000000	-0.01926870085299015
186	0xbf61acb400000000	-0.002157546579837799
187	0x3f8eef2bc0000000	0.015104619786143303
188	0x3f6df77f00000000	0.003658054396510124
189	0xbf929cbdc0000000	-0.018176045268774033
190	0xbf74dc2f00000000	-0.005092795938253403
191	0x3f5bf80000000000	0.0017070770263671875
192	0xbf7c3ee840000000	-0.006895930506289005
193	0x3f7c0d0980000000	0.006848370656371117
194	0x3f93a50aa0000000	0.01918427087366581
195	0xbf95bcb800000000	-0.021227717399597168
196	0xbf8fa9f720000000	-0.015460901893675327
197	0xbf81ae0d00000000	-0.008632756769657135
198	0xbf953d84c0000000	-0.02074248716235161
199	0x3f9080f1e0000000	0.016116885468363762
200	0xbf85ac17a0000000	-0.010582146234810352
201	0xbf70008800000000	-0.003906756639480591
202	0x3f70922580000000	0.004045626148581505
203	0xbf96273640000000	-0.02163395658135414
204	0xbf76d0da80000000	-0.005570271983742714
205	0x3f8af029c0000000	0.013153387233614922
206	0xbf4cca0000000000	-0.0008785724639892578
207	0x3f621cd900000000	0.0022110212594270706
208	0x3f908bfd60000000	0.016159018501639366
209	0x3f60c52a00000000	0.0020471401512622833
210	0x3f91ff36a0000000	0.01757512427866459
211	0x3f5e82ae00000000	0.0018622111529111862
212	0xbf94a5f9e0000000	-0.020164398476481438
213	0x3f730d2200000000	0.004651196300983429
214	0xbf6e4caa00000000	-0.0036986656486988068
215	0xbf8b6099c0000000	-0.013367844745516777
216	0xbf8e718a40000000	-0.014864997938275337
217	0x3f91a4e760000000	0.017230620607733727
218	0xbf869929e0000000	-0.011034323833882809
219	0xbf83e1dc00000000	-0.009708136320114136
220	0xbf81beaee0000000	-0.008664480410516262
221	0x3f8d7cf3c0000000	0.01439848355948925
222	0x3f84f803c0000000	0.010238675400614738
223	0x3f94ac2d20000000	0.020188050344586372
224	0xbf885821e0000000	-0.01188684906810522
225	0x3f93e4d4e0000000	0.01942761056125164
226	0xbf873d5640000000	-0.011347459629178047
227	0xbf922e4100000000	-0.01775456964969635
228	0xbf8121ab00000000	-0.008364997804164886
229	0xbf9486ef80000000	-0.020045988261699677
230	0x3f96908fe0000000	0.022035835310816765
231	0x3f70b7c880000000	0.004081519320607185
232	0xbf94be5e80000000	-0.02025745064020157
233	0xbf61c67b00000000	-0.002169838175177574
234	0xbf88922ae0000000	-0.011997542344033718
235	0x3f93eac2e0000000	0.0194502305239439
236	0x3f95a41ba0000000	0.02113383449614048
237	0x3f5aecd200000000	0.001643376424908638
238	0xbf90dcb9e0000000	-0.016467003151774406
239	0xbf50b6a600000000	-0.0010201092809438705
240	0x3f6aa72c00000000	0.003253541886806488
241	0xbf80e40360000000	-0.008247400633990765
242	0xbf73386c00000000	-0.004692479968070984
243	0x3f786d9b80000000	0.005963904783129692
244	0x3f9647f760000000	0.021758904680609703
245	0x3f9470ab60000000	0.019961049780249596
246	0xbf74e22700000000	-0.0050984881818294525
247	0x3f86f62040000000	0.011211635544896126
248	0xbf8b7cd620000000	-0.013421700336039066
249	0xbf925f6ca0000000	-0.017942139878869057
250	0xbf79cd2280000000	-0.006299147382378578
251	0x3f943104a0000000	0.019718239083886147
252	0xbf6b8ea500000000	-0.003363916650414467
253	0xbf8bd52fa0000000	-0.013590213842689991
254	0xbf9370e400000000	-0.018985331058502197
255	0xbf8c9e25a0000000	-0.013973516412079334

encoder_layer.linear2.bias f8 [2]
0	0xbf65973200000000	-0.0026355721056461334
1	0xbf856d1a60000000	-0.010462003760039806

encoder_layer.norm1.weight f8 [2]
0	0x3ff0000000000000	1.0
1	0x3ff0000000000000	1.0

encoder_layer.norm1.bias f8 [2]
0	0x0000000000000000	0.0
1	0x0000000000000000	0.0

encoder_layer.norm2.weight f8 [2]
0	0x3ff0000000000000	1.0
1	0x3ff0000000000000	1.0

encoder_layer.norm2.bias f8 [2]
0	0x0000000000000000	0.0
1	0x0000000000000000	0.0

transformer_encoder.layers.0.self_attn.in_proj_weight f8 [6, 2]
0	0xbfdd70d380000000	-0.46001136302948
1	0x3fb0c30c00000000	0.0654761791229248
2	0x3fe6fff660000000	0.7187454104423523
3	0xbfc9f79a00000000	-0.20286870002746582
4	0x3fe671b5e0000000	0.7013806700706482
5	0x3fe495c420000000	0.6432819962501526
6	0xbfb83b3b00000000	-0.09465378522872925
7	0x3fe59b7720000000	0.675227701663971
8	0x3fcbebcb80000000	0.21813338994979858
9	0xbfd62782bffffde7	-0.3461615443229377
10	0xbfe6834420000000	-0.7035236954689026
11	0x3fd9c3debfffff39	0.4025799632072338

transformer_encoder.layers.0.self_attn.in_proj_bias f8 [6]
0	0xbd8ce7a4c1fbd6a7	-3.2861018728156533e-12
1	0xbd7a454c0798fb91	-1.4933159133545541e-12
2	0xb88daf44ec95f2bc	-2.7915306425418777e-36
3	0x389afd26c999f628	5.0760428583261735e-36
4	0xbe5b1845f0437247	-2.523401489226487e-08
5	0x3e443e918354a790	9.42703702130015e-09

transformer_encoder.layers.0.self_attn.out_proj.weight f8 [2, 2]
0	0xbfe60aa0dffffe0b	-0.6887974143027703
1	0x3fc076eefffff6d4	0.12862956523888747
2	0xbfe02084c00001f5	-0.5039695501328071
3	0x3fae815e000024b5	0.0595807433129009

transformer_encoder.layers.0.self_attn.out_proj.bias f8 [2]
0	0x3e825308a03e2144	1.3652704932929142e-07
1	0xbe825308a03e2144	-1.3652704932929142e-07

transformer_encoder.layers.0.linear1.weight f8 [2048, 2]
0	0x3fd7944bc15cc7da	0.36842626460122363
1	0xbfe159eb40ae63de	-0.5422264350228223
2	0x3fe3b0189f40bcf8	0.6152461157234077
3	0x3fdf1ac9c17e8616	0.4860100164024471
4	0x3fc20d427d8269f3	0.1410296547736177
5	0x3fd15e37413ecb0e	0.2713754784737582
6	0xbfac7b9400000000	-0.05563032627105713
7	0xbfc7df7f00000000	-0.18650805950164795
8	0xbfa1b945ffe140ab	-0.034616649136866094
9	0x3fcf3cf87ff85036	0.2440481781819714
10	0x3fe4fece2007eaa9	0.6561041474918358
11	0x3fe412b69ff81557	0.6272843479534157
12	0x3fe523fe205639ec	0.660643637807707
13	0xbfde34de40ac73f5	-0.4719768172815855
14	0xbfe41a057ffa48e8	-0.6281764506877865
15	0x3fc2978b7fe923ab	0.145249783951184
16	0x3fd17022816fe5af	0.2724691642793812
17	0xbfb776a405bf96c1	-0.09165406360952046
18	0x3fd87722422ff0cd	0.38227135146713637
19	0xbfd9dd18022ff0cd	-0.4041194936142006
20	0xbfc60c9e001682b8	-0.1722600460461956
21	0x3fe643da2005a0b1	0.69578272108358
22	0x3fd553edc0000000	0.3332476019859314
23	0x3fc63d0b00000000	0.17373788356781006
24	0x3fde281fc0000000	0.4711989760398865
25	0x3fd30d3440000000	0.29768091440200806
26	0x3fe1c54a614bd0f3	0.555333318740422
27	0x3fdc9cf43d685e3b	0.4470797156986667
28	0xbfd520f7bf42af5f	-0.3301371925142486
29	0xbfdcf67ec0bd50a1	-0.4525448686811249
30	0xbfc107f400000000	-0.1330552101135254
31	0xbfe5c11f20000000	-0.6798244118690491
32	0xbfd764dd9ffb060a	-0.3655313551244893
33	0x3fd5e4523ffb060a	0.34206062553502703
34	0xbfab16d1ff87d554	-0.05290848011274343
35	0x3fd88451bff0faa9	0.383076131289196
36	0xbfe03206a0000000	-0.5061066746711731
37	0xbfe6577160000000	-0.6981741786003113
38	0xbfcad023bfe47e06	-0.2094769179320652
39	0x3fe059c91ff91f87	0.510960161635908
40	0x3fa95cd200000000	0.049536287784576416
41	0x3fd46a0640000000	0.3189712166786194
42	0x3fcac45502cd7044	0.20911657940712491
43	0xbfd13a56e166b824	-0.26918575298157266
44	0x3fdef86ebdb6b268	0.4839131214783152
45	0xbfca9fd9fb6d64c1	-0.20800328041767638
46	0x3fe36a44a001fdfc	0.6067221760894763
47	0x3fd644403ffc033f	0.3479157090042015
48	0xbfd5c44d200ab17f	-0.34010627869681537
49	0xbfc803f4ffea9d0d	-0.1876207589714131
50	0xbfe00cb3fffb42a1	-0.5015506744039905
51	0x3fba55d8ffda1590	0.10287243124374457
52	0x3fe09f85e06c7cda	0.5194730170514064
53	0xbfe5f386806c7cda	-0.6859772213246302
54	0xbfb1b0860012f277	-0.06909978391463222
55	0x3fd3bbd04004bcac	0.308338224905081
56	0xbfe332061ffd2c9a	-0.5998564362320338
57	0x3fac89abffd2c965	0.055737853029671304
58	0x3fe3ee3a5f0f6ea2	0.6228305679937487
59	0xbfa65b6df0f6ea2f	-0.04366630140744509
60	0xbfcffd0fc0000000	-0.24991032481193542
61	0xbfd7bb6640000000	-0.37081295251846313
62	0x3fb8886affa6bdad	0.09583157292831031
63	0xbfcadb067fd35ee2	-0.20980912438857674
64	0x3fd7e34ec0000000	0.37324875593185425
65	0xbfc3e5c800000000	-0.15544986724853516
66	0x3fcfd78f7abed0c6	0.24876588338304922
67	0xbfcad0d7fabed0c6	-0.20949840300966666
68	0xbfe0ebe2fffe993b	-0.5287947654622153
69	0x3fb43559fff4caf2	0.07893908022814936
70	0x3fb73f84ff4b5aef	0.09081298096439715
71	0x3fced19d805a5292	0.240771949455525
72	0x3fb204e900000000	0.07038742303848267
73	0xbfba072900000000	-0.10167175531387329
74	0x3fd152633ff8b554	0.2706535458299488
75	0x3fdc494b40074aac	0.4419735074308544
76	0xbfd4e2f58026092c	-0.32635247721204297
77	0xbfe33a86bfecfb5e	-0.600894331793693
78	0x3fcabc3d001605f0	0.20886957649422255
79	0x3fe462f3dffa7e83	0.6370791792468967
80	0xbfe3796e1ffd5301	-0.6085730194850784
81	0x3fe441835ffd5301	0.6329972147746902
82	0x3fe5827be0e0f8e2	0.6721782104648606
83	0xbfd7cfd401c1f1be	-0.3720598237194074
84	0xbfb51a3efcfd1b57	-0.08243173290712257
85	0xbfb2f2430302e4a9	-0.07400912116544824
86	0x3fe1f881de5a61cb	0.561585363658247
87	0x3f871ab069678fb1	0.011281374184313938
88	0xbfc1c76b03ec3289	-0.13889825526748137
89	0xbfe3e8d35f04f358	-0.6221711021276901
90	0x3fdb4b5b3e6c04e0	0.42647439094441886
91	0xbfdfc09dbe6c04e0	-0.4961313590611791
92	0xbfe2a66620036496	-0.5828123688944682
93	0xbfc0636bfff26d90	-0.12803411481295912
94	0x3fc89e59ff23131d	0.19233250577794872
95	0xbfd44f62df918983	-0.3173453505788972
96	0xbfdea4d480098453	-0.47881042960768133
97	0x3fcb9c1f801308a8	0.21570199731474315
98	0xbfe2d21e60131474	-0.5881492496925049
99	0xbfe0606edfeceb8c	-0.5117716191810913
100	0x3fd3827d40000000	0.30483943223953247
101	0x3f8b152000000000	0.013223886489868164
102	0xbf9f02a01d33476e	-0.030283452780003932
103	0xbfe2dae5bf1665ce	-0.5892208797624165
104	0xbfe65ce6c006d7c6	-0.6988404989740438
105	0xbfd488ea7ff25069	-0.3208566903570103
106	0xbfe066798001f36d	-0.5125091076039162
107	0x3fc160128007cd7e	0.13574439288604973
108	0x3fd0487d41c0251c	0.25442439480737433
109	0xbfe42a3b40e01296	-0.6301552073569663
110	0x3fe619805f5c6236	0.6906129705922186
111	0xbfdc346cbeb8c475	-0.44069975495501207
112	0x3fe396a7e0000000	0.6121405959129333
113	0x3fe0d9bba0000000	0.5265787243843079
114	0xbf97050800222d0b	-0.022480130203388387
115	0x3fe36c24e001119b	0.6069511771279851
116	0xbfc1b75080000000	-0.13840681314468384
117	0x3fca1cda00000000	0.20400547981262207
118	0x3fcf9bc280000000	0.24694091081619263
119	0x3fb011f500000000	0.06277400255203247
120	0x3fe3a9949f79f5e2	0.6144507517598721
121	0xbfe3b2ac7f79f5e2	-0.6155607690595242
122	0xbfb17496fffa045f	-0.06818526982716965
123	0x3fe1650fdfff403e	0.5435866713469364
124	0x3fe37fc9218c99e1	0.6093488364465963
125	0x3fe56b7a1e73661f	0.6693697542897928
126	0x3fdd75ef3e011813	0.460323153067635
127	0x3fd2296001fee7ed	0.2837753314485088
128	0x3fc1519dfff5d48e	0.13530325887737543
129	0x3fdc6a44c00515c1	0.44398611785831227
130	0xbfcfea797fe56849	-0.2493430971615587
131	0x3fe4a1935ff95a1b	0.6447235941403194
132	0xbf8647e81549f996	-0.010879338407218591
133	0xbfe02f80ffaad817	-0.5057988160613175
134	0xbfe1a63c00000000	-0.5515422821044922
135	0xbfd2120f40000000	-0.2823522686958313
136	0x3fe3d8aee0000000	0.6202005743980408
137	0x3fe394ee60000000	0.6119300723075867
138	0xbfe64f2ca0c68918	-0.6971648349902209
139	0xbfcdda353ce5dba0	-0.23322167848138253
140	0x3f4d877fe5cdea15	0.0009011625767095267
141	0x3fd840f5c00d1915	0.37896484141346437
142	0xbfde62e13e4e43bf	-0.47478514751952255
143	0xbfdd9eab01b1bc41	-0.46280932584244644
144	0xbfe143bbc0064bff	-0.5395182371597683
145	0xbfd94b67fff36806	-0.3952274322051611
146	0xbfdef33ce00cc8ff	-0.4835960567462649
147	0xbf87f00ffe66e043	-0.01168835158465254
148	0x3fa9c803fad99412	0.05035412251599082
149	0xbfd7a8637f5b3284	-0.369652628299072
150	0xbfe66890dffc0abd	-0.700264394254496
151	0x3fe2064adffc0abd	0.5632681250284218
152	0xbfe42bee1fff8401	-0.6303625702822729
153	0x3fe1614f5fff8401	0.5431286692584082
154	0x3fde39f5bd18d666	0.47228759256845476
155	0xbfc18118fa31acd4	-0.13675224510675454
156	0x3fb1c2e400000000	0.06938004493713379
157	0x3fc0162780000000	0.12567609548568726
158	0x3fe696a3612d10b4	0.7058884523362594
159	0x3fcd9a50fb4bbd42	0.23127186079316614
160	0x3fd6c0a442a002d5	0.35550791269637944
161	0xbfe1e23e01500172	-0.5588674569735714
162	0x3fe4a745201bb51b	0.645418703757659
163	0xbfe24be8401bb51b	-0.5717660190690909
164	0x3fcb935584fd3fa1	0.21543377870193317
165	0xbf9a78d427e9fd8e	-0.02585155004135014
166	0xbfe5a0db0004c40a	-0.6758856773723221
167	0xbfb61afeffd9e02e	-0.08634942766536888
168	0x3fe64beb5f5479b4	0.6967675077356064
169	0x3fe47cb2a0ab864c	0.6402218950353897
170	0x3fe2225b5ec503a9	0.5666939593285082
171	0x3fcb888984ebf175	0.21510428419413655
172	0xbfc715c78006e6f0	-0.18035215140644523
173	0x3fe480a02001b9c0	0.6407013535625126
174	0x3fc43060032f2501	0.15772628932453617
175	0x3fcfecc0fcd0daff	0.249412654347644
176	0xbfa34f6a00000000	-0.037715256214141846
177	0x3fbde56b00000000	0.11678189039230347
178	0x3fcc9107fc6250f3	0.2231760008186324
179	0x3fd81e7241ced789	0.3768582956939715
180	0xbfc1b3197fe8bd19	-0.13827818627894642
181	0x3fe0ae7f1ffa2f48	0.5213008522564246
182	0x3fa755d0075ab18c	0.04557657327436279
183	0xbfdebecbc0eb562c	-0.48039525832914154
184	0x3fd60122c001225a	0.3438193202059999
185	0x3fe3587bdfff6e7f	0.6045512556988369
186	0xbfdd3bbe3ffdb042	-0.4567714333450149
187	0x3fda6ab4bffdb042	0.41276282071226345
188	0xbfd5f844e0000000	-0.3432781398296356
189	0x3fc2f0fe00000000	0.1479794979095459
190	0x3fe3bbc2a02e4d96	0.6166699532063145
191	0xbfe27fc5402e4d96	-0.5780969861538547
192	0x3fa76b7200000000	0.04574161767959595
193	0x3fd0b6c000000000	0.2611541748046875
194	0x3faf22361543dc6f	0.060807886215052835
195	0xbfcd44ca8550f71c	-0.22866183766921544
196	0xbfd677f94137cbe8	-0.35107261055890016
197	0xbfbf441dfb20d076	-0.12213313466128448
198	0x3fc2db31007c9867	0.14731419109120056
199	0xbfda80f8a03e4c3a	-0.41412177704586706
200	0x3fe2817c60000000	0.5783063769340515
201	0x3fd3c02b40000000	0.30860406160354614
202	0xbfe089568002eec6	-0.5167648792480228
203	0x3fe095bee002eec6	0.5182794928764103
204	0x3fa2cd80077e8018	0.036724091448604834
205	0x3fddbb76bf102ff9	0.46456688555258513
206	0x3fde47633e46ba7a	0.4731071575323892
207	0xbfcfab353c8d7508	-0.2474123521487075
208	0xbfdff057e00bd985	-0.49904438857574746
209	0x3fdabd25c00bd985	0.41779464487572
210	0x3fb272ba06c45b2d	0.07206308999262197
211	0x3fd3eb3abe4ee935	0.3112322672347035
212	0x3fcc273a00260a5d	0.21994709975486418
213	0xbfd51a1160130510	-0.32971605665450543
214	0xbfd240cbdffeea78	-0.2852048575838704
215	0x3fde41923ffeea78	0.47275215386949965
216	0xbfd1ed1c3d101952	-0.2800970646207094
217	0xbfd35711a2efe6ae	-0.3021892634566069
218	0x3fd0425c00c2d284	0.25405025553053684
219	0xbfbc09e1030b4a19	-0.10952574085539658
220	0x3fd11fcc0021a2fa	0.26756572735625606
221	0xbfc0462c804345d6	-0.12714153540450351
222	0xbfd6c4b29ebca589	-0.3557554769673393
223	0xbfe433db80a1ad3b	-0.6313302528700783
224	0x3fda974a3f03e262	0.41548401025605675
225	0x3fe1946d207e0ed1	0.5493684420220807
226	0x3f97d108054a20b1	0.023258328745698168
227	0xbfdb1410e054a20a	-0.42309972674641527
228	0x3fdfb7114186b406	0.4955485477356095
229	0xbfc0df91030d6817	-0.1318227066902302
230	0xbfdb0ee3c0042526	-0.4227837920339702
231	0x3fd6249440042526	0.34598261119443163
232	0x3fd805e5c0e590b8	0.3753599532849523
233	0xbfe445334072c874	-0.6334472903020143
234	0x3fc7d6ed80000000	0.1862465739250183
235	0x3fd6fbf940000000	0.35912925004959106
236	0x3fde64e53eec8e5b	0.4749081720821999
237	0xbfe5bb2e7f764733	-0.6790993203632979
238	0x3fe5bbf360000000	0.6791931986808777
239	0x3fe06842e0000000	0.5127272009849548
240	0xbfdea5cbfffe16d5	-0.4788694381644352
241	0xbfc6c3870003d230	-0.1778420209954148
242	0xbfcb5f7c7fda6206	-0.21385151140999897
243	0x3fe4648d1ff6987e	0.6372743248255259
244	0x3fe0bb549ee6ca3e	0.522867498735941
245	0xbfd0bea81dcd9451	-0.2616367617650371
246	0x3fd0a12cbf0f2bad	0.2598373285115326
247	0xbfe0781abf8795db	-0.5146611920178502
248	0xbfdd9a2c2001eb83	-0.46253493428928766
249	0x3fd08878c001eb83	0.2583295703004113
250	0xbfe1da3720000000	-0.557887613773346
251	0xbfe04ed760000000	-0.509624183177948
252	0x3fd4ecc2c01c0e8e	0.32695072899535027
253	0x3fe3cf31dff1f8be	0.6190423368386957
254	0xbfa5a634001b1def	-0.04228365422528301
255	0x3fe516efe001b1e2	0.6590499282006557
