Transformer-Time-Series-Forecasting-main/save_model/best_train_1.pth (torch, 518471 bytes, 74 tensors)

encoder_layer.self_attn.in_proj_weight f8 [6, 2]
000000 00 00 00 00 ea fe e7 bf 00 00 00 e0 4b a4 d7 bf
       -0.7498674392700195 -0.36940285563468933
000010 00 00 00 80 74 66 d5 bf 00 00 00 00 97 e2 b1 3f
       -0.33437836170196533 0.06986373662948608
000020 00 00 00 80 9a a9 d3 bf 00 00 00 e0 ec 2f df bf
       -0.3072267770767212 -0.4873001277446747
000030 00 00 00 20 59 91 e4 3f 00 00 00 e0 35 d7 e8 3f
       0.6427426934242249 0.7762708067893982
000040 00 00 00 00 e0 f5 69 bf 00 00 00 40 d1 c9 d4 bf
       -0.0031690001487731934 -0.324817955493927
000050 00 00 00 40 17 f0 d6 3f 00 00 00 80 75 ad c4 3f
       0.3584039807319641 0.16154354810714722

encoder_layer.self_attn.in_proj_bias f8 [6]
000000 00 00 00 00 00 00 00 00 00 00 00 00 00 00 00 00
       0.0 0.0
000010 00 00 00 00 00 00 00 00 00 00 00 00 00 00 00 00
       0.0 0.0
000020 00 00 00 00 00 00 00 00 00 00 00 00 00 00 00 00
       0.0 0.0

encoder_layer.self_attn.out_proj.weight f8 [2, 2]
000000 00 00 00 00 40 66 95 3f 00 00 00 c0 2e 6e d8 bf
       0.020897865295410156 -0.381725013256073
000010 00 00 00 60 cf f9 e3 bf 00 00 00 00 3b 4d c8 bf
       -0.6242443919181824 -0.1898568868637085

encoder_layer.self_attn.out_proj.bias f8 [2]
000000 00 00 00 00 00 00 00 00 00 00 00 00 00 00 00 00
       0.0 0.0

encoder_layer.linear1.weight f8 [2048, 2]
000000 00 00 00 e0 e3 77 e0 bf 00 00 00 00 c3 f9 b0 bf
       -0.5146350264549255 -0.0663110613822937
000010 00 00 00 00 c8 a2 8c bf 00 00 00 c0 2b 23 da 3f
       -0.01398235559463501 0.4083966612815857
000020 00 00 00 c0 38 e2 da bf 00 00 00 00 e3 5d bf bf
       -0.420057475566864 -0.12252634763717651
000030 00 00 00 a0 60 f1 e3 3f 00 00 00 c0 e9 e8 e4 bf
       0.6232150197029114 -0.65343177318573
000040 00 00 00 00 05 e0 b6 bf 00 00 00 20 2d 2d e3 bf
       -0.08935576677322388 -0.5992646813392639
000050 00 00 00 e0 a9 77 e4 3f 00 00 00 c0 e4 22 da 3f
       0.6396073698997498 0.4083797335624695
000060 00 00 00 c0 45 9c da 3f 00 00 00 00 74 a3 e0 bf
       0.41578811407089233 -0.5199527740478516
000070 00 00 00 80 48 11 db bf 00 00 00 20 e5 a4 e3 3f
       -0.42292988300323486 0.6138787865638733
000080 00 00 00 00 04 2a c8 3f 00 00 00 00 7c f7 c3 bf
       0.1887822151184082 -0.1559901237487793
000090 00 00 00 00 17 7a c4 bf 00 00 00 80 d6 a1 c7 3f
       -0.15997588634490967 0.18462640047073364
0000a0 00 00 00 c0 30 2d d6 bf 00 00 00 40 50 d4 d2 3f
       -0.3465082049369812 0.2942085862159729
0000b0 00 00 00 80 9e 09 cc 3f 00 00 00 00 a4 3f a0 bf
       0.2190435528755188 -0.03173553943634033
0000c0 00 00 00 40 82 84 df 3f 00 00 00 80 1d a5 d6 bf
       0.492462694644928 -0.3538278341293335
0000d0 00 00 00 00 ab 41 bc 3f 00 00 00 40 42 e4 da bf
       0.11037701368331909 -0.4201818108558655
0000e0 00 00 00 40 8d a0 dd bf 00 00 00 c0 c1 eb d8 3f
       -0.4629243016242981 0.3893894553184509
0000f0 00 00 00 40 2c cf e1 bf 00 00 00 00 7a 2b c8 3f
       -0.5565396547317505 0.1888267993927002
000100 00 00 00 40 db b6 dc 3f 00 00 00 a0 4f de e2 3f
       0.448660671710968 0.5896375775337219
000110 00 00 00 80 29 7e c1 3f 00 00 00 c0 06 17 d6 3f
       0.13666266202926636 0.34515541791915894
000120 00 00 00 20 44 d6 e1 bf 00 00 00 20 2a 0c e5 3f
       -0.5574055314064026 0.6577349305152893
000130 00 00 00 00 94 af b9 3f 00 00 00 00 40 71 cf 3f
       0.10033535957336426 0.24564361572265625
000140 00 00 00 00 40 32 7b bf 00 00 00 80 41 59 c2 bf
       -0.006639719009399414 -0.14334887266159058
000150 00 00 00 a0 d9 66 e0 3f 00 00 00 00 e6 0a e4 bf
       0.512554943561554 -0.6263303756713867
000160 00 00 00 a0 10 f7 df bf 00 00 00 40 70 c1 d3 3f
       -0.49945464730262756 0.30868154764175415
000170 00 00 00 00 09 8b d0 3f 00 00 00 c0 42 39 d3 3f
       0.2584860324859619 0.30036991834640503
000180 00 00 00 60 9a 53 e0 bf 00 00 00 00 26 8c cf 3f
       -0.5102054476737976 0.24646449089050293
000190 00 00 00 c0 3a 32 e0 bf 00 00 00 40 23 ea dd 3f
       -0.5061315298080444 0.46741563081741333
0001a0 00 00 00 e0 f9 3e e0 3f 00 00 00 80 7d 77 c5 bf
       0.507687509059906 -0.16770905256271362
0001b0 00 00 00 c0 13 a6 d5 3f 00 00 00 40 08 0c e4 bf
       0.33826154470443726 -0.6264687776565552
0001c0 00 00 00 20 c4 29 e6 3f 00 00 00 c0 8d 44 d7 3f
       0.6925984025001526 0.36355918645858765
0001d0 00 00 00 80 34 54 c0 bf 00 00 00 a0 dd bb d0 bf
       -0.12756973505020142 -0.2614664137363434
0001e0 00 00 00 40 de fb df 3f 00 00 00 a0 5e 7b e0 3f
       0.4997478127479553 0.515059769153595
0001f0 00 00 00 a0 6f ca d6 bf 00 00 00 e0 31 d7 e1 3f
       -0.3561057150363922 0.5575188994407654
000200 00 00 00 00 04 cf ad bf 00 00 00 80 8e 39 e0 bf
       -0.0582200288772583 -0.507025957107544
000210 00 00 00 00 27 3c b2 3f 00 00 00 60 d6 df e4 3f
       0.07123035192489624 0.6523239016532898
000220 00 00 00 80 06 87 c7 3f 00 00 00 e0 1c 7b e3 bf
       0.18380814790725708 -0.6087784171104431
000230 00 00 00 40 88 e5 db 3f 00 00 00 00 73 6c c9 3f
       0.4358845353126526 0.19862210750579834
000240 00 00 00 00 a4 0a ca bf 00 00 00 a0 84 0b d9 bf
       -0.20344972610473633 -0.39132800698280334
000250 00 00 00 80 41 8a c4 bf 00 00 00 60 fa 75 e3 3f
       -0.16046923398971558 0.6081516146659851
000260 00 00 00 80 9d 5f ca 3f 00 00 00 c0 a6 bf d6 bf
       0.20604294538497925 -0.3554474711418152
000270 00 00 00 a0 29 31 e4 bf 00 00 00 80 97 bc d0 bf
       -0.6310012936592102 -0.2615107297897339
000280 00 00 00 40 48 6a d7 3f 00 00 00 00 f9 e5 c5 3f
       0.3658619523048401 0.17108070850372314
000290 00 00 00 40 93 20 d0 3f 00 00 00 c0 dc 96 d4 3f
       0.2519882321357727 0.32170790433883667
0002a0 00 00 00 20 74 85 dd bf 00 00 00 c0 e7 b3 cc bf
       -0.46127036213874817 -0.2242402732372284
0002b0 00 00 00 40 6d 81 e6 bf 00 00 00 80 a5 44 d0 3f
       -0.7032991647720337 0.2541898488998413
0002c0 00 00 00 a0 55 29 e2 3f 00 00 00 80 f2 69 c5 3f
       0.5675457119941711 0.16729575395584106
0002d0 00 00 00 60 4a ee e2 3f 00 00 00 e0 32 0f da bf
       0.5915881991386414 -0.4071776568889618
0002e0 00 00 00 00 d6 f1 ba bf 00 00 00 80 75 6c c0 3f
       -0.10525262355804443 0.12830990552902222
0002f0 00 00 00 00 53 ff b2 bf 00 00 00 e0 b8 1d e3 bf
       -0.07420843839645386 -0.5973781943321228
000300 00 00 00 00 f0 fc 9c bf 00 00 00 40 f0 35 d7 3f
       -0.028308629989624023 0.36266714334487915
000310 00 00 00 e0 00 ae e5 3f 00 00 00 00 00 98 d2 3f
       0.6774906516075134 0.29052734375
000320 00 00 00 c0 ef 76 d8 3f 00 00 00 80 a2 f3 dc bf
       0.3822593092918396 -0.452370285987854
000330 00 00 00 a0 37 dc e5 3f 00 00 00 c0 5f 20 d5 bf
       0.683131992816925 -0.330100953578949
000340 00 00 00 80 b6 76 d2 3f 00 00 00 00 e5 bb bb 3f
       0.28849565982818604 0.10833579301834106
000350 00 00 00 00 c2 0c ac bf 00 00 00 00 68 5b d0 3f
       -0.05478483438491821 0.25557899475097656
000360 00 00 00 00 a2 d1 a4 3f 00 00 00 c0 2f 6e ce bf
       0.04066187143325806 -0.23773762583732605
000370 00 00 00 c0 4e 45 e2 bf 00 00 00 80 fa 59 cc 3f
       -0.5709604024887085 0.22149592638015747
000380 00 00 00 00 2c 49 a6 3f 00 00 00 e0 b4 b8 d9 bf
       0.04352700710296631 -0.401898592710495
000390 00 00 00 80 25 f3 d9 bf 00 00 00 e0 41 fd e3 3f
       -0.4054654836654663 0.6246652007102966
0003a0 00 00 00 00 bc b0 a9 bf 00 00 00 20 d6 03 d4 bf
       -0.05017650127410889 -0.3127341568470001
0003b0 00 00 00 00 58 00 ad bf 00 00 00 c0 64 90 e4 bf
       -0.05664324760437012 -0.642626166343689
0003c0 00 00 00 00 fa ce cb 3f 00 00 00 00 20 f3 60 3f
       0.2172539234161377 0.0020690560340881348
0003d0 00 00 00 40 3a d2 dd 3f 00 00 00 80 13 ef cc bf
       0.46595627069473267 -0.22604602575302124
0003e0 00 00 00 e0 b5 ee de bf 00 00 00 40 fa 3f dd 3f
       -0.4833197295665741 0.45702987909317017
0003f0 00 00 00 20 f5 21 d9 bf 00 00 00 c0 3c d1 dc 3f
       -0.39269760251045227 0.4502708315849304
000400 00 00 00 00 88 d9 9b 3f 00 00 00 00 e7 24 bc bf
       0.02719700336456299 -0.10993808507919312
000410 00 00 00 00 52 00 cf 3f 00 00 00 00 d2 db b2 bf
       0.24219727516174316 -0.07366669178009033
000420 00 00 00 00 b8 de bc bf 00 00 00 80 da a7 c6 bf
       -0.11277341842651367 -0.17699748277664185
000430 00 00 00 c0 3b 0a db 3f 00 00 00 00 66 e8 c8 3f
       0.4224995970726013 0.19459223747253418
000440 00 00 00 00 30 50 95 bf 00 00 00 80 53 63 c5 3f
       -0.020813703536987305 0.1670936942100525
000450 00 00 00 00 16 cb b8 3f 00 00 00 80 3e 77 cf 3f
       0.09684884548187256 0.24582654237747192
000460 00 00 00 20 94 e9 e2 3f 00 00 00 c0 c7 91 d5 bf
       0.5910130143165588 -0.33702272176742554
000470 00 00 00 40 43 60 d2 bf 00 00 00 00 f6 8f e4 bf
       -0.2871254086494446 -0.642573356628418
000480 00 00 00 00 d5 f1 b3 3f 00 00 00 c0 cd 6b e6 bf
       0.07790881395339966 -0.7006596326828003
000490 00 00 00 40 49 f3 d9 bf 00 00 00 40 70 be d3 3f
       -0.4054740071296692 0.30849844217300415
0004a0 00 00 00 00 b0 06 a5 3f 00 00 00 40 93 a5 ca bf
       0.041066646575927734 -0.20817795395851135
0004b0 00 00 00 a0 de 76 d8 bf 00 00 00 a0 86 88 e6 3f
       -0.3822552263736725 0.7041657567024231
0004c0 00 00 00 60 ac 46 e2 3f 00 00 00 00 37 64 b7 3f
       0.5711271166801453 0.09137290716171265
0004d0 00 00 00 a0 22 c0 d4 bf 00 00 00 00 09 8f b5 3f
       -0.3242270052433014 0.08421379327774048
0004e0 00 00 00 40 06 88 d3 3f 00 00 00 00 40 7c 9e bf
       0.3051772713661194 -0.029770851135253906
0004f0 00 00 00 00 19 df d0 3f 00 00 00 c0 75 c6 dc bf
       0.26361680030822754 -0.4496130347251892
000500 00 00 00 80 ca 86 c8 bf 00 00 00 40 ed ca d3 bf
       -0.19161349534988403 -0.30926066637039185
000510 00 00 00 20 9b f4 e1 3f 00 00 00 60 03 83 e3 bf
       0.5611091256141663 -0.6097428202629089
000520 00 00 00 c0 96 e8 d6 bf 00 00 00 e0 10 5b dd bf
       -0.35794609785079956 -0.45868322253227234
000530 00 00 00 40 0c a1 e0 bf 00 00 00 40 68 50 df 3f
       -0.519659161567688 0.48928266763687134
000540 00 00 00 80 a6 13 e4 bf 00 00 00 60 cd 6f e3 3f
       -0.6273987293243408 0.607397735118866
000550 00 00 00 c0 94 b7 d7 3f 00 00 00 00 3f 43 d2 bf
       0.37057989835739136 -0.2853543758392334
000560 00 00 00 20 4a 26 e1 3f 00 00 00 60 96 50 e4 3f
       0.5359240174293518 0.6348373293876648
000570 00 00 00 00 a0 22 ca 3f 00 00 00 00 02 6a ac 3f
       0.20418167114257812 0.055496275424957275
000580 00 00 00 00 ed 8d b8 bf 00 00 00 40 14 f6 e1 bf
       -0.09591561555862427 -0.5612889528274536
000590 00 00 00 00 d8 f6 9f 3f 00 00 00 00 5a df ad bf
       0.03121507167816162 -0.05834466218948364
0005a0 00 00 00 00 8f 4e b3 3f 00 00 00 40 47 01 d5 3f
       0.07541745901107788 0.328203022480011
0005b0 00 00 00 c0 1d b8 de 3f 00 00 00 80 fd 94 e6 bf
       0.47998756170272827 -0.7056872844696045
0005c0 00 00 00 40 61 96 d6 3f 00 00 00 80 9c fc c5 bf
       0.3529284596443176 -0.1717715859413147
0005d0 00 00 00 60 5e 43 e0 bf 00 00 00 20 89 4a e6 3f
       -0.5082237124443054 0.6965985894203186
0005e0 00 00 00 40 11 fb da 3f 00 00 00 a0 85 87 e6 bf
       0.4215739369392395 -0.7040432095527649
0005f0 00 00 00 00 75 ab b8 bf 00 00 00 e0 2c cf e3 3f
       -0.09636622667312622 0.6190399527549744
000600 00 00 00 00 18 95 af 3f 00 00 00 e0 dc 26 e1 3f
       0.061684370040893555 0.5359939932823181
000610 00 00 00 e0 53 3d e5 3f 00 00 00 40 a0 02 d2 bf
       0.6637362837791443 -0.281410276889801
000620 00 00 00 c0 42 c0 db 3f 00 00 00 20 bd f2 e4 3f
       0.43360966444015503 0.6546311974525452
000630 00 00 00 40 4a 3c e0 bf 00 00 00 00 81 f8 b5 3f
       -0.5073596239089966 0.08582311868667603
000640 00 00 00 80 72 07 c5 bf 00 00 00 40 bf 0f e0 bf
       -0.16428977251052856 -0.5019222497940063
000650 00 00 00 e0 8b f5 e3 3f 00 00 00 00 91 1c e4 bf
       0.6237239241600037 -0.6284871101379395
000660 00 00 00 00 30 cf 98 3f 00 00 00 00 80 a0 75 bf
       0.02422785758972168 -0.005280017852783203
000670 00 00 00 60 1f 63 d6 bf 00 00 00 a0 fe f1 e1 3f
       -0.3497999608516693 0.5607903599739075
000680 00 00 00 00 e9 21 c0 bf 00 00 00 20 ee 29 e3 3f
       -0.12603485584259033 0.5988684296607971
000690 00 00 00 00 59 f7 d9 bf 00 00 00 40 38 7a e4 bf
       -0.40572190284729004 -0.6399194002151489
0006a0 00 00 00 40 1b 29 db bf 00 00 00 c0 46 95 cb bf
       -0.4243839383125305 -0.21549305319786072
0006b0 00 00 00 a0 47 02 e3 3f 00 00 00 00 90 2b 9f bf
       0.5940282940864563 -0.03043961524963379
0006c0 00 00 00 00 1f 35 c2 3f 00 00 00 20 b5 8c d0 bf
       0.14224612712860107 -0.25858810544013977
0006d0 00 00 00 40 57 c5 d0 3f 00 00 00 40 fc b7 d5 3f
       0.2620447278022766 0.33935457468032837
0006e0 00 00 00 40 0c 42 cc bf 00 00 00 00 50 ad c3 bf
       -0.220765620470047 -0.15372657775878906
0006f0 00 00 00 e0 39 3c e6 3f 00 00 00 60 c1 b5 e5 3f
       0.694851815700531 0.6784369349479675
000700 00 00 00 80 d7 12 c6 3f 00 00 00 00 62 12 c0 bf
       0.1724500060081482 -0.12556099891662598
000710 00 00 00 00 a9 38 db bf 00 00 00 40 6f ce d2 bf
       -0.42533326148986816 -0.29384976625442505
000720 00 00 00 c0 ba f5 e0 bf 00 00 00 00 5a 6b d2 3f
       -0.5299962759017944 0.28780221939086914
000730 00 00 00 40 d2 56 db 3f 00 00 00 60 cd 11 d5 bf
       0.4271741509437561 -0.329211562871933
000740 00 00 00 c0 55 83 e1 bf 00 00 00 00 d0 0e 9d 3f
       -0.5472820997238159 0.02837681770324707
000750 00 00 00 00 4c 09 a2 bf 00 00 00 60 36 34 de bf
       -0.035227179527282715 -0.47193679213523865
000760 00 00 00 00 32 cc cd 3f 00 00 00 80 b7 d4 d2 bf
       0.23279404640197754 -0.29423320293426514
000770 00 00 00 00 c9 5c b2 3f 00 00 00 40 7e 8a cd bf
       0.07172828912734985 -0.2307889759540558
000780 00 00 00 20 12 48 e4 bf 00 00 00 e0 77 ad e1 3f
       -0.6337977051734924 0.5524253249168396
000790 00 00 00 80 27 be c3 3f 00 00 00 00 ee 77 a1 3f
       0.15424054861068726 0.03411811590194702
0007a0 00 00 00 c0 e2 a8 cf bf 00 00 00 c0 49 1c d6 3f
       -0.24734148383140564 0.34547656774520874
0007b0 00 00 00 e0 0a 36 e3 3f 00 00 00 00 e2 6a d2 3f
       0.6003469824790955 0.28777360916137695
0007c0 00 00 00 c0 b5 98 de 3f 00 00 00 00 ce 9a a9 3f
       0.4780706763267517 0.050009191036224365
0007d0 00 00 00 c0 8e 15 cc bf 00 00 00 80 a1 1e d4 bf
       -0.21940788626670837 -0.3143695592880249
0007e0 00 00 00 40 70 6f d3 3f 00 00 00 80 b2 dd d5 bf
       0.30367666482925415 -0.34165632724761963
0007f0 00 00 00 e0 26 ea d5 bf 00 00 00 e0 2d 33 e1 3f
       -0.3424164950847626 0.5374974608421326

encoder_layer.linear1.bias f8 [2048]
000000 00 00 00 00 fe a3 a3 3f 00 00 00 00 fd f0 bc bf
       0.038360536098480225 -0.11305218935012817
000010 00 00 00 a0 2b 62 e5 3f 00 00 00 c0 a2 a4 d3 3f
       0.6682336926460266 0.3069235682487488
000020 00 00 00 00 08 75 c6 3f 00 00 00 c0 7f d1 d7 bf
       0.1754465103149414 -0.3721618056297302
000030 00 00 00 00 8b 7a bf bf 00 00 00 e0 bd 28 e3 3f
       -0.12296360731124878 0.5987233519554138
000040 00 00 00 20 39 da d6 bf 00 00 00 00 90 b2 aa 3f
       -0.3570692837238312 0.05214357376098633
000050 00 00 00 20 b5 6b e6 3f 00 00 00 40 c3 2f d2 3f
       0.7006478905677795 0.2841652035713196
000060 00 00 00 00 7d fa ca bf 00 00 00 00 8e ce c2 3f
       -0.21076929569244385 0.1469285488128662
000070 00 00 00 00 20 bc cd 3f 00 00 00 40 12 55 cf bf
       0.23230361938476562 -0.2447836697101593
000080 00 00 00 c0 fe 13 e5 bf 00 00 00 40 7d 6d d2 3f
       -0.6586908102035522 0.28793269395828247
000090 00 00 00 40 5e 02 e5 bf 00 00 00 40 52 2b da 3f
       -0.6565390825271606 0.4088941216468811
0000a0 00 00 00 e0 e7 e5 e0 bf 00 00 00 c0 b9 81 d2 3f
       -0.5280646681785583 0.2891678214073181
0000b0 00 00 00 40 eb 3a e2 bf 00 00 00 c0 94 49 d8 3f
       -0.5696922540664673 0.37949103116989136
0000c0 00 00 00 c0 4d 2c e4 bf 00 00 00 a0 c0 ad d0 bf
       -0.6304081678390503 -0.26060500741004944
0000d0 00 00 00 c0 0f 1d d6 3f 00 00 00 c0 fa c7 d1 3f
       0.34552377462387085 0.2778307795524597
0000e0 00 00 00 80 70 80 ce bf 00 00 00 80 07 56 e1 bf
       -0.23829466104507446 -0.5417516231536865
0000f0 00 00 00 00 73 2f b6 3f 00 00 00 c0 15 b0 de bf
       0.08666151762008667 -0.47949737310409546
000100 00 00 00 80 f9 77 e3 bf 00 00 00 c0 df 4a d2 3f
       -0.6083953380584717 0.285819947719574
000110 00 00 00 e0 51 85 de bf 00 00 00 40 a9 63 dd 3f
       -0.47688719630241394 0.45920783281326294
000120 00 00 00 20 3f f5 e5 3f 00 00 00 00 d0 04 9a bf
       0.6861873269081116 -0.02540898323059082
000130 00 00 00 80 43 74 e3 bf 00 00 00 40 21 39 d8 3f
       -0.6079423427581787 0.3784869313240051
000140 00 00 00 e0 9b 97 e2 3f 00 00 00 60 e4 55 e1 3f
       0.5810069441795349 0.5417348742485046
000150 00 00 00 40 50 24 d7 3f 00 00 00 00 49 3d cc bf
       0.3615913987159729 -0.2206202745437622
000160 00 00 00 00 17 30 e0 bf 00 00 00 00 2c 68 d0 3f
       -0.5058703422546387 0.25635814666748047
000170 00 00 00 80 68 8f c0 bf 00 00 00 c0 ed f1 d7 3f
       -0.12937647104263306 0.3741411566734314
000180 00 00 00 c0 bd 07 d6 bf 00 00 00 a0 2a 48 e1 3f
       -0.3442224860191345 0.5400593876838684
000190 00 00 00 40 99 05 df 3f 00 00 00 e0 61 66 e5 bf
       0.4847167134284973 -0.6687478423118591
0001a0 00 00 00 40 7e 6e ce bf 00 00 00 80 21 5e e4 bf
       -0.2377469837665558 -0.6364905834197998
0001b0 00 00 00 20 d5 26 e3 bf 00 00 00 00 5a 36 a7 bf
       -0.598490297794342 -0.04533654451370239
0001c0 00 00 00 20 2a e4 e4 bf 00 00 00 00 20 37 9c bf
       -0.6528521180152893 -0.027554035186767578
0001d0 00 00 00 c0 5f 52 de bf 00 00 00 a0 3f de d5 bf
       -0.473777711391449 -0.34168997406959534
0001e0 00 00 00 80 37 30 e0 bf 00 00 00 20 84 76 d9 bf
       -0.5058858394622803 -0.3978586494922638
0001f0 00 00 00 80 65 6e cd bf 00 00 00 20 a7 0e e5 bf
       -0.2299315333366394 -0.6580386757850647
000200 00 00 00 40 3a 21 df bf 00 00 00 80 7d b2 dd bf
       -0.48640304803848267 -0.46401917934417725
000210 00 00 00 e0 bc b1 e3 3f 00 00 00 00 6e c5 db bf
       0.6154465079307556 -0.43392515182495117
000220 00 00 00 40 f8 7b d5 3f 00 00 00 e0 c9 55 d8 bf
       0.33569151163101196 -0.38023611903190613
000230 00 00 00 00 78 46 94 3f 00 00 00 40 7c 66 d3 3f
       0.01980006694793701 0.30313020944595337
000240 00 00 00 80 ac db c8 bf 00 00 00 00 3c d7 98 3f
       -0.1942039132118225 0.024258553981781006
000250 00 00 00 60 30 44 d4 bf 00 00 00 c0 d6 7c d1 3f
       -0.31666192412376404 0.27324455976486206
000260 00 00 00 20 33 91 d3 bf 00 00 00 80 f8 03 c8 3f
       -0.30573728680610657 0.18762117624282837
000270 00 00 00 c0 1b 83 d8 3f 00 00 00 e0 52 a9 d7 bf
       0.38300222158432007 -0.36970970034599304
000280 00 00 00 00 78 b0 ba bf 00 00 00 c0 cf 68 d1 3f
       -0.10425519943237305 0.27202218770980835
000290 00 00 00 00 f5 88 b8 bf 00 00 00 00 12 bb bb bf
       -0.09583979845046997 -0.10832321643829346
0002a0 00 00 00 00 8c 5e e2 bf 00 00 00 00 03 b8 bd bf
       -0.5740413665771484 -0.11608904600143433
0002b0 00 00 00 e0 cd 76 e2 bf 00 00 00 c0 4d 17 cc bf
       -0.5770024657249451 -0.21946117281913757
0002c0 00 00 00 80 f2 aa d1 3f 00 00 00 c0 5d f9 e2 bf
       0.27605879306793213 -0.5929402112960815
0002d0 00 00 00 e0 06 b3 e2 3f 00 00 00 e0 fe 1f d6 bf
       0.5843538641929626 -0.3457028567790985
0002e0 00 00 00 e0 b3 79 e0 bf 00 00 00 00 09 35 b8 3f
       -0.5148562788963318 0.09455925226211548
0002f0 00 00 00 00 9d 79 ba bf 00 00 00 00 1d 8e b8 bf
       -0.10341817140579224 -0.09591847658157349
000300 00 00 00 40 e4 f5 d9 3f 00 00 00 c0 a2 4b de 3f
       0.40563303232192993 0.4733664393424988
000310 00 00 00 e0 14 12 e0 3f 00 00 00 80 53 3f cb bf
       0.5022072196006775 -0.2128700613975525
000320 00 00 00 00 5a 24 e2 bf 00 00 00 00 ea ed a6 3f
       -0.5669374465942383 0.04478389024734497
000330 00 00 00 00 3a 91 d1 3f 00 00 00 40 a6 44 da 3f
       0.2744889259338379 0.41044002771377563
000340 00 00 00 00 60 6e ba 3f 00 00 00 00 b0 08 ad bf
       0.10324668884277344 -0.056706905364990234
000350 00 00 00 20 a1 04 e2 bf 00 00 00 40 28 71 dc bf
       -0.5630651116371155 -0.44440656900405884
000360 00 00 00 00 88 76 c6 bf 00 00 00 00 7a 7d a1 bf
       -0.1754922866821289 -0.03416043519973755
000370 00 00 00 40 f7 a1 d8 3f 00 00 00 a0 36 9d d8 bf
       0.38488560914993286 -0.3845955431461334
000380 00 00 00 e0 45 4a e6 3f 00 00 00 00 f7 0e e0 bf
       0.6965665221214294 -0.5018267631530762
000390 00 00 00 00 56 4d cc 3f 00 00 00 00 ea 9a a9 bf
       0.22111010551452637 -0.05001002550125122
0003a0 00 00 00 00 14 54 9d bf 00 00 00 c0 d7 85 e0 bf
       -0.028641045093536377 -0.5163382291793823
0003b0 00 00 00 00 b9 54 c5 3f 00 00 00 00 c4 f3 c7 3f
       0.1666480302810669 0.18712663650512695
0003c0 00 00 00 20 df 07 e5 3f 00 00 00 c0 43 f9 e1 bf
       0.6572108864784241 -0.5616778135299683
0003d0 00 00 00 c0 a8 ed d6 3f 00 00 00 80 4b bb c5 3f
       0.3582555651664734 0.16977828741073608
0003e0 00 00 00 00 a3 29 b0 bf 00 00 00 e0 95 f0 e5 bf
       -0.06313532590866089 -0.6856183409690857
0003f0 00 00 00 00 dc 04 d7 bf 00 00 00 00 d2 05 a1 3f
       -0.35967159271240234 0.033247530460357666
000400 00 00 00 c0 56 13 d7 3f 00 00 00 00 ed 9e bb bf
       0.36055535078048706 -0.10789376497268677
000410 00 00 00 80 49 eb cf 3f 00 00 00 00 a0 6d c1 bf
       0.24936789274215698 -0.13615798950195312
000420 00 00 00 80 29 fb dd bf 00 00 00 00 a8 02 a6 bf
       -0.4684547185897827 -0.04298901557922363
000430 00 00 00 20 81 54 e4 3f 00 00 00 c0 46 cf d0 bf
       0.635315477848053 -0.26265114545822144
000440 00 00 00 a0 92 6c e5 3f 00 00 00 60 04 a2 e3 3f
       0.6695035099983215 0.6135274767875671
000450 00 00 00 c0 28 ba e0 bf 00 00 00 00 d4 0e b4 3f
       -0.5227245092391968 0.07835125923156738
000460 00 00 00 c0 7e 04 d5 3f 00 00 00 c0 d1 76 dd 3f
       0.3283993601799011 0.46037715673446655
000470 00 00 00 20 db 8a e5 3f 00 00 00 00 d1 7d bd 3f
       0.6732001900672913 0.11520105600357056
000480 00 00 00 a0 d9 6e d5 bf 00 00 00 40 1c 44 d4 3f
       -0.334890753030777 0.3166571259498596
000490 00 00 00 80 20 fe ce bf 00 00 00 a0 20 88 e5 3f
       -0.2421303391456604 0.6728671193122864
0004a0 00 00 00 00 42 32 ce 3f 00 00 00 40 56 29 df bf
       0.23590874671936035 -0.4868980050086975
0004b0 00 00 00 20 3a 9b e5 3f 00 00 00 80 0b 38 d0 3f
       0.6751986145973206 0.25342071056365967
0004c0 00 00 00 20 9d ef e1 3f 00 00 00 00 ff f4 d1 3f
       0.5604997277259827 0.2805783748626709
0004d0 00 00 00 c0 1d 49 dd bf 00 00 00 20 3f 6c e5 3f
       -0.45758765935897827 0.6694636940956116
0004e0 00 00 00 80 a4 5e e0 bf 00 00 00 80 d7 ed e4 bf
       -0.5115530490875244 -0.6540334224700928
0004f0 00 00 00 c0 2b 91 ca bf 00 00 00 80 80 c0 c9 3f
       -0.20755526423454285 0.20118719339370728
000500 00 00 00 40 21 ba d9 3f 00 00 00 00 0e 3c af 3f
       0.4019854664802551 0.06100505590438843
000510 00 00 00 80 b9 0f cd 3f 00 00 00 00 92 ca bc bf
       0.22704237699508667 -0.11246597766876221
000520 00 00 00 40 08 a2 d5 3f 00 00 00 80 ef d6 c6 3f
       0.3380146622657776 0.1784343123435974
000530 00 00 00 00 58 20 93 3f 00 00 00 20 13 04 e4 bf
       0.01867806911468506 -0.6254974007606506
000540 00 00 00 40 b0 f4 dd 3f 00 00 00 00 23 e0 ba bf
       0.46805959939956665 -0.10498255491256714
000550 00 00 00 00 eb 0d c3 bf 00 00 00 00 36 cf a0 3f
       -0.14886224269866943 0.032830893993377686
000560 00 00 00 20 71 52 e2 3f 00 00 00 40 6a cd d5 3f
       0.5725637078285217 0.34066253900527954
000570 00 00 00 20 8d 38 e4 3f 00 00 00 80 e4 fd c1 bf
       0.6319032311439514 -0.14056068658828735
000580 00 00 00 e0 07 a5 da bf 00 00 00 20 48 0c de bf
       -0.4163226783275604 -0.4694996178150177
000590 00 00 00 c0 5e 62 cd bf 00 00 00 00 c1 99 c1 bf
       -0.22956451773643494 -0.1375046968460083
0005a0 00 00 00 80 fb 2c ca bf 00 00 00 a0 26 69 dc bf
       -0.20449775457382202 -0.4439179003238678
0005b0 00 00 00 a0 d1 93 e0 3f 00 00 00 40 d7 e1 d2 3f
       0.5180442929267883 0.2950342297554016
0005c0 00 00 00 60 01 f2 e2 bf 00 00 00 60 30 28 e3 3f
       -0.5920416712760925 0.5986558794975281
0005d0 00 00 00 00 4c 0f cd 3f 00 00 00 40 b3 8e dc 3f
       0.22702932357788086 0.44620972871780396
0005e0 00 00 00 00 c2 9d b9 bf 00 00 00 40 f8 3a d4 3f
       -0.10006344318389893 0.31609922647476196
0005f0 00 00 00 20 fe 98 e3 3f 00 00 00 e0 78 35 e5 3f
       0.6124258637428284 0.6627773642539978
000600 00 00 00 00 ee 03 c8 bf 00 00 00 20 f6 32 e3 3f
       -0.18761992454528809 0.5999708771705627
000610 00 00 00 40 5f 3b e0 bf 00 00 00 40 f4 2d d6 3f
       -0.5072475671768188 0.34655481576919556
000620 00 00 00 a0 53 89 e4 3f 00 00 00 40 14 5f d5 3f
       0.6417635083198547 0.3339281678199768
000630 00 00 00 60 13 e9 e3 bf 00 00 00 00 c9 1d b0 3f
       -0.6222016215324402 0.06295448541641235
000640 00 00 00 40 62 e2 d8 3f 00 00 00 20 e2 0b d2 bf
       0.38881736993789673 -0.28197529911994934
000650 00 00 00 20 4a 17 e6 bf 00 00 00 00 a1 1c cb bf
       -0.6903429627418518 -0.21181118488311768
000660 00 00 00 e0 6c 8e e2 bf 00 00 00 40 59 64 e1 bf
       -0.5798859000205994 -0.5434995889663696
000670 00 00 00 a0 0c f8 e0 3f 00 00 00 60 29 91 da bf
       0.5302794575691223 -0.4151099622249603
000680 00 00 00 c0 93 f5 d2 3f 00 00 00 80 89 b8 c2 3f
       0.29623883962631226 0.14625662565231323
000690 00 00 00 80 d4 6f c3 3f 00 00 00 40 e7 62 e5 bf
       0.15185028314590454 -0.6683231592178345
0006a0 00 00 00 c0 e0 4a d3 3f 00 00 00 00 7a 7a d1 bf
       0.3014451861381531 -0.2731003761291504
0006b0 00 00 00 a0 d8 61 e6 bf 00 00 00 20 e3 f7 dc bf
       -0.6994441151618958 -0.45262983441352844
0006c0 00 00 00 00 90 cc 9b bf 00 00 00 00 b7 70 c9 3f
       -0.027147531509399414 0.1987522840499878
0006d0 00 00 00 00 68 87 c5 bf 00 00 00 00 2c 3d a3 3f
       -0.16819477081298828 0.03757607936859131
0006e0 00 00 00 60 76 b2 e3 3f 00 00 00 20 82 92 e5 3f
       0.6155349612236023 0.6741343140602112
0006f0 00 00 00 00 2c ac c0 3f 00 00 00 20 f4 63 e1 3f
       0.13025426864624023 0.5434513688087463
000700 00 00 00 80 91 87 cd 3f 00 00 00 60 51 7a e2 3f
       0.23069971799850464 0.5774313807487488
000710 00 00 00 c0 49 c5 cf bf 00 00 00 c0 75 e9 e0 bf
       -0.24820825457572937 -0.5284985303878784
000720 00 00 00 20 67 06 d0 bf 00 00 00 80 c7 8a c7 3f
       -0.25039079785346985 0.18392270803451538
000730 00 00 00 40 55 ee d2 3f 00 00 00 80 d1 a4 d6 bf
       0.2957966923713684 -0.3538097143173218
000740 00 00 00 40 e8 9b d9 bf 00 00 00 20 05 8a e5 bf
       -0.40014082193374634 -0.6730981469154358
000750 00 00 00 00 9b bb e1 bf 00 00 00 c0 d3 4b d4 3f
       -0.5541510581970215 0.31712812185287476
000760 00 00 00 00 72 42 c3 3f 00 00 00 00 98 3d d7 bf
       0.1504652500152588 -0.36313438415527344
000770 00 00 00 80 9a 98 e5 bf 00 00 00 c0 52 c8 d5 3f
       -0.6748783588409424 0.34035176038742065
000780 00 00 00 40 d6 be de 3f 00 00 00 00 48 de c6 3f
       0.4803977608680725 0.17865848541259766
000790 00 00 00 00 60 05 bb bf 00 00 00 00 02 76 ae bf
       -0.10555076599121094 -0.059494078159332275
0007a0 00 00 00 40 87 2e cf bf 00 00 00 00 e6 63 e6 bf
       -0.24360743165016174 -0.6996946334838867
0007b0 00 00 00 c0 e5 35 cd bf 00 00 00 00 37 a9 b7 bf
       -0.2282073199748993 -0.09242576360702515
0007c0 00 00 00 80 c2 68 e5 bf 00 00 00 a0 2e 7d e3 3f
       -0.6690380573272705 0.6090310215950012
0007d0 00 00 00 c0 b0 b7 d5 bf 00 00 00 00 60 10 d8 bf
       -0.3393365740776062 -0.37599945068359375
0007e0 00 00 00 a0 ef e2 d0 bf 00 00 00 c0 52 15 d4 3f
       -0.2638510763645172 0.31380146741867065
0007f0 00 00 00 00 d3 5d bb bf 00 00 00 40 82 28 e4 bf
       -0.10690039396286011 -0.629944920539856

encoder_layer.linear2.weight f8 [2, 2048]
000000 00 00 00 60 4e 49 8b bf 00 00 00 00 6c b2 64 bf
       -0.013323414139449596 -0.002526484429836273
000010 00 00 00 20 00 4c 96 bf 00 00 00 00 f0 9c 3f 3f
       -0.02177429385483265 0.00048237666487693787
000020 00 00 00 00 e8 0a 52 bf 00 00 00 80 e0 b1 79 3f
       -0.0011012330651283264 0.006273152306675911
000030 00 00 00 e0 20 43 94 3f 00 00 00 00 82 c3 60 3f
       0.019787324592471123 0.0020463503897190094
000040 00 00 00 00 00 d0 67 bf 00 00 00 00 0e 5d 71 3f
       -0.00290679931640625 0.00423913449048996
000050 00 00 00 a0 6f 21 95 bf 00 00 00 60 64 2f 93 3f
       -0.020635360851883888 0.018735473975539207
000060 00 00 00 00 26 68 7c 3f 00 00 00 60 b6 4a 95 3f
       0.0069352611899375916 0.020792817696928978
000070 00 00 00 a0 a6 6a 8b bf 00 00 00 40 7b b1 8c 3f
       -0.013387014158070087 0.014010393992066383
000080 00 00 00 c0 31 84 86 3f 00 00 00 00 10 ce 4d bf
       0.010994328185915947 -0.0009095743298530579
000090 00 00 00 00 b4 0a 74 bf 00 00 00 a0 2b f1 91 3f
       -0.004893019795417786 0.017521554604172707
0000a0 00 00 00 00 2a 9c 5f 3f 00 00 00 80 f7 a4 83 bf
       0.0019293222576379776 -0.009591992944478989
0000b0 00 00 00 60 b5 bb 95 3f 00 00 00 80 98 91 78 bf
       0.02122386358678341 -0.005998225882649422
0000c0 00 00 00 40 eb cb 95 bf 00 00 00 a0 c7 9d 83 bf
       -0.021285701543092728 -0.009578284807503223
0000d0 00 00 00 00 bf ca 60 bf 00 00 00 80 09 1e 93 bf
       -0.0020498018711805344 -0.01866926997900009
0000e0 00 00 00 00 c0 b5 33 3f 00 00 00 60 a4 aa 90 3f
       0.00030075013637542725 0.01627594791352749
0000f0 00 00 00 00 63 0e 6b bf 00 00 00 c0 65 09 8c 3f
       -0.0033027585595846176 0.01368979923427105
000100 00 00 00 c0 0d 38 89 3f 00 00 00 40 bf 45 83 3f
       0.012313945218920708 0.009410375729203224
000110 00 00 00 80 be 9e 94 bf 00 00 00 80 18 53 70 bf
       -0.020136810839176178 -0.003985496237874031
000120 00 00 00 60 81 fd 82 bf 00 00 00 00 45 94 62 3f
       -0.00927258562296629 0.0022679660469293594
000130 00 00 00 40 45 be 8f 3f 00 00 00 20 4e eb 91 3f
       0.015499630942940712 0.017499180510640144
000140 00 00 00 00 e1 1d 79 bf 00 00 00 00 3f 50 62 3f
       -0.006132010370492935 0.0022355299443006516
000150 00 00 00 80 f7 3c 7f 3f 00 00 00 80 dc f6 8e bf
       0.007626501843333244 -0.015119288116693497
000160 00 00 00 80 ec 20 73 bf 00 00 00 80 32 98 75 3f
       -0.004670070484280586 0.005272099748253822
000170 00 00 00 c0 fd 6f 85 bf 00 00 00 c0 44 70 80 3f
       -0.010467512533068657 0.008026635274291039
000180 00 00 00 00 17 ce 80 3f 00 00 00 80 f4 e8 7b 3f
       0.008205585181713104 0.006813960149884224
000190 00 00 00 20 e6 6a 8a bf 00 00 00 80 00 e3 71 3f
       -0.012899206019937992 0.004366876557469368
0001a0 00 00 00 e0 0b 5b 93 3f 00 00 00 00 63 f7 67 3f
       0.018902001902461052 0.0029255803674459457
0001b0 00 00 00 40 bf b3 90 bf 00 00 00 20 51 a4 91 3f
       -0.0163106806576252 0.01722838170826435
0001c0 00 00 00 60 34 16 95 3f 00 00 00 00 ab a7 63 3f
       0.020592516288161278 0.0023992862552404404
0001d0 00 00 00 a0 cb a1 94 bf 00 00 00 40 45 e4 89 3f
       -0.020148450508713722 0.012642422690987587
0001e0 00 00 00 e0 c9 07 93 3f 00 00 00 20 20 8d 91 bf
       0.018584398552775383 -0.017139913514256477
0001f0 00 00 00 80 9c 01 7b 3f 00 00 00 c0 a0 c3 8a 3f
       0.0065933335572481155 0.013068443164229393
000200 00 00 00 c0 6f d8 8b 3f 00 00 00 80 44 8a 7a 3f
       0.013596413657069206 0.006479518488049507
000210 00 00 00 00 27 2a 69 3f 00 00 00 a0 94 67 8b bf
       0.0030718576163053513 -0.013381158001720905
000220 00 00 00 40 30 1f 88 bf 00 00 00 c0 7d e0 84 bf
       -0.011778237298130989 -0.010193808004260063
000230 00 00 00 c0 54 e2 82 3f 00 00 00 40 a4 a6 8a 3f
       0.009220754727721214 0.01301315613090992
000240 00 00 00 80 7d 2c 76 bf 00 00 00 00 b5 1d 6d bf
       -0.005413522943854332 -0.0035542044788599014
000250 00 00 00 e0 05 2b 92 bf 00 00 00 00 b0 7b 40 3f
       -0.01774224452674389 0.0005030259490013123
000260 00 00 00 a0 2f e8 88 bf 00 00 00 80 f7 8b 84 bf
       -0.012161609716713428 -0.010032590478658676
000270 00 00 00 40 61 c0 8c 3f 00 00 00 e0 94 5d 95 bf
       0.01403881050646305 -0.02086479775607586
000280 00 00 00 60 6a e6 87 bf 00 00 00 00 86 11 92 bf
       -0.011669951491057873 -0.0176449716091156
000290 00 00 00 20 52 86 90 3f 00 00 00 00 f8 36 7d 3f
       0.016137393191456795 0.007132500410079956
0002a0 00 00 00 00 90 b4 20 3f 00 00 00 80 31 52 8b bf
       0.00012745149433612823 -0.013340365141630173
0002b0 00 00 00 40 10 60 86 3f 00 00 00 40 c8 74 96 bf
       0.0109254140406847 -0.021929863840341568
0002c0 00 00 00 00 7e 61 59 3f 00 00 00 20 45 74 92 3f
       0.0015491228550672531 0.018021659925580025
0002d0 00 00 00 60 cb 10 94 3f 00 00 00 c0 cb 2a 8c bf
       0.0195953156799078 -0.013753501698374748
0002e0 00 00 00 c0 77 98 84 3f 00 00 00 c0 d1 d8 8b 3f
       0.010056434199213982 0.013597143813967705
0002f0 00 00 00 a0 44 fd 93 bf 00 00 00 40 b3 0d 91 bf
       -0.019520828500390053 -0.016653824597597122
000300 00 00 00 40 b0 e9 87 3f 00 00 00 e0 9f fa 95 3f
       0.01167619414627552 0.021463869139552116
000310 00 00 00 60 42 45 93 3f 00 00 00 a0 ab b3 93 3f
       0.018818890675902367 0.01924007572233677
000320 00 00 00 80 a5 b0 72 3f 00 00 00 20 a6 5a 91 bf
       0.0045629944652318954 -0.016947360709309578
000330 00 00 00 40 93 61 85 3f 00 00 00 40 63 bc 89 3f
       0.01044001616537571 0.012566352263092995
000340 00 00 00 e0 3b f7 94 bf 00 00 00 00 88 d0 6b 3f
       -0.020474372431635857 0.0033953338861465454
000350 00 00 00 00 f0 dc 68 3f 00 00 00 c0 01 be 93 bf
       0.003035038709640503 -0.01927950605750084
000360 00 00 00 a0 82 9e 92 3f 00 00 00 80 2c 83 96 bf
       0.018182793632149696 -0.02198476344347
000370 00 00 00 00 54 1f 4f bf 00 00 00 c0 a2 04 8d bf
       -0.0009497795253992081 -0.0141689982265234
000380 00 00 00 80 2a e1 7b bf 00 00 00 20 2d 5c 91 3f
       -0.006806531921029091 0.016953187063336372
000390 00 00 00 00 fa 6f 68 3f 00 00 00 00 de af 91 bf
       0.0029830820858478546 -0.01727244257926941
0003a0 00 00 00 60 4f 04 94 bf 00 00 00 00 88 14 74 bf
       -0.01954769156873226 -0.004902392625808716
0003b0 00 00 00 c0 30 21 83 3f 00 00 00 c0 5b d6 8f 3f
       0.009340649470686913 0.015545574948191643
0003c0 00 00 00 40 e1 cc 92 bf 00 00 00 20 95 e6 92 3f
       -0.018359679728746414 0.018457727506756783
0003d0 00 00 00 60 0e 36 92 3f 00 00 00 00 50 95 74 bf
       0.01778433285653591 -0.005025207996368408
0003e0 00 00 00 80 e0 66 76 bf 00 00 00 00 a8 81 4f 3f
       -0.005469204857945442 0.0009615011513233185
0003f0 00 00 00 20 bd 4b 92 3f 00 00 00 00 9e 30 63 3f
       0.01786704547703266 0.0023425184190273285
000400 00 00 00 a0 1c 97 95 bf 00 00 00 40 8f 0d 83 3f
       -0.02108425833284855 0.009303206577897072
000410 00 00 00 40 a4 ed 8d 3f 00 00 00 00 3a 2a 55 bf
       0.014613421633839607 -0.0012918058782815933
000420 00 00 00 e0 65 f2 93 bf 00 00 00 a0 df da 86 bf
       -0.019479362294077873 -0.011159655638039112
000430 00 00 00 80 04 89 72 bf 00 00 00 60 62 ce 8b bf
       -0.004525201395153999 -0.013577240519225597
000440 00 00 00 c0 17 b3 8f 3f 00 00 00 20 88 50 93 3f
       0.015478311106562614 0.018861891701817513
000450 00 00 00 00 af 96 6b bf 00 00 00 00 ac 7d 52 3f
       -0.003367749974131584 0.0011285953223705292
000460 00 00 00 c0 0a 63 8c 3f 00 00 00 00 5c 69 69 bf
       0.013860782608389854 -0.0031019970774650574
000470 00 00 00 60 56 11 93 bf 00 00 00 00 dc 95 71 bf
       -0.018620824441313744 -0.004293307662010193
000480 00 00 00 e0 0b 24 82 bf 00 00 00 00 bf b4 80 3f
       -0.008857815526425838 0.008157245814800262
000490 00 00 00 00 70 32 6e bf 00 00 00 e0 15 a7 91 bf
       -0.00368615984916687 -0.01723894290626049
0004a0 00 00 00 e0 0f 61 94 bf 00 00 00 20 b1 97 94 3f
       -0.019901512190699577 0.020109908655285835
0004b0 00 00 00 00 d9 1c 66 3f 00 00 00 e0 e3 9a 96 3f
       0.0026993025094270706 0.022075233981013298
0004c0 00 00 00 60 21 da 81 bf 00 00 00 00 30 07 45 3f
       -0.008716831915080547 0.0006417259573936462
0004d0 00 00 00 00 3a 3d 50 3f 00 00 00 00 f3 e2 7a 3f
       0.000991160050034523 0.006564091891050339
0004e0 00 00 00 c0 4c 59 89 3f 00 00 00 00 bf ff 91 bf
       0.012377357110381126 -0.0175771564245224
0004f0 00 00 00 60 fb 8f 95 bf 00 00 00 00 b6 bd 74 3f
       -0.02105705998837948 0.005063734948635101
000500 00 00 00 e0 be 87 94 bf 00 00 00 60 b0 4a 91 3f
       -0.02004907839000225 0.016886478289961815
000510 00 00 00 00 56 6f 51 bf 00 00 00 c0 bb c0 8f bf
       -0.0010641422122716904 -0.015504328534007072
000520 00 00 00 c0 64 a0 80 3f 00 00 00 80 c3 c1 75 bf
       0.00811842642724514 -0.0053117405623197556
000530 00 00 00 20 80 89 84 bf 00 00 00 00 8e 82 5b 3f
       -0.010027886368334293 0.0016790758818387985
000540 00 00 00 40 aa b6 82 bf 00 00 00 80 eb 82 78 3f
       -0.009137468412518501 0.0059842299669981
000550 00 00 00 80 83 3b 94 bf 00 00 00 00 a3 f2 94 bf
       -0.019758276641368866 -0.020456835627555847
000560 00 00 00 20 84 bb 91 3f 00 00 00 00 55 88 66 3f
       0.017316879704594612 0.0027505550533533096
000570 00 00 00 c0 a6 77 91 bf 00 00 00 c0 a2 90 8d bf
       -0.01705799624323845 -0.01443602703511715
000580 00 00 00 60 95 95 95 3f 00 00 00 e0 38 27 92 3f
       0.021078428253531456 0.017727745696902275
000590 00 00 00 00 57 aa 64 3f 00 00 00 40 fc 10 82 bf
       0.0025226306170225143 -0.008821459487080574
0005a0 00 00 00 00 10 f0 75 3f 00 00 00 a0 37 70 85 bf
       0.005355894565582275 -0.010467943735420704
0005b0 00 00 00 00 0f 31 61 3f 00 00 00 80 8f b2 81 3f
       0.0020985882729291916 0.008641358464956284
0005c0 00 00 00 80 db a5 75 3f 00 00 00 40 f2 e7 87 3f
       0.005285127088427544 0.011672871187329292
0005d0 00 00 00 00 6d 09 71 bf 00 00 00 00 e1 04 63 3f
       -0.004159379750490189 0.0023216623812913895
0005e0 00 00 00 00 7c f9 54 3f 00 00 00 00 f4 27 55 3f
       0.0012801848351955414 0.0012912638485431671
0005f0 00 00 00 00 80 c7 04 bf 00 00 00 c0 d3 21 88 3f
       -3.9633363485336304e-05 0.011783270165324211
000600 00 00 00 00 30 73 2d 3f 00 00 00 60 6b 45 80 bf
       0.00022468529641628265 -0.007944907061755657
000610 00 00 00 40 ad 76 85 3f 00 00 00 40 02 1f 95 bf
       0.010480264201760292 -0.02062610164284706
000620 00 00 00 c0 9c 7a 8d bf 00 00 00 c0 b5 df 8f bf
       -0.014394020661711693 -0.015563411638140678
000630 00 00 00 a0 6a 9e 96 3f 00 00 00 20 31 fb 93 3f
       0.022088686004281044 0.019512908533215523
000640 00 00 00 40 a6 af 83 3f 00 00 00 00 80 ca 7a 3f
       0.009612368419766426 0.006540775299072266
000650 00 00 00 20 f1 ac 95 3f 00 00 00 00 03 60 8d bf
       0.021167533472180367 -0.01434328407049179
000660 00 00 00 c0 62 cf 83 3f 00 00 00 00 e8 5e 3c 3f
       0.009672900661826134 0.0004329029470682144
000670 00 00 00 00 74 36 5d 3f 00 00 00 c0 af 51 88 3f
       0.0017830021679401398 0.011874554678797722
000680 00 00 00 00 d4 72 55 bf 00 00 00 60 95 cf 94 3f
       -0.0013091154396533966 0.020323118194937706
000690 00 00 00 20 a3 65 95 3f 00 00 00 20 ec ca 92 bf
       0.02089552767574787 -0.018352212384343147
0006a0 00 00 00 80 8e ec 79 3f 00 00 00 00 c6 30 62 3f
       0.006329113617539406 0.0022205226123332977
0006b0 00 00 00 c0 9f bb 94 bf 00 00 00 00 a8 ed 6e bf
       -0.020246978849172592 -0.0037754327058792114
0006c0 00 00 00 80 9b 4d 71 3f 00 00 00 a0 55 e0 92 bf
       0.004224402830004692 -0.018433893099427223
0006d0 00 00 00 00 64 c5 6c 3f 00 00 00 c0 cb ce 95 bf
       0.0035120919346809387 -0.021296676248311996
0006e0 00 00 00 c0 e9 c5 81 3f 00 00 00 c0 96 a0 8b 3f
       0.008678270503878593 0.013489892706274986
0006f0 00 00 00 00 64 e1 4e bf 00 00 00 80 94 79 8c bf
       -0.0009423960000276566 -0.013903770595788956
000700 00 00 00 00 32 6e 6b 3f 00 00 00 80 0d 29 74 3f
       0.0033484436571598053 0.0049219634383916855
000710 00 00 00 a0 5b 6c 8c bf 00 00 00 60 8f 81 90 3f
       -0.013878551311790943 0.016119232401251793
000720 00 00 00 60 7e 13 90 3f 00 00 00 80 33 6d 93 bf
       0.015699362382292747 -0.018971256911754608
000730 00 00 00 00 81 aa 75 bf 00 00 00 00 b5 2d 82 3f
       -0.005289558321237564 0.008876241743564606
000740 00 00 00 40 bd 5a 89 3f 00 00 00 40 c8 ca 7f bf
       0.012380102649331093 -0.0077617475762963295
000750 00 00 00 c0 6e ce 82 3f 00 00 00 20 c2 b1 91 3f
       0.009182801470160484 0.01727965660393238
000760 00 00 00 40 27 2e 92 bf 00 00 00 40 46 60 7e bf
       -0.01775418594479561 -0.007416033186018467
000770 00 00 00 80 eb ab 78 bf 00 00 00 00 8c 18 82 3f
       -0.0060233306139707565 0.00883588194847107
000780 00 00 00 a0 a1 7c 93 3f 00 00 00 c0 df 41 96 bf
       0.019030118361115456 -0.02173566445708275
000790 00 00 00 00 b2 a3 73 3f 00 00 00 20 5e 27 86 bf
       0.004794783890247345 -0.010817275382578373
0007a0 00 00 00 c0 86 20 8d 3f 00 00 00 00 2e 64 54 bf
       0.014222195371985435 -0.0012445878237485886
0007b0 00 00 00 e0 0d 75 95 bf 00 00 00 a0 44 a8 8f bf
       -0.02095433883368969 -0.015457664616405964
0007c0 00 00 00 00 1e 9c 59 3f 00 00 00 00 e4 4c 5c bf
       0.0015631001442670822 -0.001727316528558731
0007d0 00 00 00 40 44 f9 8f 3f 00 00 00 00 7c 0a 70 bf
       0.015612157061696053 -0.003916248679161072
0007e0 00 00 00 a0 a6 bc 90 3f 00 00 00 c0 b7 04 8a 3f
       0.016344645991921425 0.012704310938715935
0007f0 00 00 00 60 59 10 90 3f 00 00 00 40 d8 63 85 bf
       0.0156873669475317 -0.010444344952702522

encoder_layer.linear2.bias f8 [2]
000000 00 00 00 c0 72 d8 81 bf 00 00 00 00 58 1d 66 3f
       -0.008713623508810997 0.002699539065361023

encoder_layer.norm1.weight f8 [2]
000000 00 00 00 00 00 00 f0 3f 00 00 00 00 00 00 f0 3f
       1.0 1.0

encoder_layer.norm1.bias f8 [2]
000000 00 00 00 00 00 00 00 00 00 00 00 00 00 00 00 00
       0.0 0.0

encoder_layer.norm2.weight f8 [2]
000000 00 00 00 00 00 00 f0 3f 00 00 00 00 00 00 f0 3f
       1.0 1.0

encoder_layer.norm2.bias f8 [2]
000000 00 00 00 00 00 00 00 00 00 00 00 00 00 00 00 00
       0.0 0.0

transformer_encoder.layers.0.self_attn.in_proj_weight f8 [6, 2]
000000 00 00 00 00 ea fe e7 bf 00 00 00 e0 4b a4 d7 bf
       -0.7498674392700195 -0.36940285563468933
000010 00 00 00 80 74 66 d5 bf 00 00 00 00 97 e2 b1 3f
       -0.33437836170196533 0.06986373662948608
000020 00 00 00 80 9a a9 d3 bf 00 00 00 e0 ec 2f df bf
       -0.3072267770767212 -0.4873001277446747
000030 00 00 00 20 59 91 e4 3f 00 00 00 e0 35 d7 e8 3f
       0.6427426934242249 0.7762708067893982
000040 00 00 00 00 e0 f5 69 bf 00 00 00 40 d1 c9 d4 bf
       -0.0031690001487731934 -0.324817955493927
000050 00 00 00 40 17 f0 d6 3f 00 00 00 80 75 ad c4 3f
       0.3584039807319641 0.16154354810714722

transformer_encoder.layers.0.self_attn.in_proj_bias f8 [6]
000000 1d c2 6e d8 b4 10 2d 37 ac 88 9c 47 a8 61 32 b7
       6.516656556467342e-43 -8.24253800996269e-43
000010 77 df bb 12 db 5b 9b b3 9f 63 7b 23 ad 9d 8c b3
       -4.2563575551612e-60 -2.225966585771113e-60
000020 83 98 cc f7 eb 33 c6 37 5a 59 53 52 b1 69 aa b7
       5.0975173244347584e-40 -1.5160239270578757e-40

transformer_encoder.layers.0.self_attn.out_proj.weight f8 [2, 2]
000000 00 00 00 00 40 66 95 3f 00 00 00 c0 2e 6e d8 bf
       0.020897865295410156 -0.381725013256073
000010 00 00 00 60 cf f9 e3 bf 00 00 00 00 3b 4d c8 bf
       -0.6242443919181824 -0.1898568868637085

transformer_encoder.layers.0.self_attn.out_proj.bias f8 [2]
000000 51 1d 31 58 2b 35 d1 37 27 1d 31 58 2b 35 d1 b7
       7.901384954151476e-40 -7.901384954151407e-40
