Transformer-Time-Series-Forecasting-main/save_model/best_train_0.pth (torch, 259059 bytes, 38 tensors)

encoder_layer.self_attn.in_proj_weight f8 [6, 2]
0.406089723110199 0.33381086587905884 -0.35026806592941284 0.21155661344528198 -0.43549349904060364 0.3916115164756775 0.35362082719802856 -0.2121579647064209
0.3738787770271301 0.04397493600845337 -0.2935946583747864 0.8312678933143616
00000000: 0000 00c0 5ffd d93f 0000 0040 285d d53f
00000010: 0000 00c0 ca6a d6bf 0000 0080 4914 cb3f
00000020: 0000 0020 20df dbbf 0000 00c0 2910 d93f
00000030: 0000 0040 b9a1 d63f 0000 0000 fe27 cbbf
00000040: 0000 0040 a1ed d73f 0000 0000 e283 a63f
00000050: 0000 0040 41ca d2bf 0000 0020 bf99 ea3f

encoder_layer.self_attn.in_proj_bias f8 [6]
0.0 0.0 0.0 0.0 0.0 0.0
00000000: 0000 0000 0000 0000 0000 0000 0000 0000
00000010: 0000 0000 0000 0000 0000 0000 0000 0000
00000020: 0000 0000 0000 0000 0000 0000 0000 0000

encoder_layer.self_attn.out_proj.weight f8 [2, 2]
-0.03344148397445679 0.4175131916999817 0.4589480757713318 -0.6517108678817749
00000000: 0000 0000 3e1f a1bf 0000 0040 89b8 da3f
00000010: 0000 00c0 675f dd3f 0000 00c0 d0da e4bf

encoder_layer.self_attn.out_proj.bias f8 [2]
0.0 0.0
00000000: 0000 0000 0000 0000 0000 0000 0000 0000

encoder_layer.linear1.weight f8 [2048, 2]
-0.7014999985694885 0.7039925456047058 0.6173078417778015 -0.42172136902809143 0.5695069432258606 -0.1149490475654602 -0.3117130994796753 0.29719895124435425
0.2767072319984436 -0.4258181154727936 -0.2549121379852295 0.48116523027420044 0.3275218605995178 0.23462820053100586 0.09122711420059204 0.20700055360794067
-0.4760631322860718 -0.48193252086639404 -0.03581470251083374 -0.23455438017845154 -0.28180208802223206 -0.13785654306411743 -0.44517019391059875 -0.15718340873718262
0.6191762089729309 0.0243721604347229 0.0073378682136535645 -0.24559128284454346 0.6560981869697571 0.5106094479560852 0.21425586938858032 0.24361282587051392
0.4179779887199402 -0.036487042903900146 0.2548813819885254 -0.5992558002471924 0.6235645413398743 -0.021632134914398193 -0.6249883770942688 0.40447288751602173
-0.10097819566726685 -0.6409890651702881 0.2761046886444092 -0.5867868065834045 0.30288809537887573 -0.40702274441719055 0.6738300919532776 -0.07392716407775879
0.005434095859527588 -0.5090718865394592 -0.13087016344070435 -0.31105342507362366 -0.19613003730773926 -0.18251121044158936 0.5536630749702454 0.0666305422782898
0.14619368314743042 0.41924411058425903 0.2734370231628418 0.5433849692344666 -0.02524542808532715 0.2603378891944885 -0.39087390899658203 -0.689886212348938
-0.1578061580657959 0.4255133271217346 -0.690941333770752 -0.6325670480728149 0.5819513201713562 0.6685658097267151 -0.5278877019882202 -0.5252507925033569
-0.5516917705535889 0.4686744809150696 0.2660903334617615 0.3660469651222229 -0.675444483757019 0.20720040798187256 0.06768178939819336 -0.3484523594379425
0.24899977445602417 0.08830660581588745 0.07703244686126709 0.048511803150177 -0.5589364171028137 -0.31260940432548523 -0.4506482481956482 0.6276587843894958
0.46129554510116577 -0.16876786947250366 -0.6615027189254761 -0.6481597423553467 0.5914787650108337 -0.0988854169845581 0.09354722499847412 -0.4847109913825989
0.3078414797782898 0.33794909715652466 0.23799407482147217 -0.6956948637962341 0.30779844522476196 -0.018055379390716553 0.03047722578048706 -0.10250729322433472
0.40795522928237915 0.5269314646720886 -0.6061307787895203 -0.1301538348197937 0.23287659883499146 -0.09203416109085083 0.6984531283378601 -0.03478354215621948
0.14890867471694946 0.6371592879295349 0.08177340030670166 0.5358790755271912 -0.46935874223709106 -0.14025521278381348 0.08070546388626099 -0.11188346147537231
0.539021909236908 0.586446225643158 -0.13585007190704346 -0.1992664933204651 -0.053510069847106934 -0.5387293696403503 0.3962649703025818 -0.016082286834716797
0.027909278869628906 -0.6285415291786194 -0.27513185143470764 -0.5606704950332642 -0.5386453866958618 -0.5305305123329163 0.11003381013870239 0.19918286800384521
-0.28339117765426636 0.25021177530288696 0.09571152925491333 -0.3910030424594879 0.04709595441818237 -0.4070323407649994 -0.3955095708370209 -0.31432393193244934
-0.09697550535202026 -0.5743182301521301 -0.5408462285995483 0.20703071355819702 -0.5740185976028442 0.4009215235710144 0.6503426432609558 0.2612515091896057
0.2728698253631592 0.6015283465385437 -0.6910400390625 0.21352893114089966 -0.22854802012443542 0.42507368326187134 -0.25199997425079346 0.281657338142395
-0.09363698959350586 0.3074943423271179 0.21421879529953003 0.5444894433021545 -0.49423283338546753 0.24940896034240723 0.5541000962257385 0.5661217570304871
-0.15613174438476562 -0.4570389986038208 0.6390675902366638 -0.052859723567962646 0.106045663356781 0.642633855342865 -0.01947927474975586 0.16040271520614624
-0.3238261044025421 0.04812866449356079 -0.032364070415496826 -0.23128798604011536 -0.1702224612236023 0.44894927740097046 0.172990620136261 -0.17004603147506714
0.44904154539108276 -0.16845941543579102 -0.43807080388069153 0.1981966495513916 -0.3066973090171814 0.6463622450828552 0.41485267877578735 -0.11667639017105103
-0.5259482264518738 -0.5698981285095215 0.2577224373817444 -0.14126324653625488 -0.27093544602394104 0.2786370515823364 -0.39470699429512024 0.2848547101020813
-0.16464871168136597 -0.3191509246826172 -0.010145246982574463 0.7010971903800964 0.21086955070495605 -0.47808054089546204 0.6278871893882751 0.6129685044288635
-0.15265756845474243 -0.007571160793304443 -0.2546471953392029 0.535998523235321 -0.6461318135261536 -0.05307275056838989 0.6230821013450623 -0.030627131462097168
0.007184445858001709 -0.13905155658721924 -0.6414895057678223 -0.11089187860488892 0.2390708327293396 -0.2589608430862427 0.2479904294013977 0.10671615600585938
-0.44619467854499817 0.0649535059928894 0.46698516607284546 0.47204381227493286 0.16140741109848022 -0.2133038341999054 0.3650129437446594 -0.68995201587677
-0.19424587488174438 -0.005035877227783203 0.6121565699577332 -0.15024054050445557 0.19185984134674072 -0.3941304385662079 -0.2683853209018707 -0.6000977754592896
-0.6155336499214172 -0.14982867240905762 -0.2396305501461029 0.23876678943634033 0.5598723292350769 -0.21951478719711304 -0.6456187963485718 0.6035566926002502
-0.5182284712791443 0.17016500234603882 -0.2368832528591156 -0.022893249988555908 -0.45778051018714905 0.0741996169090271 0.2052762508392334 -0.2934500277042389
00000000: 0000 0020 b072 e6bf 0000 0060 1b87 e63f
00000010: 0000 0060 fcc0 e33f 0000 00a0 7bfd dabf
00000020: 0000 00a0 6639 e23f 0000 0000 4d6d bdbf
00000030: 0000 0080 1bf3 d3bf 0000 00c0 4e05 d33f
00000040: 0000 0040 92b5 d13f 0000 00a0 9a40 dbbf
00000050: 0000 0000 7b50 d0bf 0000 0040 69cb de3f
00000060: 0000 0040 1ef6 d43f 0000 0000 4c08 ce3f
00000070: 0000 0000 a95a b73f 0000 0080 fe7e ca3f
00000080: 0000 0080 d177 debf 0000 0080 fbd7 debf
00000090: 0000 0000 4e56 a2bf 0000 00c0 e005 cebf
000000a0: 0000 00a0 0b09 d2bf 0000 0080 48a5 c1bf
000000b0: 0000 0020 ab7d dcbf 0000 0000 961e c4bf
000000c0: 0000 00a0 4ad0 e33f 0000 0000 04f5 983f
000000d0: 0000 0000 500e 7e3f 0000 0000 896f cfbf
000000e0: 0000 00a0 c1fe e43f 0000 00a0 e956 e03f
000000f0: 0000 0080 bc6c cb3f 0000 0080 b42e cf3f
00000100: 0000 00c0 26c0 da3f 0000 0000 6eae a2bf
00000110: 0000 0000 fa4f d03f 0000 0080 1a2d e3bf
00000120: 0000 00a0 3df4 e33f 0000 0000 bc26 96bf
00000130: 0000 00a0 e7ff e3bf 0000 0040 e2e2 d93f
00000140: 0000 0000 b5d9 b9bf 0000 0080 fb82 e4bf
00000150: 0000 0000 b3ab d13f 0000 0020 f5c6 e2bf
00000160: 0000 00c0 8462 d33f 0000 0020 a90c dabf
00000170: 0000 0020 0490 e53f 0000 0000 e4ec b2bf
00000180: 0000 0000 1042 763f 0000 0020 514a e0bf
00000190: 0000 0080 5ac0 c0bf 0000 00a0 4ce8 d3bf
000001a0: 0000 0000 ca1a c9bf 0000 0000 875c c7bf
000001b0: 0000 00a0 9bb7 e13f 0000 0000 b30e b13f
000001c0: 0000 0080 79b6 c23f 0000 0040 e5d4 da3f
000001d0: 0000 0000 fe7f d13f 0000 00e0 6863 e13f
000001e0: 0000 0000 f0d9 99bf 0000 0040 60a9 d03f
000001f0: 0000 0000 1404 d9bf 0000 0040 8c13 e6bf
00000200: 0000 0000 fe32 c4bf 0000 0040 9c3b db3f
00000210: 0000 0000 311c e6bf 0000 0040 fd3d e4bf
00000220: 0000 0060 589f e23f 0000 0020 e464 e53f
00000230: 0000 00c0 74e4 e0bf 0000 00c0 dace e0bf
00000240: 0000 0080 75a7 e1bf 0000 0040 c3fe dd3f
00000250: 0000 00c0 9f07 d13f 0000 0040 506d d73f
00000260: 0000 00c0 3d9d e5bf 0000 0000 8b85 ca3f
00000270: 0000 0000 9853 b13f 0000 0020 0b4d d6bf
00000280: 0000 0080 39df cf3f 0000 0000 439b b63f
00000290: 0000 0000 66b8 b33f 0000 0000 8ad6 a83f
000002a0: 0000 00a0 cee2 e1bf 0000 00e0 ca01 d4bf
000002b0: 0000 00c0 6bd7 dcbf 0000 00e0 c715 e43f
000002c0: 0000 00c0 dd85 dd3f 0000 0080 2f9a c5bf
000002d0: 0000 00c0 072b e5bf 0000 0080 b9bd e4bf
000002e0: 0000 00e0 64ed e23f 0000 0000 8e50 b9bf
000002f0: 0000 0000 b6f2 b73f 0000 0040 8105 dfbf
00000300: 0000 00c0 acb3 d33f 0000 0040 f5a0 d53f
00000310: 0000 0000 9776 ce3f 0000 00e0 2143 e6bf
00000320: 0000 0040 f8b2 d33f 0000 0000 1c7d 92bf
00000330: 0000 0000 6c35 9f3f 0000 0000 eb3d babf
00000340: 0000 0040 f01b da3f 0000 0060 9fdc e03f
00000350: 0000 0060 6c65 e3bf 0000 0080 e1a8 c0bf
00000360: 0000 0080 e6ce cd3f 0000 0000 8d8f b7bf
00000370: 0000 0060 ba59 e63f 0000 0000 26cf a1bf
00000380: 0000 0080 700f c33f 0000 00e0 9b63 e43f
00000390: 0000 0000 1aef b43f 0000 00e0 eb25 e13f
000003a0: 0000 0040 f909 debf 0000 0000 e2f3 c1bf
000003b0: 0000 0000 1da9 b43f 0000 0000 65a4 bcbf
000003c0: 0000 00e0 aa3f e13f 0000 00e0 2ac4 e23f
000003d0: 0000 0000 8963 c1bf 0000 0080 9081 c9bf
000003e0: 0000 0000 ac65 abbf 0000 0060 453d e1bf
000003f0: 0000 00c0 675c d93f 0000 0000 e077 90bf
00000400: 0000 0000 4094 9c3f 0000 0020 031d e4bf
00000410: 0000 00a0 c29b d1bf 0000 0040 03f1 e1bf
00000420: 0000 0040 953c e1bf 0000 0020 1bfa e0bf
00000430: 0000 0000 2d2b bc3f 0000 0000 d37e c93f
00000440: 0000 00c0 1423 d2bf 0000 0040 7803 d03f
00000450: 0000 0000 8d80 b83f 0000 00a0 3106 d9bf
00000460: 0000 0000 f61c a83f 0000 0060 d10c dabf
00000470: 0000 0060 0750 d9bf 0000 0020 e21d d4bf
00000480: 0000 0000 63d3 b8bf 0000 00a0 d060 e2bf
00000490: 0000 00c0 9c4e e1bf 0000 0080 fb7f ca3f
000004a0: 0000 0040 5c5e e2bf 0000 00c0 b2a8 d93f
000004b0: 0000 0060 9bcf e43f 0000 0040 58b8 d03f
000004c0: 0000 0000 b376 d13f 0000 0060 b83f e33f
000004d0: 0000 0000 001d e6bf 0000 0080 ea54 cb3f
000004e0: 0000 00c0 0f41 cdbf 0000 0040 6834 db3f
000004f0: 0000 0080 c420 d0bf 0000 0080 ac06 d23f
00000500: 0000 0000 98f8 b7bf 0000 00c0 fcad d33f
00000510: 0000 0080 856b cb3f 0000 0020 756c e13f
00000520: 0000 00c0 82a1 dfbf 0000 0000 a2ec cf3f
00000530: 0000 0020 30bb e13f 0000 0060 ab1d e23f
00000540: 0000 0000 20fc c3bf 0000 0080 2040 ddbf
00000550: 0000 00e0 3d73 e43f 0000 0000 6e10 abbf
00000560: 0000 0000 cf25 bb3f 0000 00e0 7490 e43f
00000570: 0000 0000 60f2 93bf 0000 0080 1388 c43f
00000580: 0000 0020 91b9 d4bf 0000 0000 52a4 a83f
00000590: 0000 0000 0692 a0bf 0000 0040 d89a cdbf
000005a0: 0000 0080 d9c9 c5bf 0000 00c0 95bb dc3f
000005b0: 0000 0080 8e24 c63f 0000 0080 11c4 c5bf
000005c0: 0000 00c0 18bd dc3f 0000 0000 1490 c5bf
000005d0: 0000 0020 5a09 dcbf 0000 0000 825e c93f
000005e0: 0000 00c0 eda0 d3bf 0000 00e0 ffae e43f
000005f0: 0000 0040 f28c da3f 0000 0000 81de bdbf
00000600: 0000 0060 91d4 e0bf 0000 0000 9b3c e2bf
00000610: 0000 0040 867e d03f 0000 0000 ea14 c2bf
00000620: 0000 00a0 0157 d1bf 0000 0080 30d5 d13f
00000630: 0000 0020 e142 d9bf 0000 0040 0f3b d23f
00000640: 0000 0080 3513 c5bf 0000 0000 f86c d4bf
00000650: 0000 0000 08c7 84bf 0000 0060 636f e63f
00000660: 0000 0000 c6fd ca3f 0000 0020 df98 debf
00000670: 0000 00e0 a617 e43f 0000 0020 709d e33f
00000680: 0000 0080 488a c3bf 0000 0000 f002 7fbf
00000690: 0000 00c0 234c d0bf 0000 0060 e626 e13f
000006a0: 0000 00a0 1cad e4bf 0000 0000 5a2c abbf
000006b0: 0000 00e0 49f0 e33f 0000 0000 b85c 9fbf
000006c0: 0000 0000 706d 7d3f 0000 0000 71cc c1bf
000006d0: 0000 0000 1587 e4bf 0000 0000 6963 bcbf
000006e0: 0000 0080 df99 ce3f 0000 0080 d092 d0bf
000006f0: 0000 0080 26be cf3f 0000 0000 c051 bb3f
00000700: 0000 0020 748e dcbf 0000 0000 cba0 b03f
00000710: 0000 00c0 15e3 dd3f 0000 0040 f735 de3f
00000720: 0000 0080 ffa8 c43f 0000 0040 8a4d cbbf
00000730: 0000 0040 5f5c d73f 0000 0040 1614 e6bf
00000740: 0000 0080 0cdd c8bf 0000 0000 80a0 74bf
00000750: 0000 0060 c996 e33f 0000 0000 153b c3bf
00000760: 0000 0000 dd8e c83f 0000 00e0 6e39 d9bf
00000770: 0000 00a0 392d d1bf 0000 0040 0034 e3bf
00000780: 0000 00a0 73b2 e3bf 0000 0000 962d c3bf
00000790: 0000 00c0 36ac cebf 0000 0000 e98f ce3f
000007a0: 0000 0060 79ea e13f 0000 0080 0f19 ccbf
000007b0: 0000 00c0 e8a8 e4bf 0000 0020 5650 e33f
000007c0: 0000 00e0 5395 e0bf 0000 0080 f7c7 c53f
000007d0: 0000 00c0 3052 cebf 0000 0000 5471 97bf
000007e0: 0000 00a0 464c ddbf 0000 0000 bffe b23f
000007f0: 0000 0000 7e46 ca3f 0000 00a0 e2c7 d2bf

encoder_layer.linear1.bias f8 [2048]
-0.1858106255531311 0.12404417991638184 -0.24807307124137878 -0.3027138411998749 -0.3915838301181793 -0.5581107139587402 -0.2552659213542938 -0.649239718914032
0.27026253938674927 -0.257170706987381 0.29078739881515503 0.2341887354850769 -0.5426478385925293 0.06908869743347168 0.3087865710258484 0.2691441774368286
-0.4820255637168884 -0.552054226398468 0.3535485863685608 0.327812135219574 -0.6354328393936157 -0.623497724533081 -0.19346648454666138 0.35097235441207886
-0.5295854210853577 0.5886062979698181 -0.4208582639694214 -0.5047187805175781 -0.1124311089515686 0.5343442559242249 -0.40078896284103394 0.5525053143501282
0.47677427530288696 0.443498432636261 -0.29367223381996155 -0.16549450159072876 -0.5233056545257568 -0.14430683851242065 0.045827388763427734 -0.6448600888252258
-0.2615307867527008 0.177273690700531 -0.38395315408706665 0.25890588760375977 -0.6347191333770752 0.27424508333206177 0.25246310234069824 -0.36934277415275574
-0.6005967259407043 0.055377304553985596 0.0034874677658081055 -0.20154303312301636 -0.1610875129699707 0.4481411576271057 -0.4120473861694336 0.6362361311912537
-0.42280149459838867 -0.2632927894592285 0.6973251700401306 0.16040831804275513 0.48821574449539185 -0.3951842784881592 0.23628365993499756 -0.4145742654800415
0.5701518654823303 -0.646698534488678 -0.274647980928421 -0.022164463996887207 0.20884376764297485 0.3235524296760559 0.23397189378738403 -0.16864293813705444
-0.3752513527870178 -0.17006421089172363 -0.31151264905929565 -0.7017280459403992 -0.00803232192993164 0.5954214930534363 0.3654523491859436 -0.394565224647522
0.22187578678131104 -0.36781883239746094 0.4285380244255066 -0.09817731380462646 0.5760108828544617 0.6555392146110535 0.14592361450195312 -0.508561909198761
-0.4567696750164032 -0.5606429576873779 0.1484452486038208 -0.34454357624053955 0.10937070846557617 -0.022111356258392334 -0.12583988904953003 0.07394623756408691
-0.674481987953186 -0.05786478519439697 0.017613530158996582 0.5412821173667908 -0.1715793013572693 0.1710851788520813 0.30186909437179565 -0.4511133134365082
-0.11221539974212646 -0.12014591693878174 -0.1860637664794922 -0.3348345458507538 0.3471772074699402 0.19353073835372925 0.6717481017112732 -0.43893563747406006
0.0522269606590271 0.06159389019012451 0.003333449363708496 -0.43028897047042847 -0.2941311299800873 0.3258586525917053 0.3744167685508728 0.5594194531440735
-0.08069586753845215 -0.25824451446533203 0.3901943564414978 -0.5208569169044495 -0.0855512022972107 0.13575178384780884 -0.16033446788787842 0.5207682251930237
0.3549218773841858 -0.08824890851974487 0.22484111785888672 -0.7021358013153076 0.12234234809875488 0.6026065945625305 -0.21158796548843384 0.11372333765029907
-0.5862321257591248 0.033968567848205566 0.05594354867935181 0.04114419221878052 -0.011425316333770752 0.6835048794746399 -0.28313812613487244 -0.23361736536026
-0.3881493806838989 -0.4563412070274353 -0.11338359117507935 -0.15521621704101562 0.5253613591194153 0.43040913343429565 -0.16274577379226685 0.0563778281211853
0.00957953929901123 0.4324724078178406 0.18085193634033203 -0.5433552265167236 0.3764675259590149 0.5148307681083679 -0.41491347551345825 0.2761976718902588
-0.5720237493515015 0.46758514642715454 0.5145352482795715 0.5843167901039124 -0.03925824165344238 -0.06692624092102051 -0.5521739721298218 -0.0008878707885742188
-0.2523542642593384 0.09536612033843994 0.0981285572052002 -0.16492271423339844 0.6513434052467346 -0.4468124806880951 -0.11352252960205078 -0.29868432879447937
0.4413847327232361 0.19068032503128052 -0.24623224139213562 -0.16772538423538208 -0.3738850951194763 0.18066686391830444 0.6722022891044617 0.42239123582839966
0.1753585934638977 -0.012828588485717773 -0.6083865165710449 0.1628386378288269 0.2039116621017456 0.2912616729736328 0.0684124231338501 0.37941914796829224
-0.08248978853225708 -0.26485946774482727 0.49171990156173706 -0.09827768802642822 -0.2775426506996155 0.41795819997787476 0.5894010663032532 0.3418509364128113
-0.30615925788879395 0.05419713258743286 0.6795863509178162 -0.4928171932697296 -0.42472440004348755 0.4260292649269104 -0.6747803092002869 -0.41798755526542664
-0.403658390045166 -0.5504335165023804 0.6131545901298523 0.32942312955856323 0.39197808504104614 -0.2811466157436371 -0.027091681957244873 0.29074662923812866
0.5074436068534851 0.5186765789985657 -0.6600226759910583 -0.04587060213088989 -0.135647714138031 -0.4410591721534729 -0.012710034847259521 -0.5149369239807129
0.3199067711830139 -0.5978516340255737 -0.14879834651947021 -0.6313857436180115 0.49153298139572144 -0.5962425470352173 0.5126127600669861 0.15344691276550293
-0.0929829478263855 -0.02741408348083496 0.3225012421607971 -0.17990392446517944 -0.4924250543117523 0.19463062286376953 -0.15120601654052734 -0.028613924980163574
0.03652983903884888 -0.15488171577453613 0.030168890953063965 -0.029218077659606934 0.19599807262420654 -0.6508802771568298 -0.29824298620224 0.13940060138702393
0.45167332887649536 0.5737385153770447 -0.17479681968688965 0.6667231917381287 0.6628000140190125 -0.5058608651161194 -0.2765100300312042 0.4027490019798279
00000000: 0000 0080 a4c8 c7bf 0000 0000 5cc1 bf3f
00000010: 0000 00c0 dbc0 cfbf 0000 00e0 a95f d3bf
00000020: 0000 00a0 b50f d9bf 0000 0000 0bdc e1bf
00000030: 0000 00e0 4656 d0bf 0000 0060 92c6 e4bf
00000040: 0000 0040 fb4b d13f 0000 0020 7c75 d0bf
00000050: 0000 00c0 429c d23f 0000 0080 e5f9 cd3f
00000060: 0000 0000 5f5d e1bf 0000 0000 ccaf b13f
00000070: 0000 00c0 28c3 d33f 0000 0080 a839 d13f
00000080: 0000 00c0 81d9 debf 0000 00a0 6daa e1bf
00000090: 0000 0040 8aa0 d63f 0000 00c0 dffa d43f
000000a0: 0000 0040 7755 e4bf 0000 0080 b1f3 e3bf
000000b0: 0000 0080 82c3 c8bf 0000 00c0 5476 d63f
000000c0: 0000 0020 5df2 e0bf 0000 00e0 dcd5 e23f
000000d0: 0000 0080 57ef dabf 0000 0000 a826 e0bf
000000e0: 0000 0000 49c8 bcbf 0000 0020 5919 e13f
000000f0: 0000 00c0 86a6 d9bf 0000 00a0 1fae e13f
00000100: 0000 0040 7883 de3f 0000 0040 4762 dc3f
00000110: 0000 00a0 86cb d2bf 0000 0080 ec2e c5bf
00000120: 0000 0080 ebbe e0bf 0000 0080 a578 c2bf
00000130: 0000 0000 b076 a73f 0000 00a0 b1a2 e4bf
00000140: 0000 00a0 ebbc d0bf 0000 0080 e7b0 c63f
00000150: 0000 0040 b092 d8bf 0000 0000 ea91 d03f
00000160: 0000 0080 9e4f e4bf 0000 0040 3b8d d13f
00000170: 0000 0000 5b28 d03f 0000 00e0 4fa3 d7bf
00000180: 0000 00a0 1638 e3bf 0000 0000 6a5a ac3f
00000190: 0000 0000 c091 6c3f 0000 0080 29cc c9bf
000001a0: 0000 0000 849e c4bf 0000 0040 58ae dc3f
000001b0: 0000 0000 fc5e dabf 0000 00e0 0b5c e43f
000001c0: 0000 0000 2e0f dbbf 0000 0000 cad9 d0bf
000001d0: 0000 00e0 7c50 e63f 0000 0080 4288 c43f
000001e0: 0000 0040 ed3e df3f 0000 0000 b34a d9bf
000001f0: 0000 0000 8b3e ce3f 0000 0080 6288 dabf
00000200: 0000 0020 af3e e23f 0000 0020 c1b1 e4bf
00000210: 0000 0020 d593 d1bf 0000 0000 48b2 96bf
00000220: 0000 0080 64bb ca3f 0000 0040 15b5 d43f
00000230: 0000 0080 caf2 cd3f 0000 0080 1796 c5bf
00000240: 0000 0040 1e04 d8bf 0000 0000 aac4 c5bf
00000250: 0000 00c0 d2ef d3bf 0000 0060 8e74 e6bf
00000260: 0000 0000 4073 80bf 0000 0060 b10d e33f
00000270: 0000 0040 9263 d73f 0000 0080 8e40 d9bf
00000280: 0000 0000 6d66 cc3f 0000 0000 588a d7bf
00000290: 0000 00c0 2a6d db3f 0000 0000 2622 b9bf
000002a0: 0000 0060 ae6e e23f 0000 0060 2dfa e43f
000002b0: 0000 0000 a0ad c23f 0000 00a0 2346 e0bf
000002c0: 0000 00e0 b63b ddbf 0000 0080 c9f0 e1bf
000002d0: 0000 0000 4100 c33f 0000 0080 000d d6bf
000002e0: 0000 0000 b8ff bb3f 0000 0000 5ca4 96bf
000002f0: 0000 0080 851b c0bf 0000 0000 24ee b23f
00000300: 0000 0040 5b95 e5bf 0000 0000 74a0 adbf
00000310: 0000 0000 4809 923f 0000 00e0 2e52 e13f
00000320: 0000 0080 4ff6 c5bf 0000 0080 1ee6 c53f
00000330: 0000 00c0 d251 d33f 0000 0060 0adf dcbf
00000340: 0000 0000 26ba bcbf 0000 0000 e2c1 bebf
00000350: 0000 0000 f0d0 c7bf 0000 00e0 ed6d d5bf
00000360: 0000 00c0 2638 d63f 0000 0080 9dc5 c83f
00000370: 0000 00e0 f57e e53f 0000 0080 8517 dcbf
00000380: 0000 0000 7ebd aa3f 0000 0000 3c89 af3f
00000390: 0000 0000 c04e 6b3f 0000 00c0 da89 dbbf
000003a0: 0000 0060 0bd3 d2bf 0000 0040 deda d43f
000003b0: 0000 00c0 71f6 d73f 0000 00a0 c3e6 e13f
000003c0: 0000 0000 7ca8 b4bf 0000 0000 1487 d0bf
000003d0: 0000 00c0 f1f8 d83f 0000 0020 dcaa e0bf
000003e0: 0000 0000 afe6 b5bf 0000 0080 5060 c13f
000003f0: 0000 0000 d785 c4bf 0000 0020 22aa e03f
00000400: 0000 0040 0ab7 d63f 0000 0000 7b97 b6bf
00000410: 0000 0000 98c7 cc3f 0000 0080 e577 e6bf
00000420: 0000 0000 d451 bf3f 0000 00a0 8d48 e33f
00000430: 0000 0080 5015 cbbf 0000 0000 f91c bd3f
00000440: 0000 00e0 69c2 e2bf 0000 0000 5464 a13f
00000450: 0000 0000 a2a4 ac3f 0000 0000 da10 a53f
00000460: 0000 0000 2866 87bf 0000 00a0 45df e53f
00000470: 0000 0060 ef1e d2bf 0000 0080 2ce7 cdbf
00000480: 0000 0080 70d7 d8bf 0000 00c0 b134 ddbf
00000490: 0000 0000 b506 bdbf 0000 0000 20de c3bf
000004a0: 0000 00a0 c2cf e03f 0000 00c0 d28b db3f
000004b0: 0000 0080 dad4 c4bf 0000 0000 8edd ac3f
000004c0: 0000 0000 709e 833f 0000 00c0 a0ad db3f
000004d0: 0000 0000 2826 c73f 0000 0080 2a63 e1bf
000004e0: 0000 0040 0b18 d83f 0000 0060 7e79 e03f
000004f0: 0000 0040 f18d dabf 0000 0000 39ad d13f
00000500: 0000 00c0 044e e2bf 0000 0040 eaec dd3f
00000510: 0000 00a0 1277 e03f 0000 0020 b9b2 e23f
00000520: 0000 0000 a819 a4bf 0000 0000 1422 b1bf
00000530: 0000 00c0 68ab e1bf 0000 0000 0018 4dbf
00000540: 0000 0080 9226 d0bf 0000 0000 ea69 b83f
00000550: 0000 0000 f41e b93f 0000 0000 301c c5bf
00000560: 0000 0020 ced7 e43f 0000 0060 9398 dcbf
00000570: 0000 0000 d00f bdbf 0000 00e0 a41d d3bf
00000580: 0000 00c0 a53f dc3f 0000 0080 3668 c83f
00000590: 0000 00c0 8984 cfbf 0000 0080 0678 c5bf
000005a0: 0000 00c0 bbed d7bf 0000 0080 1720 c73f
000005b0: 0000 0060 ae82 e53f 0000 0040 7508 db3f
000005c0: 0000 0080 2672 c63f 0000 0000 e045 8abf
000005d0: 0000 0000 e777 e3bf 0000 0080 e5d7 c43f
000005e0: 0000 0000 c719 ca3f 0000 0000 08a4 d23f
000005f0: 0000 0000 7a83 b13f 0000 0040 6748 d83f
00000600: 0000 0000 0d1e b5bf 0000 0020 75f3 d0bf
00000610: 0000 00c0 5678 df3f 0000 0000 ba28 b9bf
00000620: 0000 0040 42c3 d1bf 0000 00c0 d3bf da3f
00000630: 0000 00a0 5fdc e23f 0000 00c0 e2e0 d53f
00000640: 0000 0000 1d98 d3bf 0000 0000 babf ab3f
00000650: 0000 00e0 2bbf e53f 0000 0020 518a dfbf
00000660: 0000 0040 af2e dbbf 0000 0040 1044 db3f
00000670: 0000 00e0 cc97 e5bf 0000 00e0 4ec0 dabf
00000680: 0000 0000 8ad5 d9bf 0000 00c0 269d e1bf
00000690: 0000 0060 f69e e33f 0000 00c0 4415 d53f
000006a0: 0000 0040 2b16 d93f 0000 0060 4efe d1bf
000006b0: 0000 0000 ecbd 9bbf 0000 00c0 979b d23f
000006c0: 0000 0060 fa3c e03f 0000 00a0 ff98 e03f
000006d0: 0000 00e0 e71e e5bf 0000 0000 5a7c a7bf
000006e0: 0000 0080 e75c c1bf 0000 0040 503a dcbf
000006f0: 0000 0000 b807 8abf 0000 0000 5d7a e0bf
00000700: 0000 0040 5a79 d43f 0000 00c0 9921 e3bf
00000710: 0000 0000 d30b c3bf 0000 00e0 4f34 e4bf
00000720: 0000 00c0 4675 df3f 0000 0040 6b14 e3bf
00000730: 0000 00e0 5267 e03f 0000 0000 26a4 c33f
00000740: 0000 0000 bbcd b7bf 0000 0000 7012 9cbf
00000750: 0000 0040 dca3 d43f 0000 0080 1707 c7bf
00000760: 0000 0060 e483 dfbf 0000 0000 a8e9 c83f
00000770: 0000 0000 b85a c3bf 0000 0000 f84c 9dbf
00000780: 0000 0000 0ab4 a23f 0000 0000 2ad3 c3bf
00000790: 0000 0000 98e4 9e3f 0000 0000 58eb 9dbf
000007a0: 0000 0000 7716 c93f 0000 00e0 02d4 e4bf
000007b0: 0000 00c0 6916 d3bf 0000 0000 e1d7 c13f
000007c0: 0000 0040 37e8 dc3f 0000 00e0 105c e23f
000007d0: 0000 0000 be5f c6bf 0000 00e0 cb55 e53f
000007e0: 0000 0060 a835 e53f 0000 0020 0330 e0bf
000007f0: 0000 0020 57b2 d1bf 0000 00c0 a3c6 d93f

encoder_layer.linear2.weight f8 [2, 2048]
0.01579945720732212 -0.020321661606431007 -0.007098482921719551 -0.0017687901854515076 0.015245174989104271 -0.006982400082051754 -0.021248728036880493 -0.006295213475823402
-0.005126079544425011 -0.008037300780415535 -0.004515122622251511 -0.02155093103647232 0.013826029375195503 -0.01880795508623123 -0.0015410948544740677 -0.010046056471765041
0.01955828256905079 -0.0015129242092370987 -0.020373454317450523 0.013005388900637627 0.000972529873251915 -0.0023564323782920837 -0.005680512636899948 0.02070786990225315
0.014457428827881813 -0.01693672314286232 -0.014035929925739765 -0.006099894642829895 0.020259948447346687 -0.012628626078367233 -0.018404021859169006 -0.019853364676237106
-0.017182208597660065 -0.0020382944494485855 0.007695423439145088 -0.002507595345377922 -0.005831090733408928 -0.012791215442121029 0.009881803765892982 0.01715816743671894
0.006429906934499741 -0.003824077546596527 -0.0035744905471801758 0.021685468032956123 0.009604601189494133 -0.01624925807118416 -0.01484291348606348 0.00566265732049942
-0.00042457878589630127 -0.019099563360214233 -0.0013064201921224594 -0.0031982269138097763 -0.003563039004802704 -0.007594556547701359 -0.007018735632300377 -0.015272018499672413
-0.00943072885274887 0.008470049127936363 -0.0027773715555667877 0.006042951717972755 0.01470794714987278 -0.0006626546382904053 -0.00556255504488945 -0.009231869131326675
0.007464000955224037 0.013993358239531517 -0.012182327918708324 0.012539973482489586 0.0031821392476558685 -0.01123074907809496 -0.01877009868621826 0.013986306264996529
-0.007432330399751663 -0.004169154912233353 -0.008528475649654865 0.016393857076764107 -0.017728285863995552 0.00867927074432373 -0.0033484306186437607 0.007791692391037941
-0.014713093638420105 -0.006751284934580326 -0.010226123966276646 -0.012930703349411488 -0.018473554402589798 0.017770962789654732 0.015993935987353325 -0.0001523476094007492
-0.018898338079452515 -0.015184118412435055 -0.015254661440849304 -0.012229756452143192 0.00422762893140316 0.010764813050627708 -0.004942217841744423 0.013684792444109917
0.019071942195296288 -0.006914366967976093 0.01582382060587406 0.00040592998266220093 0.006781348958611488 -0.018661320209503174 0.014351999387145042 0.008201370015740395
0.018203632906079292 -0.021491682156920433 -0.010459806770086288 0.015405019745230675 0.009631583467125893 -0.01988067664206028 0.012080324813723564 -0.015945052728056908
-0.01875181496143341 -0.0016857609152793884 0.009698046371340752 0.00970078818500042 -0.001905251294374466 -0.007357632741332054 0.0143700260668993 -0.018893325701355934
0.0016796421259641647 0.02042156644165516 -0.0021844133734703064 0.0043017566204071045 0.012822529301047325 0.020315071567893028 -0.0001949947327375412 -0.019851645454764366
-0.01321230735629797 0.0014685988426208496 0.01738840527832508 -0.005787760019302368 -0.0027649905532598495 0.0061379242688417435 0.019115427508950233 -0.005448911339044571
0.001231478527188301 0.017403481528162956 0.006491463631391525 -0.0001678410917520523 0.001979431137442589 0.0024801529943943024 0.013999836519360542 0.0013319719582796097
-0.021505320444703102 -0.01982901431620121 -0.000588051974773407 0.014888601377606392 0.008245093747973442 0.004044735804200172 0.00035967864096164703 -0.01459454745054245
-0.01839621737599373 -0.014445871114730835 -0.006356645375490189 -0.004827117547392845 -0.006153840571641922 -0.0016014277935028076 0.01912972889840603 0.008184732869267464
-0.018337208777666092 0.01074557937681675 -0.0007631350308656693 -0.018854521214962006 -0.007895579561591148 -0.004111401736736298 0.01248984970152378 0.009357789531350136
-0.005134152248501778 0.007728368043899536 0.01143484003841877 -0.01992444507777691 -0.006716184318065643 -0.009159590117633343 -0.015395023860037327 -0.004066970199346542
-0.01998041197657585 -0.004277786239981651 0.011531328782439232 0.00962839461863041 -0.002648310735821724 0.01807568036019802 0.019697515293955803 0.009812979027628899
-0.006894312798976898 0.01304408349096775 0.014886656776070595 0.00779077410697937 0.00017607957124710083 -0.01388514693826437 0.012098642066121101 0.01736578904092312
0.014312094077467918 0.021177170798182487 0.015755457803606987 0.01211714930832386 -0.014174985699355602 -0.014052428305149078 0.0036400053650140762 -0.005909241735935211
0.012711571529507637 0.008701834827661514 0.008663903921842575 -0.017275243997573853 0.01637226529419422 -0.016252243891358376 0.021327348425984383 -0.004989614710211754
-0.015858836472034454 -0.002939194440841675 -0.02090919017791748 -0.0059466008096933365 -0.020970715209841728 0.00031536445021629333 -0.021543484181165695 -0.0002480819821357727
-0.019694840535521507 0.0056845396757125854 0.010724877938628197 -0.009629783220589161 0.006313534453511238 0.00962757132947445 -0.005676893517374992 0.019487397745251656
-0.010757050476968288 -0.01467695739120245 0.018250765278935432 -0.01416066661477089 0.019218536093831062 -0.021088870242238045 -0.0023545920848846436 0.017497489228844643
-0.018073834478855133 -0.015489095821976662 -0.004005309194326401 -0.02161446213722229 0.00552891381084919 0.016022441908717155 -0.01740196719765663 0.004327116534113884
-0.00888771377503872 0.011602016165852547 -0.0109628327190876 0.009557479992508888 0.008962040767073631 -0.018074246123433113 0.007721260190010071 -0.011397437192499638
-0.016931917518377304 -0.01775090955197811 0.010168666020035744 -0.009782211855053902 -0.00013554655015468597 0.002907130867242813 0.004298193380236626 0.015971897169947624
00000000: 0000 00a0 bb2d 903f 0000 00a0 33cf 94bf
00000010: 0000 0080 4c13 7dbf 0000 0000 d8fa 5cbf
00000020: 0000 00c0 dc38 8f3f 0000 00c0 9399 7cbf
00000030: 0000 0000 3ac2 95bf 0000 0080 02c9 79bf
00000040: 0000 0080 15ff 74bf 0000 0040 dc75 80bf
00000050: 0000 0000 737e 72bf 0000 0080 7211 96bf
00000060: 0000 0040 d250 8c3f 0000 0080 6442 93bf
00000070: 0000 0000 d23f 59bf 0000 00e0 0693 84bf
00000080: 0000 0020 1607 943f 0000 0000 aac9 58bf
00000090: 0000 0060 c7dc 94bf 0000 00c0 91a2 8a3f
000000a0: 0000 0000 2cde 4f3f 0000 0000 cc4d 63bf
000000b0: 0000 0000 7344 77bf 0000 00a0 7134 953f
000000c0: 0000 0040 db9b 8d3f 0000 0040 dc57 91bf
000000d0: 0000 00a0 debe 8cbf 0000 0000 34fc 78bf
000000e0: 0000 0020 06bf 943f 0000 0080 09dd 89bf
000000f0: 0000 0000 81d8 92bf 0000 00c0 7054 94bf
00000100: 0000 0080 3698 91bf 0000 0000 9db2 60bf
00000110: 0000 0080 3c85 7f3f 0000 0000 cf8a 64bf
00000120: 0000 0080 57e2 77bf 0000 00e0 4732 8abf
00000130: 0000 0040 e93c 843f 0000 0020 e991 913f
00000140: 0000 0000 3f56 7a3f 0000 0000 ac53 6fbf
00000150: 0000 0000 4048 6dbf 0000 0020 b734 963f
00000160: 0000 00c0 93ab 833f 0000 0040 a5a3 90bf
00000170: 0000 0020 f665 8ebf 0000 0000 ba31 773f
00000180: 0000 0000 40d3 3bbf 0000 0000 d68e 93bf
00000190: 0000 0000 8667 55bf 0000 0000 2b33 6abf
000001a0: 0000 0000 3c30 6dbf 0000 0040 781b 7fbf
000001b0: 0000 0080 adbf 7cbf 0000 00a0 ef46 8fbf
000001c0: 0000 0000 6b50 83bf 0000 00c0 be58 813f
000001d0: 0000 0000 92c0 66bf 0000 0080 7ec0 783f
000001e0: 0000 0040 331f 8e3f 0000 0000 c0b6 45bf
000001f0: 0000 0000 c3c8 76bf 0000 0080 28e8 82bf
00000200: 0000 0080 9292 7e3f 0000 00c0 8ca8 8c3f
00000210: 0000 0060 0cf3 88bf 0000 00c0 8eae 893f
00000220: 0000 0000 6e11 6a3f 0000 00a0 2500 87bf
00000230: 0000 0000 7838 93bf 0000 0040 daa4 8c3f
00000240: 0000 0000 5d71 7ebf 0000 0000 ad13 71bf
00000250: 0000 00a0 6077 81bf 0000 0020 8dc9 903f
00000260: 0000 0020 5d27 92bf 0000 0000 70c6 813f
00000270: 0000 0000 2b6e 6bbf 0000 0080 2eea 7f3f
00000280: 0000 0000 e621 8ebf 0000 0040 3ca7 7bbf
00000290: 0000 0020 6ff1 84bf 0000 00a0 697b 8abf
000002a0: 0000 0040 bbea 92bf 0000 0020 8d32 923f
000002b0: 0000 00e0 b660 903f 0000 0000 f0f7 23bf
000002c0: 0000 0000 165a 93bf 0000 00e0 d918 8fbf
000002d0: 0000 0000 d63d 8fbf 0000 0020 ea0b 89bf
000002e0: 0000 0080 fd50 713f 0000 00c0 dc0b 863f
000002f0: 0000 0080 4a3e 74bf 0000 00c0 c506 8c3f
00000300: 0000 0060 9887 933f 0000 0040 3d52 7cbf
00000310: 0000 00a0 1e34 903f 0000 0000 609a 3a3f
00000320: 0000 0080 c2c6 7b3f 0000 0000 f41b 93bf
00000330: 0000 00c0 9464 8d3f 0000 0040 e1cb 803f
00000340: 0000 0020 f9a3 923f 0000 0060 ea01 96bf
00000350: 0000 0080 f36b 85bf 0000 00c0 aa8c 8f3f
00000360: 0000 0040 b9b9 833f 0000 00a0 995b 94bf
00000370: 0000 00c0 91bd 883f 0000 0060 e653 90bf
00000380: 0000 0000 ad33 93bf 0000 0000 989e 5bbf
00000390: 0000 00c0 91dc 833f 0000 00c0 01de 833f
000003a0: 0000 0000 3437 5fbf 0000 0080 0923 7ebf
000003b0: 0000 0040 086e 8d3f 0000 00a0 c558 93bf
000003c0: 0000 0000 ee84 5b3f 0000 0020 64e9 943f
000003d0: 0000 0000 0ce5 61bf 0000 0000 b89e 713f
000003e0: 0000 00c0 b242 8a3f 0000 0060 79cd 943f
000003f0: 0000 0000 f08e 29bf 0000 0060 fd53 94bf
00000400: 0000 00e0 0d0f 8bbf 0000 0000 c00f 583f
00000410: 0000 0020 44ce 913f 0000 0000 e8b4 77bf
00000420: 0000 0000 9ba6 66bf 0000 0080 1424 793f
00000430: 0000 00a0 fe92 933f 0000 0000 9951 76bf
00000440: 0000 0000 322d 543f 0000 00e0 37d2 913f
00000450: 0000 0000 cb96 7a3f 0000 0000 d0ff 25bf
00000460: 0000 0000 2b37 603f 0000 0000 4251 643f
00000470: 0000 0040 f2ab 8c3f 0000 0000 b2d2 553f
00000480: 0000 00a0 7d05 96bf 0000 00a0 0e4e 94bf
00000490: 0000 0000 f044 43bf 0000 0040 ea7d 8e3f
000004a0: 0000 00c0 cde2 803f 0000 0080 3691 703f
000004b0: 0000 0000 6892 373f 0000 0000 bfe3 8dbf
000004c0: 0000 0040 75d6 92bf 0000 0000 cc95 8dbf
000004d0: 0000 0000 6d09 7abf 0000 0080 99c5 73bf
000004e0: 0000 0000 c534 79bf 0000 0000 e03c 5abf
000004f0: 0000 0060 be96 933f 0000 0040 28c3 803f
00000500: 0000 0040 fdc6 92bf 0000 0040 c701 863f
00000510: 0000 0000 a401 49bf 0000 0080 994e 93bf
00000520: 0000 00c0 8e2b 80bf 0000 0000 1ed7 70bf
00000530: 0000 0040 4794 893f 0000 0040 2d2a 833f
00000540: 0000 0080 8c07 75bf 0000 0000 c8a7 7f3f
00000550: 0000 0040 266b 873f 0000 00e0 1267 94bf
00000560: 0000 0000 6e82 7bbf 0000 0060 43c2 82bf
00000570: 0000 0020 6d87 8fbf 0000 0000 87a8 70bf
00000580: 0000 00c0 be75 94bf 0000 0080 9585 71bf
00000590: 0000 00c0 bc9d 873f 0000 0040 0db8 833f
000005a0: 0000 0000 e9b1 65bf 0000 0060 6e82 923f
000005b0: 0000 00e0 952b 943f 0000 00c0 d318 843f
000005c0: 0000 0000 363d 7cbf 0000 0040 dbb6 8a3f
000005d0: 0000 0040 e57c 8e3f 0000 0000 38e9 7f3f
000005e0: 0000 0000 4014 273f 0000 00e0 d06f 8cbf
000005f0: 0000 0040 2cc7 883f 0000 0060 56c8 913f
00000600: 0000 00c0 a84f 8d3f 0000 00e0 77af 953f
00000610: 0000 00e0 3222 903f 0000 0040 e0d0 883f
00000620: 0000 0060 c607 8dbf 0000 0000 85c7 8cbf
00000630: 0000 0000 a5d1 6d3f 0000 0000 4a34 78bf
00000640: 0000 0040 8608 8a3f 0000 0080 44d2 813f
00000650: 0000 0080 61be 813f 0000 0000 9ab0 91bf
00000660: 0000 0020 e4c3 903f 0000 00a0 6da4 90bf
00000670: 0000 0020 d6d6 953f 0000 0080 fd6f 74bf
00000680: 0000 0080 4c3d 90bf 0000 0000 f013 68bf
00000690: 0000 0000 3869 95bf 0000 0080 765b 78bf
000006a0: 0000 00e0 5879 95bf 0000 0000 f0aa 343f
000006b0: 0000 00c0 7e0f 96bf 0000 0000 2042 30bf
000006c0: 0000 0060 e22a 94bf 0000 0000 ac48 773f
000006d0: 0000 00c0 ecf6 853f 0000 00a0 c7b8 83bf
000006e0: 0000 0080 38dc 793f 0000 00c0 9eb7 833f
000006f0: 0000 0080 a740 77bf 0000 0020 81f4 933f
00000700: 0000 00e0 ca07 86bf 0000 00e0 f30e 8ebf
00000710: 0000 0020 54b0 923f 0000 0080 4400 8dbf
00000720: 0000 0020 06ae 933f 0000 0020 5298 95bf
00000730: 0000 0000 f049 63bf 0000 00a0 dcea 913f
00000740: 0000 0080 f281 92bf 0000 0040 bfb8 8fbf
00000750: 0000 0000 df67 70bf 0000 0000 1a22 96bf
00000760: 0000 0080 7ca5 763f 0000 00e0 2f68 903f
00000770: 0000 0040 d2d1 91bf 0000 0080 4fb9 713f
00000780: 0000 00c0 b833 82bf 0000 0040 ccc2 873f
00000790: 0000 0080 ae73 86bf 0000 0040 df92 833f
000007a0: 0000 00c0 b05a 823f 0000 0020 0e82 92bf
000007b0: 0000 0000 54a0 7f3f 0000 0020 8a57 87bf
000007c0: 0000 00c0 9956 91bf 0000 0060 4b2d 92bf
000007d0: 0000 0040 4fd3 843f 0000 0040 b208 84bf
000007e0: 0000 0000 30c4 21bf 0000 0000 b2d0 673f
000007f0: 0000 0080 fb9a 713f 0000 00e0 ef5a 903f

encoder_layer.linear2.bias f8 [2]
0.017709476873278618 -0.018472187221050262
00000000: 0000 00e0 6e22 923f 0000 0080 5fea 92bf

encoder_layer.norm1.weight f8 [2]
1.0 1.0
00000000: 0000 0000 0000 f03f 0000 0000 0000 f03f

encoder_layer.norm1.bias f8 [2]
0.0 0.0
00000000: 0000 0000 0000 0000 0000 0000 0000 0000

encoder_layer.norm2.weight f8 [2]
1.0 1.0
00000000: 0000 0000 0000 f03f 0000 0000 0000 f03f

encoder_layer.norm2.bias f8 [2]
0.0 0.0
00000000: 0000 0000 0000 0000 0000 0000 0000 0000

transformer_encoder.layers.0.self_attn.in_proj_weight f8 [6, 2]
0.406089723110199 0.33381086587905884 -0.35026806592941284 0.21155661344528198 -0.43549349904060364 0.3916115164756775 0.35362082719802856 -0.2121579647064209
0.3738787770271301 0.04397493600845337 -0.2935946583747864 0.8312678933143616
00000000: 0000 00c0 5ffd d93f 0000 0040 285d d53f
00000010: 0000 00c0 ca6a d6bf 0000 0080 4914 cb3f
00000020: 0000 0020 20df dbbf 0000 00c0 2910 d93f
00000030: 0000 0040 b9a1 d63f 0000 0000 fe27 cbbf
00000040: 0000 0040 a1ed d73f 0000 0000 e283 a63f
00000050: 0000 0040 41ca d2bf 0000 0020 bf99 ea3f

transformer_encoder.layers.0.self_attn.in_proj_bias f8 [6]
1.469007663573353e-19 3.228664866330321e-18 -1.8760619600779293e-36 2.6862276778041983e-34 -4.57144969035989e-08 9.926699659958876e-08
00000000: 766e f308 c1ad 053c 6bdb ee28 78c7 4d3c
00000010: efa0 fc5d 20f3 83b8 28b9 ac75 f950 f638
00000020: 74e2 70de f38a 68be 9066 e578 93a5 7a3e

transformer_encoder.layers.0.self_attn.out_proj.weight f8 [2, 2]
-0.03344148397445684 0.41751319169998186 0.4589480757713318 -0.6517108678817749
00000000: 0800 0000 3e1f a1bf 0300 0040 89b8 da3f
00000010: 0000 00c0 675f dd3f 0000 00c0 d0da e4bf

transformer_encoder.layers.0.self_attn.out_proj.bias f8 [2]
9.284044928233733e-08 -9.284044928233735e-08
00000000: d0f7 ca74 f2eb 783e d2f7 ca74 f2eb 78be

transformer_encoder.layers.0.linear1.weight f8 [2048, 2]
-0.7014999985695366 0.7039925456047539 0.6173078417783379 -0.4217213690286278 0.5695069432258958 -0.11494904756549541 -0.31171309947961473 0.2971989512442937
0.27670723199784475 -0.4258181154721947 -0.2549121379851365 0.48116523027410746 0.3275218605995178 0.23462820053100586 0.09122711420059204 0.20700055360794067
-0.4760631322855107 -0.4819325208669551 -0.03581470251083374 -0.23455438017845154 -0.28180208802237877 -0.13785654306397077 -0.44517019391044504 -0.15718340873733636
0.6191762089728929 0.024372160434760877 0.007337868214022938 -0.24559128284491283 0.6560981869693142 0.5106094479565281 0.21425586938862096 0.24361282587047328
0.4179779887199402 -0.036487042903900146 0.2548813819886794 -0.5992558002473464 0.6235645413405386 -0.021632134915062683 -0.6249883770943506 0.40447288751610355
-0.10097819566726685 -0.6409890651702881 0.27610468864414883 -0.5867868065831442 0.302888095378686 -0.4070227444170008 0.6738300919529923 -0.07392716407747359
0.005434095859527588 -0.5090718865394592 -0.1308701634401804 -0.3110534250741476 -0.19613003730773926 -0.18251121044158936 0.5536630749702454 0.0666305422782898
0.14619368314729236 0.4192441105843972 0.27343702316349106 0.5433849692338174 -0.02524542808532715 0.2603378891944885 -0.3908739089964471 -0.689886212349073
-0.15780615806580114 0.42551332712173995 -0.6909413337707434 -0.6325670480728235 0.5819513201713562 0.6685658097267151 -0.5278877019882202 -0.5252507925033569
-0.5516917705535961 0.4686744809150768 0.2660903334617615 0.3660469651222229 -0.6754444837571217 0.2072004079819755 0.06768178939819336 -0.3484523594379425
0.24899977445602417 0.08830660581588745 0.0770324468611948 0.048511803150249284 -0.5589364171028137 -0.31260940432548523 -0.45064824819575433 0.627658784389602
0.46129554510116577 -0.16876786947250366 -0.6615027189254823 -0.6481597423553405 0.5914787650109136 -0.09888541698463804 0.09354722499860857 -0.48471099138273327
0.3078414797782898 0.33794909715652466 0.2379940748220061 -0.6956948637967679 0.30779844522518773 -0.01805537939114232 0.03047722578048706 -0.10250729322433472
0.40795522928237915 0.5269314646720886 -0.6061307787895631 -0.13015383481975082 0.23287659883499146 -0.09203416109085083 0.6984531283385308 -0.03478354215689026
0.14890867471690736 0.6371592879295771 0.08177340030669976 0.5358790755271932 -0.4693587422370911 -0.14025521278381337 0.08070546388633534 -0.11188346147544667
0.539021909236381 0.5864462256436849 -0.13585007190704346 -0.1992664933204651 -0.05351006984670773 -0.5387293696407497 0.3962649703025818 -0.016082286834716797
0.02790927886968113 -0.6285415291786717 -0.27513185143470764 -0.5606704950332642 -0.5386453866958618 -0.5305305123329163 0.11003381013867805 0.1991828680038696
-0.2833911776542728 0.2502117753028934 0.09571152925550719 -0.3910030424600817 0.047095954418155096 -0.4070323407649721 -0.3955095708370209 -0.31432393193244934
-0.09697550535164214 -0.5743182301525083 -0.540846228599564 0.20703071355821262 -0.5740185976028114 0.4009215235709816 0.6503426432609558 0.2612515091896057
0.27286982536318755 0.6015283465385154 -0.6910400390626001 0.21352893114099974 -0.2285480201243543 0.4250736832617902 -0.25199997425085835 0.2816573381424599
-0.09363698959350295 0.307494342327115 0.21421879529953003 0.5444894433021545 -0.49423283338546475 0.24940896034240437 0.5541000962257385 0.5661217570304871
-0.15613174438468896 -0.4570389986038975 0.6390675902365591 -0.0528597235678579 0.10604566335670011 0.642633855342946 -0.01947927474975586 0.16040271520614624
-0.3238261044025421 0.04812866449356079 -0.032364070415496826 -0.23128798604011536 -0.17022246122359957 0.44894927740096785 0.172990620136261 -0.17004603147506714
0.4490415453910546 -0.16845941543576282 -0.43807080388079017 0.19819664955149027 -0.30669730901717396 0.6463622450828478 0.41485267877567467 -0.11667639017093834
-0.5259482264518738 -0.5698981285095215 0.2577224373819205 -0.14126324653643102 -0.27093544602398817 0.27863705158238355 -0.3947069942950614 0.28485471010202246
-0.16464871168136597 -0.3191509246826172 -0.010145246982549833 0.7010971903800718 0.21086955070433708 -0.47808054089484303 0.6278871893882751 0.6129685044288635
-0.1526575684547468 -0.0075711607933000935 -0.25464719533907065 0.5359985232351889 -0.646131813526196 -0.05307275056834739 0.6230821013445078 -0.030627131461542684
0.007184445858054071 -0.1390515565872716 -0.6414895057677312 -0.11089187860498007 0.2390708327290545 -0.2589608430859576 0.2479904294013977 0.10671615600585938
-0.4461946785449683 0.06495350599285955 0.4669851660731145 0.4720438122746638 0.16140741109814943 -0.2133038341995746 0.3650129437441645 -0.6899520158762753
-0.19424587488174438 -0.005035877227783203 0.6121565699577614 -0.1502405405044838 0.19185984134619696 -0.39413043856566415 -0.2683853209011841 -0.6000977754599763
-0.6155336499213812 -0.14982867240909367 -0.239630550146097 0.23876678943633442 0.5598723292351833 -0.21951478719721934 -0.6456187963485577 0.6035566926002361
-0.5182284712791613 0.1701650023460558 -0.23688325285920023 -0.022893249988471275 -0.45778051018706645 0.07419961690894451 0.20527625083987852 -0.293450027704884
00000000: b101 0020 b072 e6bf b101 0060 1b87 e63f
00000010: df12 0060 fcc0 e33f be25 00a0 7bfd dabf
00000020: 3d01 00a0 6639 e23f e909 0000 4d6d bdbf
00000030: bdfb ff7f 1bf3 d3bf bdfb ffbf 4e05 d33f
00000040: dcd5 ff3f 92b5 d13f dcd5 ff9f 9a40 dbbf
00000050: 75f9 ffff 7a50 d0bf 75f9 ff3f 69cb de3f
00000060: 0000 0040 1ef6 d43f 0000 0000 4c08 ce3f
00000070: 0000 0000 a95a b73f 0000 0080 fe7e ca3f
00000080: 85d8 ff7f d177 debf 7b27 0080 fbd7 debf
00000090: 0000 0000 4e56 a2bf 0000 00c0 e005 cebf
000000a0: 530a 00a0 0b09 d2bf 5ceb ff7f 48a5 c1bf
000000b0: 2ff5 ff1f ab7d dcbf a315 0000 961e c4bf
000000c0: aafe ff9f 4ad0 e33f c22a 0000 04f5 983f
000000d0: 837f 0600 500e 7e3f fc33 0000 896f cfbf
000000e0: 6bf0 ff9f c1fe e43f 950f 00a0 e956 e03f
000000f0: b805 0080 bc6c cb3f 48fa ff7f b42e cf3f
00000100: 0000 00c0 26c0 da3f 0000 0000 6eae a2bf
00000110: d60a 0000 fa4f d03f 6b05 0080 1a2d e3bf
00000120: 6017 00a0 3df4 e33f 26ec 0200 bc26 96bf
00000130: e102 00a0 e7ff e3bf c205 0040 e2e2 d93f
00000140: 0000 0000 b5d9 b9bf 0000 0080 fb82 e4bf
00000150: aeed ffff b2ab d13f d7f6 ff1f f5c6 e2bf
00000160: a6f2 ffbf 8462 d33f a6f2 ff1f a90c dabf
00000170: f6f5 ff1f 0490 e53f b9af ffff e3ec b2bf
00000180: 0000 0000 1042 763f 0000 0020 514a e0bf
00000190: 43b6 ff7f 5ac0 c0bf df24 00a0 4ce8 d3bf
000001a0: 0000 0000 ca1a c9bf 0000 0000 875c c7bf
000001b0: 0000 00a0 9bb7 e13f 0000 0000 b30e b13f
000001c0: 92ec ff7f 79b6 c23f b909 0040 e5d4 da3f
000001d0: b02d 0000 fe7f d13f 29e9 ffdf 6863 e13f
000001e0: 0000 0000 f0d9 99bf 0000 0040 60a9 d03f
000001f0: 81f6 ffff 1304 d9bf c004 0040 8c13 e6bf
00000200: bd00 0000 fe32 c4bf 6000 0040 9c3b db3f
00000210: b3ff ffff 301c e6bf 4d00 0040 fd3d e4bf
00000220: 0000 0060 589f e23f 0000 0020 e464 e53f
00000230: 0000 00c0 74e4 e0bf 0000 00c0 dace e0bf
00000240: 4100 0080 75a7 e1bf 8200 0040 c3fe dd3f
00000250: 0000 00c0 9f07 d13f 0000 0040 506d d73f
00000260: 9d03 00c0 3d9d e5bf 7d0e 0000 8b85 ca3f
00000270: 0000 0000 9853 b13f 0000 0020 0b4d d6bf
00000280: 0000 0080 39df cf3f 0000 0000 439b b63f
00000290: a7eb ffff 65b8 b33f b128 0000 8ad6 a83f
000002a0: 0000 00a0 cee2 e1bf 0000 00e0 ca01 d4bf
000002b0: 7807 00c0 6bd7 dcbf bc03 00e0 c715 e43f
000002c0: 0000 00c0 dd85 dd3f 0000 0080 2f9a c5bf
000002d0: 3800 00c0 072b e5bf c8ff ff7f b9bd e4bf
000002e0: cf02 00e0 64ed e23f 8016 0000 8e50 b9bf
000002f0: d825 0000 b6f2 b73f 7509 0040 8105 dfbf
00000300: 0000 00c0 acb3 d33f 0000 0040 f5a0 d53f
00000310: 254b 0000 9776 ce3f c812 00e0 2143 e6bf
00000320: f61d 0040 f8b2 d33f 5fdf 0100 1c7d 92bf
00000330: 0000 0000 6c35 9f3f 0000 0000 eb3d babf
00000340: 0000 0040 f01b da3f 0000 0060 9fdc e03f
00000350: 8201 0060 6c65 e3bf f7f9 ff7f e1a8 c0bf
00000360: 0000 0080 e6ce cd3f 0000 0000 8d8f b7bf
00000370: 9917 0060 ba59 e63f 9d79 0100 26cf a1bf
00000380: 13fa ff7f 700f c33f 7c01 00e0 9b63 e43f
00000390: 77ff ffff 19ef b43f 1200 00e0 eb25 e13f
000003a0: 0100 0040 f909 debf fcff ffff e1f3 c1bf
000003b0: ee14 0000 1da9 b43f ee14 0000 65a4 bcbf
000003c0: 76ed ffdf aa3f e13f 8a12 00e0 2ac4 e23f
000003d0: 0000 0000 8963 c1bf 0000 0080 9081 c9bf
000003e0: 451f ffff ab65 abbf 0d0e 0060 453d e1bf
000003f0: 0000 00c0 675c d93f 0000 0000 e077 90bf
00000400: cc3a 0000 4094 9c3f d701 0020 031d e4bf
00000410: 0000 00a0 c29b d1bf 0000 0040 03f1 e1bf
00000420: 0000 0040 953c e1bf 0000 0020 1bfa e0bf
00000430: 26f9 ffff 2c2b bc3f 6f03 0000 d37e c93f
00000440: 7400 00c0 1423 d2bf 7400 0040 7803 d03f
00000450: 28a7 0000 8d80 b83f c929 00a0 3106 d9bf
00000460: a5f0 ffff f51c a83f 14fe ff5f d10c dabf
00000470: 0000 0060 0750 d9bf 0000 0020 e21d d4bf
00000480: 9195 ffff 62d3 b8bf 4e0d 00a0 d060 e2bf
00000490: 8d00 00c0 9c4e e1bf 3202 0080 fb7f ca3f
000004a0: d8fe ff3f 5c5e e2bf b1fd ffbf b2a8 d93f
000004b0: 0000 0060 9bcf e43f 0000 0040 58b8 d03f
000004c0: ff01 0000 b376 d13f 01ff ff5f b83f e33f
000004d0: 8603 0000 001d e6bf 160e 0080 ea54 cb3f
000004e0: 95f4 ffbf 0f41 cdbf 4afa ff3f 6834 db3f
000004f0: 9104 0080 c420 d0bf 9104 0080 ac06 d23f
00000500: 2eff ffff 97f8 b7bf cbff ffbf fcad d33f
00000510: 0000 0080 856b cb3f 0000 0020 756c e13f
00000520: ceff ffbf 82a1 dfbf 99ff ffff a1ec cf3f
00000530: 0000 0020 30bb e13f 0000 0060 ab1d e23f
00000540: 36f5 ffff 1ffc c3bf 6605 0080 2040 ddbf
00000550: 51fc ffdf 3d73 e43f 08c5 ffff 6d10 abbf
00000560: 3be9 ffff ce25 bb3f da02 00e0 7490 e43f
00000570: 0000 0000 60f2 93bf 0000 0080 1388 c43f
00000580: 0000 0020 91b9 d4bf 0000 0000 52a4 a83f
00000590: 0000 0000 0692 a0bf 0000 0040 d89a cdbf
000005a0: 9eff ff7f d9c9 c5bf d1ff ffbf 95bb dc3f
000005b0: 0000 0080 8e24 c63f 0000 0080 11c4 c5bf
000005c0: 05fe ffbf 18bd dc3f 08fc ffff 1390 c5bf
000005d0: f106 0020 5a09 dcbf e30d 0000 825e c93f
000005e0: 7aff ffbf eda0 d3bf bdff ffdf ffae e43f
000005f0: 12f8 ff3f f28c da3f 48e0 ffff 80de bdbf
00000600: 0000 0060 91d4 e0bf 0000 0000 9b3c e2bf
00000610: 650c 0040 867e d03f ca18 0000 ea14 c2bf
00000620: 5103 00a0 0157 d1bf 5103 0080 30d5 d13f
00000630: dcfb ff1f e142 d9bf dcfb ff3f 0f3b d23f
00000640: 0000 0080 3513 c5bf 0000 0000 f86c d4bf
00000650: 8ac8 ffff 07c7 84bf 22ff ff5f 636f e63f
00000660: e3a8 ffff c5fd ca3f 71d4 ff1f df98 debf
00000670: 0000 00e0 a617 e43f 0000 0020 709d e33f
00000680: 9d00 0080 488a c3bf 69ec ffff ef02 7fbf
00000690: b2f6 ffbf 234c d0bf 5afb ff5f e626 e13f
000006a0: 7e01 00a0 1cad e4bf 13e8 ffff 592c abbf
000006b0: 7eec ffdf 49f0 e33f b58f fdff b75c 9fbf
000006c0: d1eb 0000 706d 7d3f 5f07 0000 71cc c1bf
000006d0: ccfc ffff 1487 e4bf a819 0000 6963 bcbf
000006e0: e0d7 ff7f df99 ce3f f1eb ff7f d092 d0bf
000006f0: 0000 0080 26be cf3f 0000 0000 c051 bb3f
00000700: e6fd ff1f 748e dcbf 99f7 ffff caa0 b03f
00000710: ef12 00c0 15e3 dd3f 11ed ff3f f735 de3f
00000720: 72d1 ff7f ffa8 c43f 72d1 ff3f 8a4d cbbf
00000730: 2cdd ff3f 5f5c d73f 98ee ff3f 1614 e6bf
00000740: 0000 0080 0cdd c8bf 0000 0000 80a0 74bf
00000750: fe00 0060 c996 e33f f903 0000 153b c3bf
00000760: 79b3 ffff dc8e c83f bdd9 ffdf 6e39 d9bf
00000770: afcf ff9f 392d d1bf 2a18 0040 0034 e3bf
00000780: bbfe ff9f 73b2 e3bf 1305 0000 962d c3bf
00000790: 2bff ffbf 36ac cebf 2bff ffff e88f ce3f
000007a0: be03 0060 79ea e13f f60e 0080 0f19 ccbf
000007b0: 81ff ffbf e8a8 e4bf 81ff ff1f 5650 e33f
000007c0: 9900 00e0 5395 e0bf 6402 0080 f7c7 c53f
000007d0: e90b 00c0 3052 cebf b6a0 ffff 5371 97bf
000007e0: 30fa ff9f 464c ddbf c1e8 ffff befe b23f
000007f0: cb5a 0000 7e46 ca3f 652d 00a0 e2c7 d2bf
